models/dql.pt (torch, 551712 bytes, 6 tensors)

weight f4 [512, 8]
00000000: 8afc 0c3e 0b1a 2c3f 983e a2be 5aab 1e3f
00000010: de65 3cbd d427 d93d c7f8 4fbd 0372 28be
00000020: c972 77bf 9de3 cfbe aee4 173f beaf e0be
00000030: 2fd3 643f c0f9 04bf 7cb0 e3bd 7cd1 6cbe
00000040: 5b9a 0c3f aba0 13c0 1fd0 d43e 7a7f 8abf
00000050: 04c8 93be 7ac6 7f3d b0c7 8abe c42e 8fbe
00000060: 53f8 10bf 8a8e 6d3e c108 24be d88a a43d
00000070: 854e a23e 00a2 f0bd 778f 80bd 8808 f3be
00000080: bbe6 2bbf 7b08 c8bd 0cf3 da3e 5c96 963c
00000090: 4f9c 513f f49c dbbc 37ab de3e e0f7 e7bd
000000a0: ac1b 4cbf 5d3b aabf 436f 383f a89b dbbe
000000b0: 0753 5bbe 6d8c 473f 5396 193e 1ef8 26be
000000c0: 4034 b4bf 0282 2fbf c03b 5fbd 1588 f0be
000000d0: 53f6 a63f 7add 6a3e 8adb 91bc 29dc b03e
000000e0: c148 853f 640d 62be c697 a23e 43dd 17bf
000000f0: 4586 8fbf 72d1 d6be a3ec 1f3d 962d 253d
00000100: 0a63 dfbe b9b7 7d3b 72cb e6be 29d7 ff3f
00000110: 9d94 173f 1fad 013f 335d dd3e 4768 f6be
00000120: d02e b73e 5edc e53d e540 67bf 180b cdbc
00000130: a421 0b3e 0deb 4ebe 7b7d b1be 504e 0cbf
00000140: 3aa7 4abe 8913 33c0 5570 9abf c8c4 4f3f
00000150: 2bbd ca3e e2c9 0fbd 6746 b5be 5591 92bf
00000160: 9e30 09c0 8c10 d33e 3efd 1abf 8a73 2dbd
00000170: eb28 bebe 5738 0cbf 1a80 aebc d22c 9a3d
00000180: 5348 11bf 8321 5ac0 dd57 45bf 2ebf 98bd
00000190: 2e32 82bf 7fa9 b8be a667 b2bb 9e32 12be
000001a0: bb0a b9be 246b 9a3e 667d 3f3e a5ae e4bc
000001b0: 2fef ba3d ecf4 b7bd 3eb8 fd3d aef0 13bd
000001c0: 3047 7cbe 6cee bf3e b4be 86be 01c5 0abd
000001d0: 99b9 0e3f bc99 623f 21fd fb3d eb50 f7be
000001e0: a264 9dbd c572 3bbf 31d6 483d 5b89 783e
000001f0: 7268 773e 6283 d8bd 50d2 7e3e dede e5be
00000200: 5bf2 d83e b47a c8bf df56 3f3e dfae a4bf
00000210: f7d6 c0be 70d7 29be 1c60 283e 89f0 77be
00000220: 3575 9bbe bcf3 b73f eaea b33e 657c 163f
00000230: d651 8cbd bc25 95be fd1b f1be c8d3 2bbe
00000240: 6092 04be 6a31 6cbe 6c7d a1bd af70 a53e
00000250: ebf0 443e be30 fb3b f1a7 273e 7f0e 9ebe
00000260: 33fb 003f 92a6 40c0 5c91 3abf 5f54 0abe
00000270: f58b ab3e eccf 1ebf 6ead 493e 6adc ed3d
00000280: 500e 143f f302 afbf 5c53 f9be f6bf 843f
00000290: 9aa4 84bf 4c6a be3d 0a36 1e3e 2178 42bf
000002a0: 57e1 06bf b63a 3cbf a2c7 2b3f 25df 663f
000002b0: ae62 c53e e98a 91bd 1353 9e3e d12c a0be
000002c0: 581a d1bf 9381 293f d7c7 71bf 26f3 973d
000002d0: b16a a2bc c852 793e 5a40 89be a93c 07bf
000002e0: 2278 8dbe a5ad a1bd bafc bc3e 3258 8ebf
000002f0: 2b99 9a3e c03b 483f 4de7 403e fb24 7ebe
00000300: 14b1 1e3f 581d bcbf 8314 e2be 1928 95be
00000310: e493 ca3f 8953 3bbc 59f5 82be cce9 ac3d
00000320: d485 1abf ea76 19c0 229c 703d c62a dc3d
00000330: cc41 703f 54d4 093e 19e4 0fbf 7088 553d
00000340: 5989 5e3e 55cc 0dbe 685d ccbc d372 4c3e
00000350: 522b 56be 0822 d7bd c795 8fbe f072 6e3d
00000360: fd8c 043e 2f06 45c0 43e8 99bf e8b3 9f3e
00000370: 6f07 c1be d22e b03e cb55 e0bd 3f82 55bf
00000380: 9d4f 0e3d 587a 813f b43b 77bf 93d4 76be
00000390: 9f3b 813e 8d63 57bf 8ab3 11bf 46c3 e83d
000003a0: f26e 48bf ce9d 3abf 5c12 683e b628 adbe
000003b0: 9142 7a3e bf62 533e b58d 3c3d a4fa e93d
000003c0: 1fd4 f63e 03eb 523f 77df 603e b282 573f
000003d0: 967e 9fbe 84f1 173d fcd0 103f 4f4b 00be
000003e0: b84e 4fbe 964d 56bf 2eb3 343f 4561 9f3d
000003f0: 6064 063f e610 c03d 9729 f83e 91ac 5dbe
0.13768211 0.6722724 -0.3168838 0.6198021 -0.045995586 0.106033 -0.050774362 -0.16449742
-0.96659523 -0.40603343 0.5933331 -0.4388408 0.8938474 -0.5194359 -0.11117646 -0.23126787
0.5492303 -2.3066814 0.41565034 -1.0820153 -0.28863537 0.06244514 -0.27105474 -0.27965367
-0.5662891 0.23198906 -0.16018964 0.08034295 0.3170053 -0.11749649 -0.06277364 -0.47467446
-0.6714894 -0.097672425 0.42763555 0.018382244 0.81879133 -0.02680824 0.43490002 -0.11326575
-0.79729724 -1.3299366 0.7204477 -0.42892194 -0.21418391 0.7794865 0.1499875 -0.16305587
-1.4078445 -0.6855775 -0.05450034 -0.46978822 1.3043922 0.22936049 -0.01780488 0.3454297
1.0412828 -0.2207542 0.3175642 -0.59321994 -1.1212851 -0.4195667 0.039044034 0.040326677
-0.43630248 0.0038714244 -0.4507709 1.9987537 0.5921114 0.50654787 0.43235168 -0.48126432
0.35777903 0.11223672 -0.90333396 -0.025029704 0.13587052 -0.20206852 -0.34666047 -0.54806995
-0.19790354 -2.7980673 -1.2065531 0.8115964 0.3959745 -0.03510464 -0.35405275 -1.1450602
-2.1435924 0.41223562 -0.60542667 -0.042346515 -0.37140593 -0.5477347 -0.021301318 0.0752808
-0.56750983 -3.4082954 -0.77087194 -0.0745834 -1.0171564 -0.36066815 -0.0054444848 -0.14277121
-0.36141 0.30159867 0.1870018 -0.027915308 0.09127652 -0.08982262 0.12388657 -0.036118202
-0.24636531 0.3748659 -0.2631737 -0.033879284 0.5575195 0.8851583 0.1230414 -0.48303923
-0.0768521 -0.73222 0.049032394 0.24271147 0.24160936 -0.10571934 0.24884915 -0.44896597
0.42372403 -1.5662446 0.18685482 -1.2865866 -0.37664005 -0.16586089 0.16442913 -0.2421285
-0.3036286 1.4371257 0.35140163 0.5878356 -0.068515465 -0.29130352 -0.47091666 -0.16780007
-0.12946463 -0.23065725 -0.078852504 0.32312533 0.19232528 0.0076657226 0.16372658 -0.30870435
0.503833 -3.0101666 -0.7287805 -0.13508748 0.33505216 -0.62036014 0.19695064 0.11614306
0.5783434 -1.3672775 -0.4869641 1.0371082 -1.0362732 0.09297618 0.15450302 -0.7596455
-0.5268759 -0.73527086 0.6710149 0.9018424 0.3855185 -0.07106573 0.30922756 -0.31284192
-1.6336164 0.6621334 -0.94445556 0.07419424 -0.019826265 0.24347985 -0.2680691 -0.52826935
-0.27630717 -0.07894448 0.36911565 -1.1120665 0.30194983 0.7821617 0.18838234 -0.24818794
0.6198895 -1.4696455 -0.44156274 -0.29132155 1.5826383 -0.011433491 -0.2557781 0.08443031
-0.60360456 -2.397883 0.05874265 0.10750346 0.938504 0.13459903 -0.56207424 0.05213207
0.21732081 -0.13847478 -0.024946883 0.19965677 -0.20914963 -0.10504538 -0.2804396 0.05821508
0.12944408 -3.0785024 -1.2024006 0.31191945 -0.37700984 0.3441072 -0.10953864 -0.83401865
0.034743894 1.0115461 -0.96575475 -0.24104528 0.252408 -0.8413628 -0.5691458 0.113653705
-0.7829429 -0.7289704 0.22663254 -0.33820122 0.24439456 0.20643137 0.04603358 0.11424759
0.4820871 0.8238985 0.21960245 0.841838 -0.31151265 0.03709556 0.56568885 -0.12528728
-0.20244873 -0.83712137 0.70585907 0.077822246 0.5249691 0.09378223 0.4846923 -0.2164786

bias f4 [512]
00000000: 15ba 0c3f a94a ab3c dd20 f83c e80f 3e3f
00000010: d7a9 d33d 777f 30bf fa5d aebe 828d ddbe
00000020: 836e 783e e800 9fbd 85d1 a73d abe6 0fbf
00000030: 88b3 20bf 7e71 2cbf d495 0e3d 0768 0ebf
00000040: 7681 c6be 4d44 173f 216b de3e 7ba7 3cbf
00000050: 0de9 44be 9ca2 1d3f 59e2 04bf 11eb d13c
00000060: 5e1f 4b3e 3c61 b33e 8832 03bf 218d 67be
00000070: f517 c2bd bd37 df3e 632c 5fbe 3d1b bf3e
00000080: 2b4d e03e dd47 3bbc 2796 cb3c 1420 06bf
00000090: 04f0 34be ffa8 ac3e 3511 663e abac 91be
000000a0: 0a78 27bf f049 c13e 6f38 c3be b2f7 47bf
000000b0: b6e8 253f 0285 54be 8167 c8be b45f 06be
000000c0: 0474 4d3e 21d9 a53e be96 aa3d 3109 313d
000000d0: 2eb1 13be f1ff 023f b572 3abc b3a1 093f
000000e0: fce4 63bf 4b62 f03e 3b5a 163f 3bf5 8c3e
000000f0: eea6 29be 89b7 84be c19e 0d3f 4942 c3be
00000100: aec2 eb3e 6c6a bcbd 70e3 9c3e 3f4f c33d
00000110: aa03 2f3e bec7 683e f294 103f 8176 bebe
00000120: ed90 2ebe 8738 3dbf bfb8 5f3d 0f43 d8be
00000130: 1d87 a4be 1d79 e13e 7c77 84be 1202 8c3d
00000140: d8e7 a0be 4f3d c43e 10dc 033c b3ae 0dbf
00000150: 0584 09be 1609 203c 1d55 debd b46c 10bf
00000160: 5d5b a6be 7e59 133f 4bb9 a4be c982 0d3f
00000170: b9d2 183f 267d 1e3f 2933 c0be 9b54 b1be
00000180: 6719 18bf bec7 87bd bafb 8cbe b86a ee3d
00000190: 04b8 143f db34 0abf 49f7 1e3f a7b5 dcbe
000001a0: 5107 dcbd cc07 bb3e db5b 143f bd00 443b
000001b0: 9ede 4dbf ba68 2b3e a1b8 f1bd 4146 80be
000001c0: 57a5 3dbf 0cd9 1c3e a06c 71be 0d73 34bf
000001d0: f934 5dbf 7fd8 7a3e 3d78 54be 89f1 2dbe
000001e0: 2ffd b7bc 7115 893e 1504 2ebe dee9 163e
000001f0: 5ae6 833e bee1 95bd 32c4 95be e71d abbd
00000200: 75bf 433e 4054 76bc 3da0 003e 615a 98be
00000210: efbf 11bf 027c 2abf 682c 413f f3ae 90bd
00000220: dbf9 99be 2277 91bb ebdd 3ebf 0d37 45bf
00000230: 832d d53d 4bc1 31bf e8cf 8bbe 55af 853e
00000240: 71fc 3bbf 7461 9abe 69fc 12be eee9 2e3f
00000250: 329d df3d b434 493e edf4 2a3f 4017 83be
00000260: 3968 31bf a4b5 c4be a003 26bf acff b5be
00000270: d183 2b3b af77 033f fae5 28bf e61f 4e3e
00000280: 4cb2 e33e 32bf 28bf dd1a 8b3e bb4c 83be
00000290: d443 73bc e76f 073d b96c 80be 7c40 2c3f
000002a0: 144b 003f e215 d13e f32d 27be ef20 48bf
000002b0: 3bbd 2bbe 0958 723e c780 b6be 7f34 31bf
000002c0: 5c01 c33d c183 88be 40ff 723e af13 3bbf
000002d0: 2114 90be 8ea9 7f3e 3d48 f63e 5c5a 9ebf
000002e0: 0889 303d f38b 32be edda 993d 8cb2 5c3e
000002f0: 3a6f babe 21b8 ab3e 3c65 4abf d995 44bf
00000300: e878 e2be 68c6 253f 3b93 893e 6d2e 523d
00000310: 83ce 32bf a2f6 85be ca72 26be 7eb8 69bd
00000320: f7c9 dd3d 4efb 25bf cb03 cd3c 6cce 99be
00000330: b4f9 4e3e 8a38 f3be ca4b 14bf 3e7b 39be
00000340: ec78 92be b2e9 16bf 2bcb 63be 6f3f ea3e
00000350: 68c4 2f3f b4a9 e13c 7c73 bf3e 3f27 c7be
00000360: f3c9 ae3e 71a1 d2bb 7904 843e c9e9 243e
00000370: 4428 ecbe 4204 d8be 25ae 31bf f4f5 d5bd
00000380: 3835 02bf 51ad 873e c759 e7be b010 fdbc
00000390: 432f a4be 05d6 5fbf 3978 19bf f0c5 43bf
000003a0: d791 cbbe 6c64 b63e 45b7 e2bd 41ad 3e3e
000003b0: 13c2 a2be 6127 abbe d263 5ebf daea 223e
000003c0: 392a 143e c016 9dbe 6ab4 2ebf 699d c63e
000003d0: a61b 1abf 2c02 33be 0c23 6abe 919c 8dbe
000003e0: a1c3 0bbf 045d 8cbe ddf6 ecbe f2b7 38be
000003f0: 558f 45bf d074 aabe 63b8 883e 8446 153f
0.5497144 0.020909624 0.030289108 0.7424302 0.10335129 -0.68944496 -0.34056073 -0.43272024
0.24260907 -0.07763845 0.081942596 -0.56211346 -0.6277394 -0.67360675 0.034810856 -0.55627483
-0.38770646 0.59088594 0.43441108 -0.73693055 -0.19229527 0.6157625 -0.5190788 0.025624784
0.19836184 0.3503512 -0.5124898 -0.2261243 -0.09477226 0.43597212 -0.21794276 0.3732547
0.43808874 -0.011430708 0.024851872 -0.523927 -0.17669684 0.33722684 0.22467501 -0.28452048
-0.6541754 0.37751722 -0.38128993 -0.7811233 0.64808214 -0.20753863 -0.39141467 -0.13122445
0.20063788 0.3239222 0.08329533 0.043221656 -0.14423057 0.51171786 -0.011379887 0.5376236
-0.8902128 0.46949992 0.5873143 0.27530846 -0.16567585 -0.25921276 0.55320364 -0.3813651
0.46046966 -0.09199986 0.3064227 0.09536599 0.17091241 0.22732446 0.5647727 -0.37199786
-0.17047472 -0.7391438 0.054619547 -0.42238662 -0.32134333 0.44037715 -0.2587241 0.068363324
-0.31426883 0.38328025 0.008048072 -0.55344695 -0.13429268 0.009767791 -0.10856078 -0.5641587
-0.3249158 0.5755843 -0.32172617 0.5527769 0.5969654 0.6190971 -0.37539032 -0.3463486
-0.5941376 -0.06629895 -0.27535802 0.11641449 0.58093286 -0.539869 0.6209608 -0.4310734
-0.10743583 0.36529386 0.5795266 0.0029907667 -0.8041781 0.16739169 -0.11802793 -0.250536
-0.74080414 0.15317172 -0.23576593 -0.70488054 -0.86408955 0.24496649 -0.20748992 -0.1698667
-0.022459595 0.2677417 -0.16993745 0.14737651 0.25761682 -0.073184475 -0.29251248 -0.08355313
0.19116004 -0.015034735 0.12561126 -0.29756454 -0.5693349 -0.6659547 0.75458384 -0.07064619
-0.30073437 -0.0044392506 -0.7455737 -0.77037126 0.10409071 -0.69435567 -0.27307057 0.2611033
-0.7343207 -0.30152476 -0.143541 0.683257 0.109186545 0.19649011 0.6677998 -0.25603676
-0.69299656 -0.3841983 -0.6484928 -0.35546625 0.0026171098 0.513545 -0.65975916 0.20129356
0.44471967 -0.6591674 0.27168933 -0.25644478 -0.014847714 0.033065703 -0.2508295 0.67285895
0.5011456 0.40837008 -0.16326122 -0.7817525 -0.16771404 0.23666395 -0.35645124 -0.6922073
0.09521744 -0.2666302 0.23730183 -0.7307691 -0.28140357 0.24967024 0.48101988 -1.2371325
0.043099433 -0.17436199 0.0751246 0.21552485 -0.36412984 0.33538917 -0.7906072 -0.7679115
-0.4423287 0.6475587 0.2687014 0.051313806 -0.6984636 -0.26164728 -0.16254726 -0.05706071
0.10829537 -0.64836586 0.025026223 -0.300403 0.20212442 -0.47504073 -0.57928145 -0.1811342
-0.2860788 -0.5895034 -0.22245471 0.4575152 0.6865907 0.027546741 0.37392795 -0.3889713
0.3413845 -0.0064279367 0.25784662 0.16104807 -0.4612447 -0.42190748 -0.6940635 -0.104473025
-0.50862455 0.26499417 -0.45185682 -0.030891746 -0.32067308 -0.8743594 -0.5994907 -0.76473904
-0.39759704 0.3562349 -0.11070112 0.18620779 -0.31788692 -0.3342848 -0.86871064 0.15909901
0.14469232 -0.3068142 -0.6824404 0.3879197 -0.6019844 -0.17481297 -0.22864932 -0.27658513
-0.5459538 -0.27414715 -0.46282092 -0.1803892 -0.7717183 -0.33292246 0.26703176 0.58310723

weight f4 [256, 512]
00000000: ef42 08bf e321 a1bd fc92 d33e 304f 10bf
00000010: c5a1 9d3e 1e30 563f f6da ce3e 62c8 91bb
00000020: ea4a 0dbf e457 ad3d 3fb4 ba3e cfb2 19bf
00000030: d4bd 04bf e735 be3d 471e 093f 6052 91be
00000040: d3b4 b33e 3a46 15bf 9e29 81be 7748 0c3e
00000050: 0915 41bd e618 bb3c 7ee6 613c d965 633e
00000060: fcea 89bd f5f4 dfbe 358d 4b3c bfed c73e
00000070: 66b5 bcbe dd0b a3bd 62b5 1cbe 69f7 80be
00000080: 9b11 9ebe a21f f43d 2e9b 983f a7f1 e73e
00000090: 7629 37be 8e0a d93b e560 b7bb eac8 013d
000000a0: 0b21 113f a5e7 5fbe f2d1 2c3e 6d12 373c
000000b0: 0429 8b3e ab9a c03e 9ded 913d 39ff 7d3d
000000c0: 0569 b2be be02 8dbe d284 ba3e e184 5fbd
000000d0: 4a3c fcbe 3f50 97bf 3ae5 f3be 0a39 0abf
000000e0: 1162 11c0 0959 22bd 9b80 10be 28a1 c0be
000000f0: 6960 f83e caa8 163e 9b97 a0be a6f0 e23d
00000100: 30aa 09be 81ff 44be 4887 abbe d495 473e
00000110: 216f 07bf 5fa8 7c3e ce8c 15bf b760 e8ba
00000120: 844e 4f3f fd95 0bbd e01d 21be 7bac cf3d
00000130: 367f f0be fed7 f6bd 4c8c b5be 5f0c 733e
00000140: 5289 39bc ef4a 92bd b96a 46bf 7f41 483f
00000150: 9b82 763d cb7e 3cbe bd38 8fbe a5fc 4cbf
00000160: 4c7c c83b 4e50 7dbf 8a44 643c 2d1c 18bf
00000170: 754f b7be 0d24 01be dfb8 41bd 3615 8a3d
00000180: d65f 19be e771 36bd deac 8e3e 0d59 86bf
00000190: eefb 713d 8bf5 0abf 33db b7be 682a 3ebb
000001a0: 3e56 58be 5f17 32be 7353 b0bd b148 26be
000001b0: a702 f9be b44e 21bf 3602 2b3e 2b19 323f
000001c0: 8e3e 1fbf 8014 ff3e d40a 07bf a87d 95bf
000001d0: ec22 fbbe 6a9d 0b3f d19a 243f d69d c93d
000001e0: df7d 0d3f c363 17be 176d c73d c323 893e
000001f0: 5694 3c3e d317 1d3b ade3 de3e 8bb8 353f
00000200: 8784 a5be 2bf0 59bf 2ba2 00c0 043c c4be
00000210: 0237 f13e 1446 163f d42c 9fbf 46c1 acbe
00000220: 2a1c 503c fdb4 afbe 8063 ab3d abc6 b23e
00000230: 087c 77bf 5383 cb3e bb22 553e bc4f 533e
00000240: af0b 0c3f 8962 b53e c9ef cd3e bf00 88bf
00000250: 8201 bfbd 5502 1bbe 4e46 eabe b1b0 a33e
00000260: 39d4 f73e ad7b 51bf 5ff3 753e caef a83e
00000270: b6a4 86be 656b 3f3e d1dc 63bf 488a 623d
00000280: 1aae 5cbe 1390 acbe 7c9d 6c3e 9d37 e73e
00000290: abfb e03d 9fd4 913e 7539 903c 070c 463e
000002a0: 5b41 c2be c62a 543e 307f c6bc 9905 8bba
000002b0: edfe cbbe 5d77 dfbe 306a 203f 02ee 09bf
000002c0: 09d1 9bbc d5c3 2a3f 8b28 29be afc6 82bf
000002d0: c2a2 843e 1acf 80bf 6cc8 0dbf 2727 e43e
000002e0: 6ea9 343e e87c a03d d247 b33e b9ef 23be
000002f0: 06fb 32bd 6985 5bbf a24c 05be 27c9 05bf
00000300: 82cf 6f3c 6b50 00be 31d6 c3be 8bfd 97be
00000310: 366d 07bf 9088 64bd 5ae7 1d3c 4e2e 9ebe
00000320: 6f55 bbbb f1ab 073e 21e6 49bb 265b 82be
00000330: 5e64 27be a717 0f3f cf5e 26be 7700 ed3e
00000340: b3f6 1cbe 4a63 37be d355 cabe 77b2 57be
00000350: e00b a5be 9ed3 2bbf 5148 7dbd 909b 3ebc
00000360: a7b7 7abe 2051 a1be 1a2b 0dbe a657 a03e
00000370: 6e5b e3be b2b3 7abe 2aa9 57bd 7b49 11bf
00000380: 52af 95be 8ee6 abbe 2abb 34bf 6311 36be
00000390: be97 e53e 96d0 56be d6de eabe 662c be3e
000003a0: 6e7f 98be d24b 2cbd 80d7 ab3d 3dbd 8b3e
000003b0: fa1e 043e 9732 cd3e 06fe ecbe a00f 3bbe
000003c0: e038 00be 80f7 3b3e e1a1 59be 5206 5a3e
000003d0: afa2 8d3e de3c c5bd 6ecb ba3e 9790 d2be
000003e0: bf1a 8e3e a243 ef3e 7a66 8fbe 775c 84bd
000003f0: 0aaf ef3d 664d 903e 8f8f 2cbf 3362 26be
-0.5322713 -0.078677915 0.41323078 -0.5637083 0.30787483 0.8366717 0.4040143 -0.0044489363
-0.55192435 0.084640294 0.36465642 -0.60038465 -0.51852155 0.09287625 0.53561825 -0.2838316
0.35098895 -0.5831028 -0.25227064 0.13699518 -0.0471392 0.022839021 0.013787864 0.2220682
-0.06734273 -0.43741575 0.012423803 0.39048573 -0.36857146 -0.07961247 -0.15303567 -0.2518876
-0.30872807 0.11920096 1.1922357 0.45301554 -0.1788691 0.0066235727 -0.0055962675 0.031685747
0.56691045 -0.21865709 0.16876963 0.011173827 0.2717973 0.37618002 0.07125399 0.062010977
-0.3484575 -0.27541155 0.3642946 -0.054570083 -0.49264747 -1.1821364 -0.47635823 -0.53993285
-2.2716105 -0.03963569 -0.14111559 -0.37622952 0.48511055 0.14712825 -0.31365666 0.11081056
-0.13443828 -0.19238092 -0.3350165 0.19490749 -0.52903944 0.24673603 -0.58417976 -0.0017729019
0.8097918 -0.034078587 -0.15734053 0.1014032 -0.46972054 -0.12052916 -0.354586 0.23735188
-0.011324244 -0.07143199 -0.77506596 0.7822494 0.06018315 -0.18407743 -0.27972975 -0.80073005
0.006118333 -0.9895066 0.013932357 -0.5941799 -0.35802808 -0.12611409 -0.047295447 0.06742327
-0.14977965 -0.04454222 0.27866262 -1.0495926 0.05907815 -0.5428092 -0.35909423 -0.0029016975
-0.21126649 -0.17391728 -0.08609667 -0.16238667 -0.48634836 -0.63010716 0.16700062 0.69569653
-0.62204826 0.49820328 -0.527509 -1.1678972 -0.4905008 0.5453707 0.6429873 0.09844558
0.5527019 -0.1478415 0.09737604 0.26785097 0.1841596 0.00239705 0.43533078 0.70984715
-0.32327673 -0.8513209 -2.009898 -0.38327038 0.4711228 0.5870068 -1.2435555 -0.33741206
0.012702027 -0.3431777 0.083685875 0.34917197 -0.9667363 0.3974863 0.2081403 0.20635885
0.5470533 0.3542674 0.40222004 -1.0625228 -0.093264595 -0.15137608 -0.45756763 0.31970742
0.484041 -0.8182934 0.2401862 0.32995445 -0.2629754 0.18693312 -0.89008814 0.055307657
-0.2155079 -0.3370367 0.2310695 0.45159617 0.10985502 0.2848253 0.017605523 0.19340526
-0.37940487 0.20719442 -0.02423057 -0.0010606527 -0.3984293 -0.43645754 0.6266203 -0.53878796
-0.019020574 0.66705066 -0.16519372 -1.0216883 0.25905424 -1.0063202 -0.55383945 0.4456112
0.17642757 0.07836324 0.35015732 -0.16009416 -0.043696426 -0.8575044 -0.13017514 -0.5226006
0.014636876 -0.12530677 -0.38249353 -0.29685625 -0.5290102 -0.0557943 0.009637678 -0.30894703
-0.0057169716 0.13249184 -0.0030807334 -0.25460166 -0.16346881 0.55895466 -0.16247104 0.46289417
-0.15328483 -0.1790897 -0.39518604 -0.21064173 -0.32235622 -0.6711978 -0.061836544 -0.011633769
-0.2448412 -0.31507206 -0.13785973 0.3131687 -0.44405693 -0.24482611 -0.05265156 -0.5675275
-0.2923532 -0.33574337 -0.7059809 -0.1778007 0.44842333 -0.20978007 -0.45873135 0.37143248
-0.2978472 -0.042064495 0.08390713 0.27292815 0.12902442 0.4007766 -0.46287555 -0.18267679
-0.12521696 0.18356133 -0.21253158 0.21291474 0.2766318 -0.0963075 0.3648333 -0.41125938
0.2775478 0.46731287 -0.2800787 -0.06462949 0.11703308 0.2818405 -0.67406553 -0.16248398

bias f4 [256]
00000000: 5a5a 24be 4516 fc3d afcd 05bd 14c2 823d
00000010: c0bc ef3d dda0 53be b134 4bbd 5cb1 84be
00000020: ecab 95bd 5ec1 b53c fd42 0d3f 594c ad3c
00000030: 92eb 84bd 4593 56bd 97dd 5abd 8355 76bc
00000040: 8932 7fbe 3172 413f e61c c33d 2965 10be
00000050: 8f29 82be 3d30 8cbc ea45 863b 33df 66ba
00000060: 3cf2 53bd 32d4 c23c 0692 52bd fa78 3e3e
00000070: fea4 2bbe 5ec6 bebe 6237 583e 6195 86be
00000080: 7313 9cbd e284 3b3e 69e3 7abd e8f5 cb3c
00000090: 48ce 14bc afe5 37be f387 cbbd 112a c6bd
000000a0: 1fde da3e e302 58bc ea65 e0bd df3d 403b
000000b0: 11c0 ad3e 7596 03bd fca5 293e 6f98 e6bd
000000c0: 6136 3dbd 124e 40bd 58a2 8cbc 3e8d b5bc
000000d0: c352 bf3e 0508 03bc ff8b 42be d7aa 343e
000000e0: bda6 0cbd 1d4d c63e 890c 16bc 33b7 07bb
000000f0: ab7b 3bbd 3112 20be e3e3 1ebc 9da5 4bbe
00000100: 0b79 13be ff1a 883c 67e1 733c b5bc 5c3e
00000110: c6d2 bcbc a261 c93d d900 a63e 4bbb 1cbd
00000120: eca2 d5bc 3b26 e2bb 1079 51be 1566 19bd
00000130: 18d5 2cbd e5c9 73bd c494 8b3e 0cd5 e33d
00000140: 616c 91bd 98c2 c9bc 6828 613e a16f c43d
00000150: 4893 e13c 058f 83bd 8e49 3d3e 31a2 c8bc
00000160: 416b c83a 89eb 073d 2040 f2bc e986 9c3c
00000170: 9df8 cfbd 9631 1f3d 6d26 20bd c4a8 dbba
00000180: 6505 5abe f46a 0b3c 9cde 96be c4b3 d03a
00000190: 9508 773c 5e23 0ebd 2dc3 963d a74f 273e
000001a0: c1df 1e3f 89f0 eb3d b53a 92be fabc 6c3d
000001b0: 86b6 143d 8353 a13c d341 88be 4c63 09bd
000001c0: c63d aa3e 7204 4d3e 284b d83c 21bf 9bbd
000001d0: ad10 4cbe 43e2 98bd 7525 82be da4c 73be
000001e0: e51d 31bd 391c 1d3f d7dd 84bd d377 e6bc
000001f0: 2958 12bd f629 783e 0283 d9bd ee1e 45be
00000200: b39b c2bd ca1f dbbd b52c d7bd 2fcc 4bbd
00000210: 784b 99ba f7df 4abd ba93 5fbd 13f1 c7bd
00000220: 4ac9 11be ecfd c23e 9db7 4bbd 1b74 98bd
00000230: a716 07bd a025 bbbc 9407 95bc 9bec a9bd
00000240: 46e0 053e 2574 7ebd ec23 0a3d 9918 26be
00000250: 5a80 05bc 5453 15be 95b4 1c3e 3342 49bd
00000260: ad5d 97ba 2f20 313f ca62 fd3c 417e bc3a
00000270: de94 83be e77e 4d3f a606 9dbd c0db 883b
00000280: c7b3 103e f3a4 303e 354b b7bc 609a d8be
00000290: af06 a0bd 232e d7bc ad62 82bb c21d 93bd
000002a0: 9c6f 353f 0033 4fbd bcb2 d1bc 414d 1f3e
000002b0: a135 a1bd b9e2 183e da25 2b3e 47f8 2bbe
000002c0: f651 db3e ad91 27be e962 163f 67cb 37bd
000002d0: b539 d83d 78ce 9a3c 3ec4 043f 3b1a 853e
000002e0: 7f54 8b3e 8156 c2bd 6f0b 88be e13a a63e
000002f0: 854e 283a ca93 41bd 161b 2e3e 6e08 e03e
00000300: 249f b4bd c4c3 213f 078f abbe 9eed c9bd
00000310: ec46 113b 82e6 05be 180f d93c d7fc 8abd
00000320: 2240 ba3e 61c9 54bd e92b 0e3e 7758 df3a
00000330: 3dda 3f3c 0390 4ebd 5c16 a6bb a193 eb3c
00000340: 1001 2ebe 9a82 823e 39f8 17bc 2b45 85bd
00000350: bd2a 88bd df54 603d cacb 083c 8c9e 66bb
00000360: 32da 8bbe 64a5 68be bc59 083d 75c4 40bd
00000370: 17ee 7dbd 739e 6b3d 2049 4ebd b4bc a23c
00000380: 08e1 74bd 374d 1b3f 328d 37bd 188b f3bd
00000390: 5105 083f 584b c7bc 1824 babd 776b 8f3e
000003a0: 70ce 1fbd 3979 04be 7040 1bbd 73d4 e43d
000003b0: 61b4 26bd e16d 013e 0581 a93e 60d5 27bd
000003c0: 46cc 9ebd e734 283d 8012 8ebd a84b 2fbd
000003d0: b4e7 fcbd 4c6f a63d 7614 7ebd c3d3 30bd
000003e0: e01d a1be 66ac 9b3d 5de0 eabb 11fb bbbc
000003f0: 5f2e b2bc 15b1 8abd 9068 b53d e533 bbbc
-0.16050091 0.12308935 -0.03266686 0.06384674 0.11705923 -0.20666833 -0.049610797 -0.25916564
-0.07308182 0.022186931 0.5518034 0.02115457 -0.06490244 -0.05238654 -0.05343398 -0.015035036
-0.24921621 0.7556487 0.09526996 -0.1410109 -0.25422332 -0.017112846 0.00409769 -0.0008807063
-0.051744685 0.023782823 -0.05140879 0.18600836 -0.16762158 -0.37260717 0.21114877 -0.26285842
-0.07620897 0.1831241 -0.06125203 0.02489753 -0.009082384 -0.17958711 -0.0993804 -0.09675992
0.4274759 -0.013184282 -0.109569386 0.0029333753 0.33935598 -0.03212591 0.16567224 -0.11259543
-0.046194438 -0.046949454 -0.017167255 -0.022162076 0.3736783 -0.0079975175 -0.18998717 0.17643295
-0.0343387 0.38730708 -0.009158262 -0.002070856 -0.045772236 -0.1563194 -0.009697887 -0.19887395
-0.14401643 0.016614435 0.014885283 0.21556361 -0.023049723 0.09833075 0.32422522 -0.038264554
-0.026078664 -0.00690153 -0.20456338 -0.03745087 -0.04219541 -0.059518714 0.27261937 0.1112462
-0.0710075 -0.024628922 0.2198807 0.09591604 0.02753605 -0.06423763 0.1848509 -0.024491401
0.0015290753 0.03318361 -0.029571593 0.019107299 -0.10154841 0.03886565 -0.039099146 -0.001675867
-0.2129112 0.008509386 -0.29466712 0.0015922715 0.01507773 -0.034701698 0.073614456 0.16338979
0.6206017 0.11520488 -0.28560415 0.05779741 0.03630688 0.019693142 -0.2661272 -0.033541963
0.33250254 0.20021227 0.026403025 -0.07604814 -0.19928236 -0.07465031 -0.25419202 -0.23759785
-0.0432414 0.6137119 -0.06487625 -0.028133309 -0.035728607 0.24234757 -0.10620691 -0.1925008
-0.095023535 -0.10699423 -0.10506574 -0.04975527 -0.0011695465 -0.049529996 -0.054584242 -0.09762778
-0.14236942 0.38084352 -0.049735654 -0.0744402 -0.032980587 -0.02284509 -0.01819209 -0.08297082
0.13073835 -0.062122483 0.033725664 -0.16220321 -0.008148277 -0.14582568 0.15303262 -0.049135398
-0.0011548303 0.69189733 0.030930895 0.0014380888 -0.25699514 0.8027176 -0.07667284 0.004176587
0.1413108 0.17250423 -0.022374729 -0.4230528 -0.07813775 -0.026267117 -0.003979048 -0.0718341
0.7087343 -0.050585747 -0.025597923 0.15556814 -0.07871557 0.14930238 0.16713658 -0.16793929
0.4283597 -0.16364165 0.58744675 -0.044871714 0.10557882 0.01889728 0.5186194 0.25996575
0.27212903 -0.094891556 -0.26571223 0.32466796 0.0006420392 -0.047260083 0.1700252 0.4375643
-0.08819416 0.6318934 -0.3350756 -0.09859775 0.0022167517 -0.13076213 0.026496455 -0.067865066
0.36377054 -0.051949862 0.13883938 0.0017039914 0.011709747 -0.05043031 -0.0050685834 0.028756918
-0.16992593 0.25490266 -0.0092754895 -0.06507333 -0.06648777 0.05476844 0.008349368 -0.0035189716
-0.27314907 -0.22719342 0.033288702 -0.047062356 -0.06199464 0.057524156 -0.050362706 0.019865371
-0.05978492 0.60664696 -0.04481239 -0.118917644 0.5313311 -0.024327919 -0.090889156 0.28011677
-0.039015234 -0.12936868 -0.03790325 0.11173334 -0.040699366 0.12639572 0.33106247 -0.040974975
-0.07753806 0.041066077 -0.06937122 -0.04279676 -0.12348881 0.08126697 -0.06203123 -0.0431707
-0.31468105 0.07601242 -0.0071678595 -0.022946866 -0.021750627 -0.06772057 0.08857834 -0.022851894

weight f4 [4, 256]
00000000: 5823 4dbe 3884 57bf 6826 fbbc 17fb 2abf
00000010: 833b 083f 6346 e6be eba1 443d c2e8 62be
00000020: b281 3abd 8531 63bc c790 83bf c495 f5be
00000030: 3342 b3be b3c2 01be 22da c3bc b01a 4f3c
00000040: fb1c b73a 5379 273f aa50 02bf fc77 ccbe
00000050: 7ab3 233e 8e27 03be 9a06 21be 42fc 82bd
00000060: a0d1 8a3b 6f40 e63b e03d 73bc 5ebb 24bf
00000070: 924e f0be aa86 b03e fb72 10bf 86b9 6fbe
00000080: 1aab 24be 35da 83bf 4ff3 3abd ab51 573d
00000090: 09d0 513d 5d03 bb3e 1bb6 a4bd 538f d63e
000000a0: 4c12 36bf 5de0 0a3d 7dee 513d e565 893e
000000b0: 4194 ccbe a7a3 113d aa22 06bf a432 45be
000000c0: fec0 20bd a85e 393d a896 15bc 7605 263d
000000d0: f650 07bf 0489 223d a3cb c0be 1a7a 10bd
000000e0: 3b8a 533d e3e4 34bf 9cec 75bd dcdf a43d
000000f0: cf29 1abd 7dfa 25be 88fb 9c3b fe31 96be
00000100: a843 9c3e 8913 a7be f930 5cbd e02e 45bf
00000110: 82b9 1fbd 7e3a 1ebf e029 68bf bc63 b63c
00000120: 4b04 473d d074 8dbb dee0 0f3f 02a5 13bf
00000130: 921c 4fbd 0ba8 98bc 681b efbe 0468 c7be
00000140: 6a37 2abc 0c1a 193d 0097 52bf 8f1f 59bf
00000150: 1190 70bd 5101 96be 96d1 12bf fac2 52bd
00000160: bd99 113b fe45 013f 2941 1bbd b46d 7bbc
00000170: 23bd 1cbf 72b2 24bf 222a 563d eee1 cebd
00000180: cdcc 55bf d7a4 093d 2595 7f3e d66d c33c
00000190: 218a 79bc 4b4f 013c 0cdc 4fbe 85b1 11bf
000001a0: 0fed 2d3f b0f5 eabe c6d7 8dbe 7a73 51be
000001b0: ccdf 5dbc d6d3 9dbd f6b8 f1be b815 39bd
000001c0: 9e50 03bf f717 e03e f2cd 10bd 040f 7cbc
000001d0: 23da 0dbe 4a11 083d 04f9 9e3e 8673 2dbe
000001e0: 8629 f13c 7503 163f aaf0 293d b5ab a7bd
000001f0: b117 903c 9f00 efbe 6630 cebd f581 97be
00000200: 6cad 18be f1ff 87be fd56 b1be 1a6b 573d
00000210: fa67 33bd 4b40 c53d 3b6b 4e3d 800e 8c3f
00000220: 2b88 de3d 425d 48bf e9b4 e0bc b522 1b3d
00000230: 780c db3c e0d3 9b3c ed7f 40bd 63da 0d3e
00000240: c04b e33e 7e18 f23c a810 25bc 5870 873c
00000250: 3b91 41bd 739f 02be b2da 1dbf 8f22 313d
00000260: d966 52be 14d4 403f c808 283d 627c 05bf
00000270: 38f2 773f ff83 543f 38a9 793c 4eec ed3b
00000280: 5224 f8be ae9c 16bf 6763 05bf c011 893e
00000290: 4fb9 983d 0d1f 5e3d e462 acbc 5064 56be
000002a0: b411 453f 816d 783b 6616 09bd 9d7a 863f
000002b0: 50a7 04be 2b5a 1fbf 777a 48bf 1591 38be
000002c0: f648 bdbd a10c 1ebf d5d7 febe 6861 39bd
000002d0: c2da 80bf 6a99 673d 7fbe 613f 64d6 9cbe
000002e0: 10e3 00bf c5aa 66be 1b3a d3bd 25b4 d5be
000002f0: 860f bcbe 4c8c 1bbd 7981 88be c3b6 1e3f
00000300: 5cce 08bd 3ad6 b63e 7220 863f 1005 ca3e
00000310: 1d32 29bb 9b16 62bf 117e c83d b7d7 203e
00000320: e205 8cbe 2130 e8be 51d0 2dbf e08b 87bc
00000330: ebc5 bf3c feb7 0c3d d07d 013d 87ab 43bd
00000340: cbe0 43be 96f5 463f 2036 d0bb 4607 bdbc
00000350: b0dc 763c 1378 27be 1082 3dbd 3afc 70bd
00000360: 997b a63c 6ad3 82be ad07 0abb bc11 f83c
00000370: 217d 48bf 012e 4bbf abb3 ad3c 6dee d8bb
00000380: 210e b1bd 6939 e0be d49c 2dbd 336b abbe
00000390: d0bf 2e3f 4013 68bc 864a b4bc 4e4b 10bf
000003a0: 4c5e c43c bd4e d5be 5cf2 6c3d f83f 35bf
000003b0: 9bb3 933b ee31 4abf cdee 95be 09e6 8c3c
000003c0: 086e 59bd c409 16bf 223e e1bd 32c3 9f3c
000003d0: 81f9 33be b677 f0be 342e f4be b0c7 0abd
000003e0: 2c58 e8be b5ed 78bf 25c4 543d 3435 2c3d
000003f0: f204 21be dc76 04bc a611 6dbd 4026 4abf
-0.20033014 -0.84186125 -0.030657962 -0.6678938 0.5321581 -0.44975576 0.04800598 -0.22159103
-0.045533843 -0.013866787 -1.0278558 -0.47965825 -0.35011443 -0.12671928 -0.023907725 0.01264064
0.0013970429 0.654195 -0.50904334 -0.3993529 0.15986434 -0.12808058 -0.15725175 -0.063957706
0.004236415 0.007026724 -0.014846295 -0.643484 -0.46934944 0.3447774 -0.56425446 -0.23410615
-0.16080895 -1.0300967 -0.045642193 0.05256812 0.05122379 0.36526003 -0.08042546 0.41906223
-0.7112167 0.033905376 0.05125283 0.26835552 -0.3995686 0.03555646 -0.52396643 -0.19257599
-0.03924655 0.045256287 -0.0091301575 0.04053255 -0.5285791 0.03968145 -0.37655362 -0.035272695
0.0516455 -0.70661753 -0.0600401 0.0805051 -0.037637528 -0.16208835 0.004790727 -0.29335016
0.30520368 -0.32632092 -0.05375764 -0.7702465 -0.038995273 -0.61808 -0.90688896 0.022264354
0.04858808 -0.0043169037 0.56202495 -0.57673657 -0.050564356 -0.018634817 -0.46700597 -0.38946545
-0.010389188 0.037378356 -0.8226166 -0.8481378 -0.058731142 -0.2929788 -0.5735105 -0.051455475
0.002221688 0.50497425 -0.03790394 -0.0153459795 -0.612261 -0.64334786 0.052286275 -0.101016864
-0.83515626 0.03360447 0.24959238 0.023856085 -0.015230686 0.00789244 -0.20298785 -0.569115
0.6793985 -0.4589057 -0.27703685 -0.20454207 -0.013542127 -0.0770642 -0.47211426 -0.04518673
-0.5129489 0.43768284 -0.035352655 -0.015384439 -0.13852744 0.033219613 0.3104936 -0.169386
0.029438745 0.58599025 0.04148928 -0.081870474 0.017589422 -0.4668016 -0.10067825 -0.29591337
-0.14909905 -0.26562455 -0.3463668 0.052592374 -0.04380033 0.096314035 0.05039523 1.0941925
0.10865816 -0.782673 -0.027430015 0.037874896 0.026739344 0.019021928 -0.046997 0.13852839
0.4439373 0.029552694 -0.010074772 0.016533062 -0.047257643 -0.12756138 -0.6166183 0.04324585
-0.20547046 0.75323606 0.041024 -0.5214292 0.9685397 0.8301391 0.015238099 0.0072608357
-0.4846521 -0.58832824 -0.521048 0.26771355 0.0745722 0.05422883 -0.021043248 -0.20936704
0.7698014 0.0037907066 -0.033468626 1.0506169 -0.1295445 -0.6224696 -0.78311867 -0.18024094
-0.09242432 -0.6173802 -0.49774042 -0.04525891 -1.006676 0.05654279 0.881813 -0.30632317
-0.5034647 -0.22526081 -0.10313817 -0.41739002 -0.36730593 -0.037975594 -0.2666128 0.6199762
-0.033399925 0.35710317 1.0478652 0.39456987 -0.0025817223 -0.88315743 0.0978967 0.15707289
-0.27348238 -0.4534922 -0.6789599 -0.01654619 0.023409804 0.034355156 0.031614125 -0.047771003
-0.1912872 0.77718484 -0.0063541085 -0.023074757 0.015067264 -0.16354398 -0.046266615 -0.058834292
0.020322608 -0.2555192 -0.0021061704 0.030281894 -0.7831593 -0.7936707 0.021203836 -0.0066202194
-0.08645273 -0.437938 -0.04238589 -0.33480224 0.6826143 -0.014164746 -0.022008192 -0.56364906
0.023970746 -0.41661635 0.05784832 -0.70800734 0.0045074946 -0.78982437 -0.29283753 0.017199533
-0.05308345 -0.5860865 -0.10998179 0.019502256 -0.17575647 -0.46966332 -0.476915 -0.033881843
-0.4537977 -0.9723771 0.05194487 0.042042926 -0.15724543 -0.008084979 -0.05787816 -0.78964615

bias f4 [4]
00000000: 9a4f 793e ea88 56be e4b7 b63e 7567 95be
0.24346772 -0.20950666 0.35687172 -0.29180494
