models/dql_half.pt (torch, 552146 bytes, 6 tensors)

weight f4 [512, 8]
0	0x3df6f99e	0.120593295
1	0x3e2ece07	0.1707078
2	0xbe39d8f0	-0.18149161
3	0x3f5655a6	0.8372444
4	0xbea5653f	-0.32303807
5	0x3d291b6f	0.04128593
6	0x3d81eb12	0.06343664
7	0xbd9ca6e2	-0.07649018
8	0xbdb15965	-0.08659629
9	0xbeff29aa	-0.49836475
10	0x3f4e5dba	0.80611765
11	0x3d43060e	0.047613196
12	0x3ec85049	0.39123753
13	0xbea7cb75	-0.32772413
14	0xbda86565	-0.082224645
15	0xbecb6031	-0.39721826
16	0x3ea5ee2a	0.32408267
17	0xc03e22f4	-2.9708834
18	0x3f02807a	0.5097729
19	0xbf4b8d38	-0.7951236
20	0xbe49b306	-0.19697198
21	0xbe4d4b92	-0.20048359
22	0x3e542afe	0.20719525
23	0xbb75b8d4	-0.00374942
24	0xbf0f70dd	-0.5603159
25	0xbec06345	-0.37575737
26	0xbe46d08c	-0.19415492
27	0x3d72b0d6	0.059250675
28	0x3d0663a9	0.032809887
29	0xbde143ea	-0.10999282
30	0xbcfc2337	-0.03077851
31	0xbed7f6cf	-0.42180488
32	0xbf0d492c	-0.55189776
33	0xbedaa36e	-0.42702812
34	0x3ef65ede	0.48119253
35	0x3e4adfd6	0.19811949
36	0x3e1decd6	0.15422377
37	0x3e1e6957	0.15469871
38	0x3e9fff17	0.31249306
39	0xbe5fd6db	-0.21859305
40	0xbf678d9a	-0.9045044
41	0xbe6d0efb	-0.23150246
42	0x3f60a4e8	0.87751627
43	0xbf037d79	-0.5136333
44	0xbec3e45f	-0.3826017
45	0x3e972176	0.29517716
46	0x3ee269b2	0.44221264
47	0x3e54722c	0.20746678
48	0xbf5b25ef	-0.8560476
49	0xbf2ae66c	-0.66757846
50	0x3daa51b5	0.08316366
51	0xbe90a609	-0.28251675
52	0x3ee053bd	0.43813887
53	0x3eff7f72	0.4990192
54	0xbdde1347	-0.108435206
55	0xbdaba4dd	-0.083810546
56	0x3f2c828b	0.6738669
57	0xbf0d8d41	-0.5529366
58	0xbce6c3b1	-0.028169485
59	0xbf28ba66	-0.6590942
60	0xbec357eb	-0.38153014
61	0xbf0f9282	-0.5608293
62	0x3e468913	0.19388227
63	0x3f13e99f	0.5777835
64	0xbea1f997	-0.31635734
65	0xbd631f6f	-0.0554499
66	0xbe8ed3e1	-0.27896026
67	0x3fd9738a	1.6988385
68	0x3e3f80b5	0.18701442
69	0x3df35cfc	0.1188297
70	0x3ec1a61f	0.37822053
71	0xbf18a0bd	-0.5962027
72	0x3e576a91	0.21036746
73	0xbf23d8b4	-0.6400254
74	0xbee296ec	-0.4425577
75	0xbdefa3ac	-0.1170114
76	0x3d887cfa	0.066644624
77	0xbe14fa93	-0.14548711
78	0xbea953c8	-0.33071733
79	0xbeec83d8	-0.4619434
80	0xbf139310	-0.57646275
81	0xc00161a5	-2.0215847
82	0xbf5abf3b	-0.85448045
83	0x3d3ba28d	0.045809317
84	0x3eb27e91	0.34862188
85	0xbe462047	-0.1934825
86	0xbe996f6f	-0.2996783
87	0xbeef88a8	-0.46783948
88	0xbfcb2e1a	-1.5873444
89	0x3e881b2a	0.26583225
90	0xbf365d13	-0.7123577
91	0xbeb9c77d	-0.3628501
92	0xbec8cfe4	-0.39221108
93	0xbf0e09f2	-0.55483925
94	0x3e8976c5	0.26848426
95	0xbcc45d5b	-0.023970297
96	0xbf6ca2bd	-0.9243582
97	0xc038f10b	-2.889712
98	0xbf4ec9db	-0.80776757
99	0x3e1bd880	0.15219307
100	0xbfa03198	-1.2515135
101	0xbe3eb770	-0.18624663
102	0x3d134e35	0.035963256
103	0x3e19fe0d	0.15038319
104	0xbeb90abb	-0.36141
105	0x3e9a6b24	0.30159867
106	0x3e3f7d66	0.1870018
107	0xbce4aea5	-0.027915308
108	0x3dbaef2f	0.09127652
109	0xbdb7f4ec	-0.08982262
110	0x3dfdb83e	0.12388657
111	0xbd13f0ae	-0.036118202
112	0xbe9f1148	-0.31067872
113	0x3dc6a66f	0.096997134
114	0xbe290948	-0.16507447
115	0x3eef0f8d	0.46691552
116	0x3ecb5747	0.39715025
117	0x3f2279a4	0.6346686
118	0x3e9d4972	0.30720097
119	0xbd3716f2	-0.044699617
120	0xbdde7307	-0.108617835
121	0xbf43948a	-0.7639853
122	0x3c8d72e0	0.01726669
123	0x3e580248	0.2109462
124	0x3e8bf7d3	0.27337512
125	0xbe0cc8c1	-0.13748457
126	0x3e8facc1	0.28061488
127	0xbee5dede	-0.44896597
128	0x3da01873	0.07817163
129	0xbfa6c87e	-1.3029935
130	0x3ea1e051	0.31616452
131	0xbf8eef33	-1.1166748
132	0xbf31b493	-0.6941616
133	0xbe0cc71a	-0.13747826
134	0x3e645501	0.22298051
135	0xbe366d39	-0.17815103
136	0x3e3a690f	0.18204139
137	0x3f48059e	0.7813357
138	0x3ef2eea6	0.474477
139	0x3f0fe40c	0.56207347
140	0x3d5cb5d4	0.053884342
141	0xbd85a896	-0.06526296
142	0xbed28697	-0.4111831
143	0x3e095813	0.13412504
144	0xbe6ef1e4	-0.23334461
145	0xbeafda44	-0.3434621
146	0x3cd3a61d	0.025836045
147	0x3ecf6625	0.40507618
148	0xbd3775bd	-0.04479002
149	0xbd03f580	-0.03221655
150	0x3e6fa134	0.23401338
151	0xbe393d76	-0.18089852
152	0x3e54405e	0.20727679
153	0xc03d64a9	-2.9592688
154	0xbf1624ba	-0.5864979
155	0xbe02bb0a	-0.12766662
156	0x3f229e17	0.63522476
157	0xbed7c930	-0.4214568
158	0x3e969838	0.2941301
159	0x3e828be6	0.2549736
160	0x3f8ac92b	1.0842642
161	0xbfc6f05e	-1.5542104
162	0xbeec147d	-0.4610938
163	0x3f2407ad	0.6407421
164	0xbf35fbed	-0.71087533
165	0xbc7b672d	-0.015344423
166	0x3d50c048	0.050964624
167	0xbeb95d3e	-0.3620395
168	0xbed70a17	-0.41999885
169	0xbf065577	-0.5247416
170	0x3e9d24a7	0.30692026
171	0x3f4baab3	0.7955734
172	0x3e8b4ee9	0.2720864
173	0x3e8b9ccc	0.27268064
174	0x3e355a07	0.17710124
175	0xbefe3915	-0.49652925
176	0xbf9cbd23	-1.224522
177	0x3f331b0b	0.6996314
178	0xbf104d22	-0.56367695
179	0xbc884293	-0.016633308
180	0xbf0e3fc1	-0.5556603
181	0x3d089bb9	0.033351634
182	0x3b1369c9	0.0022493473
183	0xbf3e3ada	-0.7430855
184	0xbed576a4	-0.41692078
185	0x3df8bd9d	0.12145541
186	0x3ec2cf19	0.38048628
187	0xbedfa50b	-0.43680605
188	0x3e985eef	0.2975993
189	0x3f2e9af2	0.6820518
190	0x3e5c81bc	0.21533865
191	0xbe845fd0	-0.2585435
192	0x3f334c24	0.70038056
193	0xbfdf9407	-1.7467049
194	0xbeb284e7	-0.3486702
195	0xbc1fbac5	-0.009749119
196	0x3da71fca	0.0816036
197	0x3eb306ad	0.3496603
198	0xbe226e91	-0.1586249
199	0x3d17a3e5	0.037021536
200	0xbee5052c	-0.44730508
201	0xc013b73b	-2.3080585
202	0x3e3eeadb	0.18644278
203	0xbda086aa	-0.07838185
204	0xbcb94b4d	-0.022618914
205	0xbdfdd376	-0.123938486
206	0xbf0dcb3f	-0.55388254
207	0xbd985a35	-0.074390806
208	0x3e5e8959	0.21732081
209	0xbe0dcc55	-0.13847478
210	0xbccc5d68	-0.024946883
211	0x3e4c72d3	0.19965677
212	0xbe562b52	-0.20914963
213	0xbdd72208	-0.10504538
214	0xbe8f95c7	-0.2804396
215	0x3d6e72f0	0.05821508
216	0x3e8ec084	0.27881253
217	0xc05d00f5	-3.4531834
218	0xbf77aa84	-0.9674456
219	0x3ed1b9c3	0.40962037
220	0xbe4d7545	-0.20064266
221	0x3e554df2	0.20830515
222	0x3e9515dc	0.2911824
223	0xbda177dd	-0.0788419
224	0x3e44075a	0.1914343
225	0x3f1b4845	0.6065715
226	0xbf3d8259	-0.7402702
227	0xbd88d56e	-0.066813335
228	0x3e0819c9	0.13291086
229	0xbf3bbe2c	-0.73337054
230	0xbf2e3e7a	-0.6806408
231	0xbd1d77f5	-0.038444478
232	0xbf3f0869	-0.7462221
233	0xbf869c28	-1.0516405
234	0x3e8031fe	0.2503814
235	0xbea81bdb	-0.32833752
236	0x3d99fe7c	0.07519242
237	0x3bd9d104	0.006647231
238	0xbd57735f	-0.05260026
239	0x3e1b58ba	0.15170565
240	0x3df9ca2b	0.121967636
241	0x3f3968fc	0.7242582
242	0x3e0a50f6	0.13507447
243	0x3f44f08e	0.7692956
244	0xbcc5f370	-0.024163932
245	0xbd023979	-0.03179309
246	0x3f17ce56	0.5929922
247	0xbb5aac30	-0.0033366792
248	0x3dd8154b	0.10550936
249	0xbf73d15f	-0.9524135
250	0x3eeeefca	0.4666732
251	0x3e8fd1b3	0.28089675
252	0x3ed3f83f	0.41400334
253	0x3ea8a392	0.32937294
254	0x3de53b97	0.111930065
255	0xbed38a87	-0.41316625

bias f4 [512]
0	0x3f076209	0.52883965
1	0x3d871763	0.065962575
2	0xbe47a22b	-0.19495456
3	0x3f307b15	0.6893781
4	0x3e051abd	0.12998481
5	0xbe9a5a69	-0.30147102
6	0xbf080c68	-0.5314393
7	0xbe8c02af	-0.27345797
8	0x3d84a9ec	0.064777225
9	0x3db17a3d	0.08665893
10	0x3a4b90ec	0.00077654305
11	0xbec65504	-0.38736737
12	0xbe8cc938	-0.27497268
13	0xbf2c717e	-0.67360675
14	0x3e9e2da8	0.30894208
15	0xbf06463e	-0.5245093
16	0xbe816741	-0.2527409
17	0x3f214d78	0.6300883
18	0x3f09cd34	0.5382874
19	0xbec4df45	-0.3845159
20	0xbd96ba65	-0.07359771
21	0x3eb0494e	0.34430927
22	0xbe72f1f6	-0.23725113
23	0xbdae3483	-0.085061096
24	0x3e905d2f	0.28196093
25	0x3eaa0b6f	0.33211848
26	0xbf033288	-0.5124898
27	0xbb573a60	-0.003284119
28	0xbe536255	-0.2064298
29	0x3ef796ac	0.4835714
30	0xbe3240eb	-0.17407577
31	0x3e955c01	0.29171756
32	0x3e99c353	0.30031833
33	0x3d1b53e4	0.0379218
34	0xbdc28492	-0.09497942
35	0xbe8a6514	-0.2703024
36	0x3e04e507	0.12977992
37	0x3e2de279	0.16980924
38	0x3c193fea	0.009353617
39	0xbe38ef88	-0.18060124
40	0xbf0df523	-0.55452174
41	0x3ef5edee	0.48033088
42	0xbe2b2be7	-0.16715966
43	0xbf3fd5ea	-0.7493578
44	0x3e91511a	0.28382188
45	0xbb9e264d	-0.004826343
46	0xbdc46d10	-0.095911145
47	0xbe6c2286	-0.23060045
48	0x3cfb83d5	0.03070251
49	0x3e2c9eb2	0.16857412
50	0x3e5e3af9	0.21702184
51	0x3e1229de	0.14273784
52	0xbe18fcb8	-0.14940155
53	0x3ecc6dfc	0.3992766
54	0x3da4f7f3	0.08055105
55	0x3ecd406f	0.4008822
56	0xbf48d0fc	-0.78443885
57	0x3ee0410b	0.43799624
58	0x3ee5852e	0.4482817
59	0x3ea875f7	0.329025
60	0x3dc3dc8c	0.0956355
61	0xbda13194	-0.078707844
62	0x3f0e1870	0.5550604
63	0xbdad633e	-0.084661946
64	0x3e424ae2	0.18973878
65	0xbcecad0c	-0.028891109
66	0x3d8051b0	0.06265581
67	0x3e46e0be	0.1942167
68	0x3d7aec83	0.06126071
69	0x3db3ba39	0.087757535
70	0x3eae1c79	0.34006098
71	0xbebe7681	-0.37199786
72	0xbe0e10bd	-0.13873573
73	0xbf15abff	-0.5846557
74	0xbd2b0606	-0.04175379
75	0xbe9d1be0	-0.3068533
76	0xbf01a577	-0.50643104
77	0x3f16780a	0.58776915
78	0xbe3cc0d2	-0.1843293
79	0x3e5b47c7	0.214141
80	0xbdb73b62	-0.08946873
81	0x3ee04634	0.4380356
82	0xbc8eefdf	-0.017448364
83	0xbeaaa1d3	-0.33326587
84	0xbdcfc596	-0.101451084
85	0x3eab6597	0.33475944
86	0x3d91e8ef	0.07124507
87	0xbef8c25d	-0.48585787
88	0xbec1f975	-0.37885633
89	0x3f0f7e7c	0.56052375
90	0xbe2aa552	-0.16664627
91	0x3f2df9d9	0.6795936
92	0x3ef449e5	0.47712627
93	0x3f27b6ea	0.6551348
94	0xbdfbbd7e	-0.12292002
95	0xbdb80d45	-0.08986906
96	0xbeaf9742	-0.34295088
97	0x3e25409b	0.16137926
98	0xbeefa1c7	-0.46803114
99	0x3e73d450	0.2381146
100	0x3f21f085	0.6325763
101	0xbebad9b2	-0.36494213
102	0x3f0a94c7	0.54133266
103	0x3cde2410	0.027116805
104	0x3df01e0e	0.117244825
105	0x3f02ef3b	0.51146287
106	0x3f23012d	0.6367367
107	0xbddc6556	-0.10761516
108	0xbf4f4d96	-0.8097776
109	0x3e84da6c	0.25947893
110	0xbe5c0822	-0.21487477
111	0xbe29cad6	-0.16581282
112	0xbf2a66be	-0.6656302
113	0x3da3c699	0.07996864
114	0xbe1493d9	-0.14509524
115	0xbeddb93d	-0.43305388
116	0xbf513943	-0.81728
117	0xbc28172e	-0.010259433
118	0xbdf24b73	-0.11830797
119	0xbe892be7	-0.26791307
120	0xbdef6521	-0.11689211
121	0x3db22cb5	0.086999334
122	0x3db7aea6	0.089688584
123	0x3e357588	0.17720616
124	0x3e71e317	0.23621784
125	0x3de20509	0.11036117
126	0xbe46447c	-0.19362062
127	0xbd914cb9	-0.07094712
128	0x3eb0bed5	0.34520593
129	0x3eabc0f2	0.33545643
130	0xbd392306	-0.045199417
131	0xbe3835af	-0.17989229
132	0xbe3e5503	-0.18587117
133	0xbeb784dc	-0.3584355
134	0x3f163546	0.5867504
135	0xbdd70d51	-0.10500587
136	0xbea5b22d	-0.323625
137	0x3e696a43	0.22794442
138	0xbe44f6be	-0.1923475
139	0xbf27e6c3	-0.6558649
140	0x3d5eaccd	0.054364014
141	0xbf12e72a	-0.5738398
142	0xbd836df4	-0.06417456
143	0x3eca2cf3	0.3948742
144	0xbf0aaff5	-0.5417474
145	0xbe8c5239	-0.2740648
146	0xbdd05ca0	-0.10173917
147	0x3ec39e74	0.38206828
148	0x3d4618fa	0.048363663
149	0x3e498d51	0.19682814
150	0x3f1c338b	0.6101615
151	0xbd590ca8	-0.052990586
152	0xbea2185c	-0.3165921
153	0xbeeedd71	-0.4665332
154	0xbea36224	-0.31910813
155	0xbdb88e22	-0.09011485
156	0xbd34e754	-0.044165924
157	0x3ea0704c	0.31335676
158	0xbf1812a4	-0.59403443
159	0x3d8d1c04	0.06890109
160	0x3efcfbcb	0.49410853
161	0xbee7a565	-0.45243374
162	0x3e715362	0.23566964
163	0x3d56aea2	0.052412637
164	0xbb91190d	-0.004428035
165	0x3e444447	0.1916667
166	0xbe9d682b	-0.30743536
167	0x3ee94793	0.4556242
168	0x3ed9286b	0.4241365
169	0x3e09e693	0.13466863
170	0xbe91f5e0	-0.285079
171	0xbf0c2db1	-0.5475722
172	0xbcee0042	-0.029052857
173	0x3e882706	0.26592273
174	0xbe8880fd	-0.2666091
175	0xbf01826c	-0.50589633
176	0x3e9f43d0	0.31106424
177	0xbe80baaa	-0.25142413
178	0x3eb130bf	0.34607503
179	0xbf055147	-0.52077144
180	0x3a96ea40	0.0011513904
181	0xbe8d1bc4	-0.27560246
182	0x3ec34a04	0.38142407
183	0xbf4a25a7	-0.789637
184	0x3ea6b6b4	0.32561266
185	0xbd4e8e6f	-0.050428804
186	0x3d73df5b	0.05953918
187	0x3da60398	0.08106154
188	0xbeba6f3a	-0.36412984
189	0x3ec9c13f	0.39405248
190	0xbf11f03f	-0.5700721
191	0xbf17a3e6	-0.59234464
192	0xbdf4cc7d	-0.119530655
193	0x3f2f76ff	0.6854095
194	0x3ed6ad26	0.41928977
195	0x3eb7a0d5	0.35864893
196	0xbf2de494	-0.6792691
197	0xbe7e9599	-0.24861754
198	0xbe375b7e	-0.17905995
199	0x3c969b84	0.018384703
200	0x3e4c0ced	0.19926806
201	0xbec6ef76	-0.3885457
202	0xbd4a35a5	-0.049367566
203	0xbe80cec7	-0.2515776
204	0x3cd9ad80	0.026571989
205	0xbed52196	-0.41627187
206	0xbf144bca	-0.57928145
207	0xbe05db19	-0.1307186
208	0xbde41268	-0.11136323
209	0xbf0fda73	-0.561927
210	0xbe6a945b	-0.22908156
211	0x3ee0d958	0.4391582
212	0x3f27568e	0.65366447
213	0xbd8a0562	-0.06739308
214	0x3eb7204b	0.35766825
215	0x3d9b42b4	0.07581082
216	0x3ecf416d	0.40479603
217	0x3d0d3625	0.034475464
218	0x3dde14da	0.10843821
219	0x3e6acec4	0.22930437
220	0xbef9a309	-0.48757198
221	0xbecf2144	-0.40455067
222	0xbf29b024	-0.66284394
223	0xbe89fa59	-0.26948813
224	0xbec4a488	-0.38406777
225	0x3e7ba017	0.24572788
226	0xbea92667	-0.3303711
227	0x3e80fa21	0.25190833
228	0xbe00fb11	-0.12595774
229	0xbf571a95	-0.84024936
230	0xbf28a3b8	-0.65874815
231	0xbe84531d	-0.2584466
232	0xbe7bea7a	-0.24601164
233	0x3ecda237	0.40162823
234	0x3e789fb1	0.24279667
235	0x3e2746a5	0.16335543
236	0x3e38d627	0.18050443
237	0xbdae1888	-0.08500773
238	0xbf0c3275	-0.5476449
239	0x3e85ff81	0.26171497
240	0x3e84abfd	0.25912467
241	0xbd86ce73	-0.06582346
242	0xbe9d98ee	-0.3078074
243	0x3ea65009	0.32482937
244	0xbf217ac9	-0.6307798
245	0xbe26dabf	-0.16294383
246	0xbe93ea1b	-0.28889546
247	0xbe06499a	-0.13114014
248	0xbebb7226	-0.36610526
249	0xbdbaeba0	-0.09126973
250	0xbe6becab	-0.230395
251	0x3ca2640a	0.019823093
252	0xbe945d10	-0.2897725
253	0xbe4372fb	-0.1908683
254	0x3ec1b706	0.37834948
255	0x3ee8888f	0.45416686

weight f4 [256, 512]
0	0xbea90708	-0.33013177
1	0x3e56dc9c	0.20982593
2	0x3f25278c	0.6451347
3	0xbe84b586	-0.2591974
4	0x3ec8e541	0.39237407
5	0x3f1838a3	0.5946142
6	0x3e7929cc	0.2433235
7	0x3eae9b48	0.34102845
8	0xbf1024da	-0.5630623
9	0x3e4830eb	0.1954991
10	0x3ec004d2	0.37503678
11	0xbdb19c28	-0.086723626
12	0xbeaa4e41	-0.33262828
13	0x3dbe35e7	0.09287625
14	0x3e641776	0.22274575
15	0xbe915260	-0.2838316
16	0x3ed949a8	0.42439008
17	0xbcbf87c9	-0.023380177
18	0x3da99ec6	0.08282237
19	0x3e6dfdef	0.23241399
20	0x3f0e6724	0.5562613
21	0xbc7925c9	-0.015206763
22	0x3ebf99f5	0.37422147
23	0x3e83c924	0.25739396
24	0x3e3ec8ff	0.18631361
25	0xbe7c702d	-0.24652167
26	0x3c4b8d35	0.012423803
27	0x3ee9674f	0.4558663
28	0xbe14a1f1	-0.145149
29	0xbca91656	-0.020640533
30	0x3d8c7de5	0.0685995
31	0xbd886d06	-0.066614196
32	0xbe52c481	-0.20582773
33	0x3df5fdbe	0.12011288
34	0x3f638e51	0.8888903
35	0x3f120d41	0.57051474
36	0xbe7ed893	-0.24887304
37	0x3ec2d977	0.38056538
38	0x3e64ecf9	0.22356023
39	0x3ee5fe22	0.4492045
40	0x3ecd1dd1	0.4006181
41	0xbd11812e	-0.035523586
42	0x3e73214b	0.23743169
43	0x3c37126d	0.011173827
44	0x3e52a5b6	0.20571026
45	0x3ea2f3ab	0.3182653
46	0x3bb1fdf4	0.005431885
47	0x3ea8260d	0.3284153
48	0xbe893182	-0.26795584
49	0x3dbd33e6	0.092384145
50	0x3f076cac	0.52900195
51	0xbcded07a	-0.027199019
52	0xbdfcd1bd	-0.12344692
53	0xbe795c1e	-0.24351546
54	0xbf16caf5	-0.5890344
55	0x3e536d17	0.20647083
56	0xc0116211	-2.2716105
57	0x3e23299b	0.1593384
58	0x3d5102d6	0.051028095
59	0x3d68b489	0.056812797
60	0x3ea7606a	0.32690746
61	0xbc015386	-0.007893449
62	0xbdede345	-0.11615614
63	0x3e6891b0	0.22711825
64	0xbb382f68	-0.0028104428
65	0xbc67664d	-0.0141235115
66	0x3e2a054c	0.16603583
67	0x3e9fa19c	0.31177986
68	0x3d41da17	0.047327127
69	0x3e801866	0.25018615
70	0x3d070422	0.032962926
71	0xbae860b7	-0.0017729019
72	0x3f42bb55	0.76067096
73	0xbd49c83d	-0.049263228
74	0x3d9ce017	0.07659929
75	0xbddf159b	-0.10892793
76	0xbeb626be	-0.35576433
77	0xbd4fb733	-0.05071182
78	0xbcd12127	-0.025528504
79	0x3e969b6d	0.29415455
80	0x3d18af2c	0.037276432
81	0x3d81890d	0.063249685
82	0xbf681903	-0.90663165
83	0x3f0d67f0	0.5523672
84	0x3e4fb2a4	0.2028299
85	0xbd25cf61	-0.040480975
86	0xbd86462b	-0.06556352
87	0xbf15c259	-0.58499676
88	0x3c5237d8	0.012830697
89	0xbec610ba	-0.38684636
90	0x3e698b12	0.22806957
91	0xbd93e462	-0.07221295
92	0xbe1f2c2b	-0.15544192
93	0x3df3c32a	0.11902459
94	0x3e1fa11f	0.15588807
95	0x3e3238e2	0.17404512
96	0xbd819240	-0.06326723
97	0x3e8ffed2	0.281241
98	0x3cb7d4dd	0.022440368
99	0xbf06d120	-0.5266285
100	0x3e3ddaa2	0.18540433
101	0xbddb02ed	-0.106939174
102	0xbe2d01fb	-0.16895287
103	0x3ca1cf51	0.019752176
104	0x3dfadc90	0.122491
105	0xbbcad49e	-0.0061898967
106	0x3d7e7371	0.062121812
107	0xbe54dc45	-0.20787151
108	0xbf02c24e	-0.51077735
109	0xbe88f72c	-0.26751077
110	0x3e8131d4	0.25233328
111	0x3f4f3440	0.809391
112	0xbeec177b	-0.46111664
113	0x3ef81517	0.4845359
114	0xbf2d8198	-0.6777587
115	0xbf829144	-1.0200582
116	0xbefb22ec	-0.4905008
117	0x3ee4ae2b	0.4466413
118	0x3f0fc1b2	0.5615493
119	0x3ee2e336	0.44313973
120	0x3ee2e1a9	0.4431279
121	0x3dc41735	0.09574739
122	0x3eb7c43a	0.35891896
123	0x3e3cbc8f	0.18431304
124	0xbdd7e43d	-0.1054158
125	0xbda50488	-0.08057505
126	0x3ed7ef97	0.4217498
127	0x3ee7217e	0.4514274
128	0xbe40b9bd	-0.18820854
129	0xbef786dd	-0.4834508
130	0xbfdeb47e	-1.7398832
131	0xbed80b65	-0.42196193
132	0x3ea8f717	0.33001015
133	0x3ec01a54	0.37520087
134	0xbe899033	-0.26867828
135	0x3e12690f	0.14297889
136	0x3c501c2a	0.012702027
137	0xbea18bf9	-0.31552103
138	0x3e324b0c	0.1741144
139	0x3ebe7ad0	0.37203074
140	0xbf115236	-0.5676607
141	0x3e62effc	0.2216186
142	0x3f097fbd	0.5371054
143	0x3e6a6f66	0.22894058
144	0x3e5f3172	0.21796206
145	0x3ec3b4e7	0.38223955
146	0x3e97cd89	0.29648998
147	0xbece393b	-0.40278038
148	0xbdfd52ab	-0.12369283
149	0xbeca8cea	-0.39560634
150	0xbe9157fb	-0.28387436
151	0x3eba6a34	0.36409152
152	0x3f0c7289	0.54862267
153	0xbe57c3c1	-0.21070768
154	0x3e17a2b0	0.14808154
155	0x3f0b228f	0.5434961
156	0xbe99c85d	-0.30035678
157	0x3eb3d006	0.35119647
158	0xbf2e6e1f	-0.6813678
159	0x3d5dae57	0.05412134
160	0xbd833a33	-0.06407585
161	0xbeaa4437	-0.3325517
162	0x3df506f5	0.119642176
163	0x3cb17a79	0.021664845
164	0xbe896f92	-0.26842934
165	0x3da04176	0.07824986
166	0xbd195b9d	-0.037440885
167	0xbe064041	-0.13110448
168	0x3d520493	0.051273894
169	0xbd106be6	-0.03525915
170	0x3eb01410	0.34390306
171	0x3d325337	0.04353639
172	0xbe56be3b	-0.20971005
173	0xbe926fb4	-0.28600848
174	0x3f20b84e	0.62781227
175	0xbf218b4b	-0.6310317
176	0xbea6d29d	-0.3258256
177	0x3f49f4d7	0.7888922
178	0x3d9e40c8	0.077272
179	0xbf13583c	-0.5755651
180	0x3d21b39e	0.039477937
181	0xbf1f4101	-0.62208563
182	0xbeba78ae	-0.36420196
183	0x3f2b0ea6	0.66819227
184	0x3dca461f	0.09876656
185	0x3ee38bfe	0.44442743
186	0x3edfb7ed	0.43695012
187	0xbeed0817	-0.46295235
188	0xbd32fb06	-0.043696426
189	0xbe83f321	-0.2577143
190	0xbe898008	-0.26855493
191	0xbee9cce3	-0.4566413
192	0x3e6775bc	0.22603506
193	0x3c4a931e	0.012364177
194	0xbd534ef5	-0.05158897
195	0xbd2d87fc	-0.042366013
196	0xbecccc6c	-0.39999712
197	0x3e0173c3	0.12641816
198	0x3d5172e8	0.051134974
199	0xbc357252	-0.011074619
200	0x3e94c645	0.29057518
201	0x3d6377d8	0.055534214
202	0x3db72dfe	0.08944319
203	0xbd9fff4e	-0.078123674
204	0xbd8a4b93	-0.06752696
205	0x3ee27ac0	0.44234276
206	0xbe265ecf	-0.16247104
207	0x3ee8469c	0.4536637
208	0x3d8a2336	0.06744997
209	0xbe33d741	-0.17562582
210	0x3e4d87e8	0.20071375
211	0x3d66ee26	0.05637946
212	0xbdd3a54c	-0.10334262
213	0xbe7844b0	-0.24244952
214	0x3cd23292	0.02565888
215	0x3edcf333	0.43154296
216	0xbe4d040d	-0.20021077
217	0xbee50926	-0.44733542
218	0x3eabc90e	0.3355183
219	0x3ded873b	0.11598059
220	0xbf1c3590	-0.6101923
221	0x3e3a6c46	0.18205366
222	0xbdab706e	-0.08371054
223	0xbeea4216	-0.45753545
224	0xbdca28d0	-0.098710656
225	0xbe6f305e	-0.23358294
226	0xbf76b13f	-0.96364206
227	0x3d23a859	0.03995547
228	0x3ea6c8b8	0.3257501
229	0xbe608dd9	-0.2192911
230	0xbee7ae5a	-0.45250207
231	0x3f01380c	0.50476146
232	0xbe16166c	-0.14656991
233	0xbe153059	-0.14569224
234	0x3d46576d	0.04842322
235	0x3e41ee00	0.18938446
236	0x3c5378dc	0.012907233
237	0x3f004d55	0.50118
238	0xbdc6bb84	-0.097037345
239	0xbcbe87e6	-0.02325816
240	0xbcbe17e8	-0.023204759
241	0x3dce6878	0.100785196
242	0x3e7da9f8	0.24771869
243	0xbd9ce662	-0.076611295
244	0x3eae564d	0.34050217
245	0x3c2b4a43	0.010454717
246	0x3dbcb723	0.09214618
247	0xbe5d445b	-0.21608107
248	0x3e447916	0.19186816
249	0x3e90c581	0.28275684
250	0xbe67b384	-0.22627074
251	0xbe20470c	-0.15652102
252	0x3d51ac5f	0.051189777
253	0x3dc2a4e4	0.09504107
254	0xbdca0cdb	-0.09865733
255	0xbc6f93eb	-0.014622669

bias f4 [256]
0	0x3d430eca	0.047621526
1	0x3e0b446d	0.13600321
2	0xba78841a	-0.0009480134
3	0x3d9e4d44	0.07729581
4	0x3e014798	0.12624967
5	0x3cc2ddfb	0.02378749
6	0xbd4b34b1	-0.049610797
7	0xbded8b58	-0.11598843
8	0xbd95abec	-0.07308182
9	0x3cb5c15e	0.022186931
10	0x3ea2b65c	0.31779754
11	0x3c88a6e2	0.016681138
12	0xbd07c576	-0.033147298
13	0xbd569345	-0.05238654
14	0xbd5add97	-0.05343398
15	0xbc765583	-0.015035036
16	0xbe5d5201	-0.21613313
17	0x3f267f0a	0.65037596
18	0x3e034126	0.12817821
19	0x3e1e331a	0.15449181
20	0xbdf4044b	-0.11914881
21	0xb8bccf92	-9.0032016e-05
22	0x3b8645ea	0.00409769
23	0xba66df33	-0.0008807063
24	0xbd53f23c	-0.051744685
25	0x3cc2d432	0.023782823
26	0xbc501de7	-0.012702442
27	0x3e7f87dd	0.24954171
28	0xbe2ba4fe	-0.16762158
29	0x3ddb931f	0.107214205
30	0x3d09cd2e	0.03364294
31	0xbe869561	-0.26285842
32	0xbd75e788	-0.06003526
33	0x3d0f98ca	0.03505782
34	0xbd7ae369	-0.06125203
35	0x3ccbf5e8	0.02489753
36	0x3cb45c07	0.022016538
37	0xbe37e5af	-0.17958711
38	0x3ce83e57	0.028350038
39	0x3e38eabe	0.18058297
40	0x3ec4d76c	0.38445604
41	0xbc5802e3	-0.013184282
42	0xbde065ea	-0.109569386
43	0x3cca9ea6	0.024733853
44	0x3e0ae980	0.13565636
45	0xbd039675	-0.03212591
46	0x3d0eece2	0.034893878
47	0xbde6986f	-0.11259543
48	0xbcc8c506	-0.02450801
49	0xbd404e12	-0.046949454
50	0xbc8ca258	-0.017167255
51	0xbcb58d3e	-0.022162076
52	0x3e927bba	0.2861002
53	0xbc030805	-0.0079975175
54	0xbc88a85d	-0.016681844
55	0x3d14dd18	0.036343664
56	0xbd0ca6bd	-0.0343387
57	0x3e8cfc16	0.27536076
58	0xbc160c89	-0.009158262
59	0xbb07b733	-0.002070856
60	0xbd3b7bab	-0.045772236
61	0xbe201231	-0.1563194
62	0xbc1ee3e3	-0.009697887
63	0xbe4ba59d	-0.19887395
64	0xbd865b4a	-0.06560381
65	0xbc77d51a	-0.015126491
66	0x3c73e167	0.014885283
67	0x3c87d3e4	0.01658053
68	0xbcbcd2c6	-0.023049723
69	0x3e866f43	0.2625676
70	0x3e0a0d16	0.13481554
71	0xbd1cbb4b	-0.038264554
72	0xbcd5a2ec	-0.026078664
73	0xbbe2263b	-0.00690153
74	0xbc8ad8a9	-0.016949015
75	0x3dab8155	0.083742775
76	0xbd2cd518	-0.04219541
77	0xbd73c9e5	-0.059518714
78	0x3e65560a	0.22396103
79	0x3e9d108f	0.30676696
80	0xbd916c61	-0.0710075
81	0xbcc9c298	-0.024628922
82	0x3e33f287	0.17572986
83	0x3c8db8f3	0.017300105
84	0x3ce19348	0.02753605
85	0xbd838f05	-0.06423763
86	0x3e1b43cc	0.15162581
87	0xbcc8a231	-0.024491401
88	0x3ac86b41	0.0015290753
89	0xbca8bb5e	-0.020597156
90	0xbcf24020	-0.029571593
91	0x3c9c86e9	0.019107299
92	0xbdcff89d	-0.10154841
93	0x3e34007a	0.17578307
94	0xbd20266d	-0.039099146
95	0xbadba8c4	-0.001675867
96	0x3d4d024c	0.05005102
97	0x3c0b6af4	0.008509386
98	0xbe262e67	-0.16228639
99	0x3ad0b3c4	0.0015922715
100	0x3c770895	0.01507773
101	0xbd0e235e	-0.034701698
102	0x3dd7d3ed	0.105384685
103	0x3df639ed	0.12022767
104	0x3f0456c2	0.5169488
105	0x3c20cfca	0.009815166
106	0xbd2dec46	-0.042461656
107	0x3d4c9250	0.049944222
108	0x3d14b686	0.03630688
109	0x3c8a9a99	0.016919421
110	0xbd9e00aa	-0.077149704
111	0xbbf88ff7	-0.0075855213
112	0x3cb5ac48	0.022176877
113	0x3dde6912	0.10859884
114	0x3cd84b28	0.026403025
115	0xbd9bbf21	-0.07604814
116	0x3d72456e	0.059148245
117	0xbd98e243	-0.07465031
118	0xbe231fb2	-0.1593006
119	0xbe734cda	-0.23759785
120	0xbd311de5	-0.0432414
121	0x3ef94460	0.48684978
122	0xbd84ddd7	-0.06487625
123	0xbce677d3	-0.028133309
124	0xbd125829	-0.035728607
125	0x3e879a47	0.26484892
126	0xbdbfe126	-0.093691155
127	0x3db0ed60	0.08639026
128	0xbb8b9e9c	-0.004260851
129	0xbddb1fca	-0.10699423
130	0xbdd72cb5	-0.10506574
131	0xbd4bcc2f	-0.04975527
132	0xba994b78	-0.0011695465
133	0xbd4adff7	-0.049529996
134	0xbcbb44c5	-0.02285994
135	0xbc048391	-0.0080880085
136	0xbc0e3b88	-0.008681186
137	0x3e9333dc	0.28750503
138	0xbd4bb79d	-0.049735654
139	0xbd98741b	-0.0744402
140	0xbd0716a7	-0.032980587
141	0xbcbb25a0	-0.02284509
142	0xbc950794	-0.01819209
143	0xbc8b90c8	-0.01703681
144	0xbd114d14	-0.035473898
145	0xbd7e7425	-0.062122483
146	0x3d0a23ec	0.033725664
147	0xbdca503b	-0.09878584
148	0xbc05805a	-0.008148277
149	0xbe155354	-0.14582568
150	0x3da37012	0.0798036
151	0xbd494233	-0.049135398
152	0xba975dad	-0.0011548303
153	0x3f11f731	0.5701781
154	0x3cfd62ca	0.030930895
155	0xbd4b6e3d	-0.04966568
156	0xbd2a7dc5	-0.04162385
157	0x3f1e8f64	0.61937547
158	0xbd38583d	-0.045006026
159	0x3b88dbc0	0.004176587
160	0x3e1c9f4b	0.1529514
161	0x3e1deb44	0.15421778
162	0x3bed9e9c	0.0072515737
163	0xbe43a3ce	-0.19105455
164	0xbda006af	-0.07813775
165	0xbcd72e23	-0.026267117
166	0xbb8262ad	-0.003979048
167	0xbd931dc2	-0.0718341
168	0x3ee6d827	0.45086786
169	0xbd4f3300	-0.050585747
170	0xbcd1b2bc	-0.025597923
171	0xbdd44825	-0.10365323
172	0xbda135a1	-0.07871557
173	0xbd132f81	-0.035933975
174	0x3d989c5c	0.07451698
175	0xbe4c7667	-0.19967042
176	0x3eb18219	0.3466957
177	0x3e558953	0.20853166
178	0x3ec093ee	0.3761286
179	0xbd37cb67	-0.044871714
180	0xbd2f05be	-0.042730086
181	0x3c9ace78	0.01889728
182	0x3ed9871c	0.42485893
183	0x3e2929a7	0.16519795
184	0x3e8d557d	0.27604285
185	0xbdc25681	-0.094891556
186	0xbe2e9137	-0.17047583
187	0x3dece55a	0.11567183
188	0x3d84306c	0.06454548
189	0xbd4193ca	-0.047260083
190	0x3d9f62e9	0.077825375
191	0x3ee0e1d5	0.43922296
192	0x3d0ea49b	0.03482495
193	0x3ec99262	0.39369494
194	0xbdde2687	-0.10847192
195	0xbd25960c	-0.0404263
196	0x3b1146ec	0.0022167517
197	0xbcdf2d45	-0.027243266
198	0x3cd90f18	0.026496455
199	0xbd8afcd7	-0.067865066
200	0x3e67fb66	0.22654495
201	0x3cdb4611	0.026766809
202	0x3e75655d	0.23964448
203	0x3adf5877	0.0017039914
204	0x3c3fda3d	0.011709747
205	0xbd4e9003	-0.05043031
206	0xbba6165c	-0.0050685834
207	0x3ceb93a1	0.028756918
208	0xbe2e0110	-0.16992593
209	0x3e5b61c1	0.21424009
210	0xbc17f839	-0.0092754895
211	0xbd85452b	-0.06507333
212	0xbd882abd	-0.06648777
213	0x3dbe5320	0.092931986
214	0x3c08cbca	0.008349368
215	0xbb669e8c	-0.0035189716
216	0xbe772d7b	-0.24138443
217	0x3dda94af	0.106728904
218	0x3d0859bc	0.033288702
219	0xbd40c475	-0.047062356
220	0xbcc9aa22	-0.024617258
221	0x3e0f52ac	0.1399638
222	0xbd4e4920	-0.050362706
223	0x3ca2bcb4	0.019865371
224	0xbd74e108	-0.05978492
225	0x3e95c586	0.2925226
226	0xbca6ed18	-0.020376727
227	0xbdf38b18	-0.118917644
228	0x3e95df18	0.2927177
229	0xbcc74b58	-0.024327919
230	0xbdba2418	-0.090889156
231	0x3e644f02	0.22295764
232	0xbd1fce70	-0.039015234
233	0x3c964065	0.018341253
234	0xbd1b4070	-0.03790325
235	0x3cf31dc0	0.029677272
236	0xbd26b461	-0.040699366
237	0x3eba3031	0.36364892
238	0x3e55c2ab	0.20875041
239	0xbd27d560	-0.040974975
240	0xbd9ecc46	-0.07753806
241	0x3d9528c3	0.07283165
242	0xbd5f77c9	-0.054557595
243	0xbd2f4ba8	-0.04279676
244	0xbdbbd980	-0.09172344
245	0xbcd520ba	-0.026016582
246	0xbcf81ef3	-0.030288195
247	0xbd30d3c3	-0.0431707
248	0xbc889076	-0.016670447
249	0x3cac7dff	0.021056173
250	0xbbeae05d	-0.0071678595
251	0xbcbbfb11	-0.022946866
252	0xbd810f63	-0.06301763
253	0xbd8ab115	-0.06772057
254	0x3df664c8	0.12030941
255	0x3d156ea1	0.036482457

weight f4 [4, 256]
0	0xbe264b3b	-0.16239636
1	0xbf3ec708	-0.7452245
2	0xbcfb2668	-0.030657962
3	0xbed7057e	-0.41996378
4	0x3ed4301e	0.4144296
5	0xbe1e1794	-0.15438682
6	0x3d44a1eb	0.04800598
7	0xbe5547be	-0.20828149
8	0xbd3a81b2	-0.045533843
9	0xbc633185	-0.013866787
10	0xbecb2e5e	-0.39683813
11	0xbea40728	-0.3203671
12	0xbeb34233	-0.35011443
13	0xbe01c2b3	-0.12671928
14	0xbcc3da22	-0.023907725
15	0x3c4f1ab0	0.01264064
16	0xbc4b5cee	-0.012412293
17	0x3f1192dd	0.5686472
18	0xbe295d5c	-0.1653952
19	0xbefd3b56	-0.49459332
20	0x3e241e8f	0.16027282
21	0xbdc5450b	-0.096323095
22	0xbe21069a	-0.15725175
23	0xbd82fc42	-0.063957706
24	0x3b8ad1a0	0.004236415
25	0x3be6406f	0.007026724
26	0xbd0c8aee	-0.03431218
27	0xbef85403	-0.48501596
28	0xbef04e92	-0.46934944
29	0x3e1846a4	0.14870697
30	0xbeaa6eb0	-0.33287573
31	0xbe6fb986	-0.23410615
32	0xbdff64f8	-0.1247043
33	0xbebcca15	-0.36872926
34	0xbd3af34f	-0.045642193
35	0x3d5751ab	0.05256812
36	0x3ce3cedf	0.027808605
37	0x3ebb035d	0.36526003
38	0xbb288b84	-0.0025717923
39	0x3d4253ca	0.04744319
40	0xbf1a01cd	-0.60159
41	0x3d0ae05d	0.033905376
42	0x3d51ee7d	0.05125283
43	0xbdab950b	-0.08378037
44	0xbe9df402	-0.30850226
45	0x3d11a3a7	0.03555646
46	0xbdf92f5e	-0.12167238
47	0xbe4532a4	-0.19257599
48	0xbd5cf446	-0.053943895
49	0x3d395ea8	0.045256287
50	0xbc1596a8	-0.0091301575
51	0x3d260576	0.04053255
52	0xbe85578d	-0.26043358
53	0x3d228904	0.03968145
54	0xbec0d714	-0.37664092
55	0xbe60ded0	-0.21959996
56	0x3d538a3b	0.0516455
57	0xbf28c36f	-0.6592321
58	0xbd75ec9c	-0.0600401
59	0x3da4dfdc	0.0805051
60	0xbd1a29cf	-0.037637528
61	0xbe25fa7d	-0.16208835
62	0x3b9cfb88	0.004790727
63	0xbe9631fe	-0.29335016
64	0x3ecc2475	0.39871565
65	0xbe96d00f	-0.2945561
66	0xbd5c30f9	-0.05375764
67	0xbeb0b924	-0.3451625
68	0xbd1fb982	-0.038995273
69	0xbf21771e	-0.63072383
70	0xbec93be3	-0.39303502
71	0x3cb663bc	0.022264354
72	0x3d47044b	0.04858808
73	0xbb8d74d0	-0.0043169037
74	0x3ed74753	0.42046604
75	0xbe9d6383	-0.30739984
76	0xbd4f1c92	-0.050564356
77	0xbc98a80b	-0.018634817
78	0xbe971578	-0.29508567
79	0xbef18d87	-0.4717829
80	0xbc2a376a	-0.010389188
81	0x3d191a0c	0.037378356
82	0xbe6e9d88	-0.23302281
83	0xbf54516a	-0.8293673
84	0xbd709011	-0.058731142
85	0xbe960151	-0.2929788
86	0xbee876f2	-0.45403248
87	0xbd52c2fa	-0.051455475
88	0x3b1199bd	0.002221688
89	0xbd50c958	-0.050973266
90	0xbd1b4129	-0.03790394
91	0xbc7b6db4	-0.0153459795
92	0xbf1cbd23	-0.612261
93	0xbefa0c35	-0.48837438
94	0x3d562a22	0.052286275
95	0xbdcee1ee	-0.101016864
96	0xbf3f87ef	-0.74816793
97	0x3d09a4d7	0.03360447
98	0x3e9636ea	0.2933877
99	0x3cc36dd6	0.023856085
100	0xbc798a21	-0.015230686
101	0x3c014f4b	0.00789244
102	0xbe4fdc0c	-0.20298785
103	0xbf04faeb	-0.5194537
104	0x3f22d147	0.6360058
105	0xbea6847b	-0.3252295
106	0xbeffcba1	-0.49960044
107	0xbe7ecf62	-0.24883798
108	0xbc5ddfcc	-0.013542127
109	0xbe48209a	-0.19543687
110	0xbe8d9178	-0.27650046
111	0xbd3915b8	-0.04518673
112	0xbf0429fe	-0.51626575
113	0x3e912712	0.2835012
114	0xbd10cdf2	-0.035352655
115	0xbc7c0f04	-0.015384439
116	0xbe0fc208	-0.14038861
117	0x3d08114a	0.033219613
118	0x3e9ef904	0.3104936
119	0xbe2d7386	-0.169386
120	0x3cf12986	0.029438745
121	0x3ef0d7c9	0.4703963
122	0x3d29f0aa	0.04148928
123	0xbda7abb5	-0.081870474
124	0x3c9017b1	0.017589422
125	0xbe932b5b	-0.28744015
126	0xbdbc1941	-0.09184504
127	0xbed185bc	-0.40922344
128	0xbe5da9fc	-0.21646875
129	0xbe87fff1	-0.26562455
130	0xbeb156fd	-0.3463668
131	0x3d576b1a	0.052592374
132	0xbd3367fa	-0.04380033
133	0x3dc5404b	0.096314035
134	0x3d4e6b3b	0.05039523
135	0x3f148435	0.5801423
136	0xbd8d622c	-0.069034904
137	0xbf048dad	-0.5177868
138	0xbce0b4e9	-0.027430015
139	0x3d1b22b5	0.037874896
140	0x3cdb0c78	0.026739344
141	0x3c9bd3e0	0.019021928
142	0xbd407fed	-0.046997
143	0x3e3e8c92	0.18608311
144	0x3ed14277	0.4087102
145	0x3cf2187e	0.029552694
146	0xbc2510a8	-0.010074772
147	0x3c877058	0.016533062
148	0xbd41913b	-0.047257643
149	0xbe029f73	-0.12756138
150	0xbea1091f	-0.3145227
151	0x3d31228f	0.04324585
152	0xbe5266d9	-0.20547046
153	0x3f3172a1	0.69315535
154	0x3d2808c8	0.041024
155	0xbdde66c4	-0.10859445
156	0x3f7f1f17	0.99656814
157	0x3f4a5c40	0.7904701
158	0x3c79a938	0.015238099
159	0x3bedec4e	0.0072608357
160	0xbee9c5b3	-0.45658645
161	0xbe9cdf19	-0.3063896
162	0xbe3b3d93	-0.18285207
163	0x3eb6a628	0.35673642
164	0x3d98b94f	0.0745722
165	0x3d5e1f0d	0.05422883
166	0xbcac62e4	-0.021043248
167	0xbe566450	-0.20936704
168	0x3f3ae025	0.7299827
169	0x3b786d81	0.0037907066
170	0xbd091666	-0.033468626
171	0x3f0470ae	0.51734436
172	0xbe04a750	-0.1295445
173	0xbf6fe475	-0.9370797
174	0xbe8ed718	-0.27898479
175	0xbe59180c	-0.2120058
176	0x3ddd4639	0.108044095
177	0xbeebfd58	-0.46091723
178	0xbeca708b	-0.39538988
179	0xbd396168	-0.04525891
180	0xbf5886e1	-0.8458081
181	0x3d67996a	0.05654279
182	0x3f64205c	0.89111876
183	0xbe7ff2a5	-0.24994905
184	0xbe29d982	-0.16586879
185	0xbe66aac5	-0.22526081
186	0xbe10d648	-0.14144242
187	0xbe81eb32	-0.25374752
188	0xbe8c2154	-0.27369177
189	0xbd1b8c4c	-0.037975594
190	0xbe98ae60	-0.29820538
191	0x3f0ef715	0.5584577
192	0xbd1f4ab9	-0.03888962
193	0x3e36eca9	0.17863716
194	0x3f81aca8	1.0130816
195	0x3e953b74	0.29146922
196	0xbb29321d	-0.0025817223
197	0xbea1986d	-0.31561604
198	0x3dc87e11	0.0978967
199	0x3e20d7b7	0.15707289
200	0xbea3a1f1	-0.3195949
201	0xbed32db0	-0.41245794
202	0xbf223148	-0.6335645
203	0xbc878be0	-0.01654619
204	0x3cbfc5eb	0.023409804
205	0x3d0cb7fe	0.034355156
206	0x3d017dd0	0.031614125
207	0xbd43ab87	-0.047771003
208	0xbe43e0cb	-0.1912872
209	0x3f38e87b	0.7222974
210	0xbbd03620	-0.0063541085
211	0xbcbd0746	-0.023074757
212	0x3c76dcb0	0.015067264
213	0xbf06bf57	-0.5263571
214	0xbd3d8210	-0.046266615
215	0xbd70fc3a	-0.058834292
216	0x3ca67b99	0.020322608
217	0xbea0d3b6	-0.31411523
218	0xbb0a07ad	-0.0021061704
219	0x3cf811bc	0.030281894
220	0xbebb4bda	-0.36581308
221	0xbecaa325	-0.39577594
222	0x3cadb3ab	0.021203836
223	0xbbd8ee6d	-0.0066202194
224	0xbdb10e21	-0.08645273
225	0xbf252f85	-0.64525634
226	0xbd2d9cd4	-0.04238589
227	0xbeab6b33	-0.33480224
228	0x3f22ae98	0.6354766
229	0xbc681340	-0.014164746
230	0xbcb44a86	-0.022008192
231	0xbefd7563	-0.4950362
232	0x3cc45e4c	0.023970746
233	0xbee59213	-0.44838008
234	0x3d6cf25c	0.05784832
235	0xbedec94e	-0.43512958
236	0x3b93b39b	0.0045074946
237	0xbf01f8c2	-0.507702
238	0xbe71e463	-0.23622279
239	0x3c8ce609	0.017199533
240	0xbd596e08	-0.05308345
241	0xbf1609c4	-0.5860865
242	0xbbb49152	-0.0055104876
243	0x3c9fc332	0.019502256
244	0xbe33f981	-0.17575647
245	0xbeaf8fa5	-0.3428928
246	0xbef42e34	-0.476915
247	0xbd0ac7b0	-0.033881843
248	0xbee22d67	-0.44175264
249	0xbee4e3cf	-0.44705054
250	0x3d54c425	0.05194487
251	0x3d2c3534	0.042042926
252	0xbe007dc3	-0.12547974
253	0xbc0476dc	-0.008084979
254	0xbd6d11a6	-0.05787816
255	0xbf11ab78	-0.56902266

bias f4 [4]
0	0x3e250f15	0.16119035
1	0xbd97e126	-0.074159905
2	0x3e35214a	0.1768848
3	0x3d55c8d1	0.052193467
