models/dql_half.pt (torch, 551762 bytes, 6 tensors)

weight f4 [512, 8]
000000 01 46 9d 3c 13 23 c4 3d 16 3e f8 be 9d ed 0f 3d
       0.01919842 0.095770024 -0.48484868 0.035138715
000010 2d c8 1f 3e a7 80 31 be 79 5a 98 3e 8e 4e c1 3e
       0.15603705 -0.17334233 0.29756525 0.37755245
000020 ef a5 81 3b bb 09 bd be 0f 2f e3 3d dc a0 11 be
       0.0039565484 -0.36921486 0.1109296 -0.14221519
000030 4d bc 24 bf fd cf c3 3b 88 c0 f5 bd ff 0a db be
       -0.64349824 0.005975722 -0.11999613 -0.42781827
000040 e5 f2 3f 3f 3e d7 03 bf 26 9c df 3e 46 34 7e bd
       0.7498 -0.5150031 0.4367382 -0.06206157
000050 34 af 2e 3d 20 0e c8 be 4c 7c 4c be 79 63 80 bd
       0.042647555 -0.39073277 -0.1996929 -0.06268973
000060 0b 20 3f be 8f 10 21 3e 06 57 47 3f e6 05 c8 3e
       -0.18664567 0.15728973 0.7786716 0.39067
000070 d2 d7 0b 3e 9d f5 da 3e 45 dc 0a 3d 97 72 aa 3e
       0.13656548 0.42765513 0.03390147 0.3329055
000080 ea 72 a4 bd 44 81 0f 3f dd 6b 18 3e 6c 69 96 be
       -0.080297306 0.5605662 0.14884897 -0.29377306
000090 81 92 30 3d 1e 4d 0e bf cb ed a4 3d 30 40 58 be
       0.043108467 -0.5558642 0.08053168 -0.21118236
0000a0 ed 07 34 3f f7 50 75 3f b7 38 c7 be 56 27 c4 be
       0.70324594 0.9582667 -0.38910457 -0.3831126
0000b0 63 c2 5f bd 9f 7c 42 3e 7c e5 33 be 0e 02 9e 3e
       -0.05462874 0.18992852 -0.1756801 0.30860943
0000c0 ff 81 5a bd af 8d 93 3e b4 c0 32 bd 36 e6 39 3e
       -0.05334663 0.28819034 -0.043640807 0.18154225
0000d0 16 61 ee be 19 b4 81 3e ae f6 b6 3d b7 b4 9f 3d
       -0.46558446 0.25332716 0.08933769 0.077981405
0000e0 bd 2d d6 be c5 f4 24 bf 45 4c ca 3d 34 fc 2a 3e
       -0.4183177 -0.6443599 0.098778285 0.1669777
0000f0 ba 4d b2 3e 4e e7 16 be 7d 3b fa bd 86 dc d9 3d
       0.34824926 -0.14736673 -0.12218378 0.10637765
000100 97 09 40 bf 3c 10 1d 3f 9e c4 f0 bd 17 e3 d9 3e
       -0.7501463 0.61352897 -0.11756252 0.42556068
000110 fb b4 f6 be 1a 5a 33 3d 3a b2 47 be 91 91 00 be
       -0.48184952 0.0437871 -0.19501582 -0.12555529
000120 8c 59 17 bf 4e f4 5b 3d 51 51 b1 3e 74 91 c8 3e
       -0.5912101 0.053699784 0.34632352 0.39173472
000130 77 35 f9 3d 8b 3a b5 3e b4 16 5a be f8 47 04 3e
       0.12168401 0.35396227 -0.21297723 0.12918079
000140 b1 38 c6 be 93 51 eb 3e e3 dc 8e be b7 ec 54 3f
       -0.38715127 0.45960674 -0.27902898 0.831737
000150 b7 8d 96 3e 5c d7 1a 3f 3b 8e bb 3d 8c dd 93 be
       0.29404995 0.6048486 0.09157988 -0.28879964
000160 c4 9d 81 38 fc 79 ec 3c 20 34 cd 3e 19 2b 26 40
       6.1805855e-05 0.02886676 0.4007883 2.5963805
000170 5a d3 b7 bc bb ac 90 bc 85 a5 06 bf 95 4c db bd
       -0.022439647 -0.01766049 -0.5259631 -0.10707966
000180 1a 4d 68 3e f7 b8 81 bf dc 4e eb bc 49 d9 cd be
       0.22685662 -1.0134572 -0.028724127 -0.40204838
000190 1c ec d1 3e bf 42 c5 3d 0b 0b a7 3b b1 76 45 3e
       0.4100045 0.096318714 0.005097752 0.19283558
0001a0 a3 ad c0 bd ee 40 4d be b8 b3 c4 3c fe 08 c2 be
       -0.094081186 -0.200443 0.024011478 -0.37897485
0001b0 47 76 e2 be 38 e0 39 bf c6 ec 42 3e 93 a6 54 be
       -0.44230863 -0.72607756 0.19035634 -0.20766668
0001c0 5d 78 77 be 23 2e 9b bf a5 50 25 bf eb 20 da be
       -0.24167009 -1.2123455 -0.6457618 -0.4260324
0001d0 4f fc fd bc c8 5c a5 3e ef 89 83 3e ff 7c 57 bc
       -0.0310041 0.3229735 0.25691172 -0.01315236
0001e0 58 1b 71 bc f0 49 80 3f 4a a5 8a 3f 62 a7 01 bd
       -0.014715992 1.0022564 1.0831692 -0.03165377
0001f0 61 3a ed be 0e c1 20 3e 80 95 41 be 0c 8f b2 3d
       -0.46333602 0.15698645 -0.18904686 0.0871869
000200 36 20 f7 3c c3 6e ba 3e 31 bf 85 3f 92 66 a7 be
       0.030166727 0.3641263 1.0448972 -0.32695442
000210 64 a3 22 be 1a 3c e7 3e 44 3d fe be 1a c3 00 be
       -0.15882641 0.4516304 -0.49656117 -0.12574425
000220 41 ea bf be c9 3d 8f bb 3b bf 1f 3d 4f 48 55 3e
       -0.3748341 -0.004371379 0.03900073 0.20828365
000230 81 44 25 3e c1 c4 ef be c1 22 2b 3e 54 fb 68 3d
       0.16139413 -0.468298 0.16712476 0.05688031
000240 65 35 81 3e e5 9a 47 3f ce ec 4f 3f 72 67 a1 3e
       0.2523605 0.77970725 0.8122071 0.31524235
000250 50 5f 49 3f 97 29 d5 3e e6 81 78 3d f4 fe fe bd
       0.7866106 0.41633293 0.060670756 -0.12450972
000260 85 99 15 3c ae ca ff 3e 74 a1 06 3e 04 2f b0 be
       0.00913084 0.4995932 0.13147527 -0.3441087
000270 a0 f3 00 3e d6 18 1d bf b7 bf e2 3d 20 cd d4 bc
       0.12592936 -0.6136602 0.11071723 -0.025976717
000280 1a b7 f1 bd 01 f6 ee be e4 dc cd 3e 0b ac ed bd
       -0.11802502 -0.4667206 0.4020759 -0.1160508
000290 2a a9 c1 be 22 70 95 3d b9 fd b7 be db 51 bc 3d
       -0.37824374 0.07296778 -0.35935763 0.091953
0002a0 7a c4 b2 3e 07 e6 d8 be ba b4 37 3c 13 91 fd be
       0.34915525 -0.42362997 0.011212522 -0.49524745
0002b0 6a 47 d9 3d c2 28 b9 3e 80 82 b2 be b5 57 f5 3e
       0.10609324 0.36163908 -0.3486519 0.47918478
0002c0 11 20 56 be 50 2b 91 bf c7 4c 03 bf f9 03 c2 be
       -0.2091067 -1.1341343 -0.5128903 -0.37893656
0002d0 cd 93 71 3e cc 5a b6 bd 4d b1 98 3e 83 38 23 3d
       0.23591538 -0.08904037 0.2982277 0.039848816
0002e0 b1 2f 0c 3f 7a 1b 3e bf b8 61 fa bc d5 29 ad be
       0.5476027 -0.74260676 -0.030564174 -0.33820978
0002f0 6f 33 09 3e 1c d1 88 3e c6 eb aa bc 0c f9 47 bd
       0.13398527 0.26722038 -0.020864379 -0.048821494
000300 99 88 95 3e 17 e5 65 bf ba d9 1e 3e 7c d8 c4 be
       0.29205778 -0.8980269 0.15512744 -0.38446414
000310 97 36 c9 bc e5 f4 ee 3e 87 b4 b3 3e ba 3e ed bc
       -0.024562163 0.46671215 0.3509867 -0.028960574
000320 36 42 27 3d b3 88 98 3e 14 82 d6 be 6f 1a f7 3e
       0.040834628 0.29791793 -0.41896117 0.48262355
000330 8c 64 8b 3e e7 0f 09 3f 79 21 8b 3e 51 20 e2 bd
       0.2722515 0.5353989 0.27173975 -0.1104132
000340 2c 38 c2 3e 72 99 6c 3e 7d 6d 2e bf 21 2f 7a 3d
       0.3793348 0.2310541 -0.68135816 0.061080102
000350 3e 3e 1b bf 6f b3 ab bc c6 84 38 bd 15 9e 35 be
       -0.6064185 -0.020959584 -0.045048498 -0.17736085
000360 0a 31 88 3e 96 9c a8 be fb 22 8c 3e fa 4d 72 3d
       0.26599914 -0.32931966 0.27370438 0.059156395
000370 47 27 17 3f 85 5c 0e 3f fa 2a b5 bd 77 08 c2 3d
       0.5904431 0.55609924 -0.08846088 0.09474271
000380 80 e3 cc bc 5d d8 92 bf 84 ec 30 bf 6e 0e 2e be
       -0.025010824 -1.1472279 -0.69110894 -0.16997692
000390 02 f7 e6 be 0f ff 09 be 47 23 d7 3c 5e dc 77 bd
       -0.45110327 -0.13476203 0.026261939 -0.060512893
0003a0 f9 c9 82 3e 5f e0 c3 bf a0 b4 06 3f c4 1c 2e bf
       0.25544718 -1.5302848 0.5261936 -0.6801264
0003b0 45 81 d8 be e0 73 1b 3d fc f3 a7 3e 40 03 ab bd
       -0.42286125 0.037952304 0.32803333 -0.08350229
0003c0 52 8f 9e bd d5 d8 3b 3c ba 38 d8 bf 90 b1 ce be
       -0.0774218 0.011465271 -1.6892312 -0.40369844
0003d0 45 11 80 bd 8d 90 14 bd 7d a1 0a 3e f3 2d 8d 3e
       -0.06253294 -0.036270667 0.13538165 0.2757412
0003e0 6f ea 95 3e 89 77 b0 3e d1 09 28 bf 59 ff eb be
       0.2928042 0.34466198 -0.6563998 -0.46093252
0003f0 dd 31 ce 3d 67 ae 3c bd d0 42 13 3e bd 0e 74 3e
       0.100681044 -0.04606476 0.14380956 0.23833747

bias f4 [512]
000000 46 05 4a 3e 1e 79 7c 3d 6b be 0a 3e f5 c0 a3 3e
       0.19728574 0.061638944 0.13549201 0.31983152
000010 c2 00 0d 3f a3 9e c5 ba 8e b6 e6 3e 93 9e da 3e
       0.5507928 -0.0015077185 0.45061153 0.42699108
000020 a8 b6 0e 3d a7 81 c6 3e 25 7f 32 3e ea b3 fc b9
       0.034842163 0.38770792 0.17431314 -0.00048199232
000030 cb f6 89 3d 81 27 53 be 28 67 a4 bd 6a 54 13 3d
       0.06736525 -0.20620538 -0.08027488 0.035969175
000040 49 17 43 be 8d d9 ae be 7a 38 4a 3e c2 23 95 3e
       -0.19051851 -0.34150353 0.19748107 0.29128844
000050 38 67 05 3f 11 98 0a 3e 66 f1 ee bd 39 f7 11 bf
       0.52110624 0.13534571 -0.11667137 -0.57017857
000060 56 e2 83 bd 56 23 4a be 3b 7e 74 3e f8 37 d5 bd
       -0.064396545 -0.19740042 0.23876278 -0.10411066
000070 20 13 21 bc 14 83 91 bd 9f 61 b0 3b c9 55 08 3f
       -0.00983122 -0.07105079 0.005382731 0.532559
000080 ec b8 86 bd 8a 45 54 3e 21 a5 cd bd c8 30 95 be
       -0.0657824 0.20729652 -0.100412615 -0.2913878
000090 82 a4 ee 3d 81 a2 89 be 1c 6d 0a 3e 62 64 de 3d
       0.11652471 -0.26881793 0.13518184 0.1085899
0000a0 6d c8 89 3e 8f f7 98 bd 2b d2 b8 bd 2b a4 ea bd
       0.26910725 -0.07469093 -0.09024461 -0.11457094
0000b0 47 52 5c bb 18 67 79 3d 62 50 e0 3e 6d 4f 82 3c
       -0.0033618377 0.060889333 0.43811327 0.015907014
0000c0 e9 b3 01 3f 99 97 d7 3d 02 6a 37 3e 6e 2e 89 3e
       0.50665146 0.10526962 0.17911533 0.26793236
0000d0 80 64 06 3e 91 e7 5b 3e 26 5c 8b be 8e 98 f0 3d
       0.13124275 0.21475054 -0.2721874 0.117478475
0000e0 d0 fc be 3e 1e 6c 5b 3e 16 48 32 3e 05 a7 62 3e
       0.37302256 0.21427962 0.17410311 0.22134025
0000f0 8d 70 de 3e 04 d4 0f be a5 bb 13 be 92 b6 90 3c
       0.43445244 -0.14045721 -0.1442705 0.017665181
000100 49 34 61 3e cc ff ba bb c0 b8 d3 3d 58 47 6e bc
       0.21992601 -0.005706763 0.10337973 -0.014543377
000110 88 5a c7 3b f6 ef 8d 3e fa 6c 2c be bc d2 e9 3c
       0.00608379 0.27722138 -0.16838446 0.028542869
000120 6a fb a1 be 48 b4 04 bd 94 27 13 3f c6 fe 90 3e
       -0.31637126 -0.032398492 0.57482266 0.28319377
000130 52 33 6f be f9 29 ae be 56 36 e1 3e 48 0e 0e be
       -0.23359421 -0.34016398 0.43986768 -0.13872635
000140 3f 71 d0 3e a5 ae e6 3d e7 d7 07 3f 8d c8 36 3e
       0.407114 0.112637796 0.53063816 0.17849942
000150 8c 57 15 3f 70 df a5 3e b8 ec f3 bd 26 79 fb 3c
       0.5833671 0.32397032 -0.11910385 0.030697417
000160 ec f4 66 be 3a 1f c1 bd 63 2a bf 3e 11 13 9b 3e
       -0.22554368 -0.09429784 0.37337026 0.30287984
000170 b2 b6 f0 3e 0b e2 a7 bd 69 a9 67 3e f0 62 a5 3d
       0.47014385 -0.08197411 0.22623219 0.080755115
000180 45 13 09 3e 6d c4 b9 3b 48 f3 82 3e 7a 60 cb 3e
       0.13386257 0.0056691677 0.25576234 0.39722043
000190 84 49 b0 3e cc 39 84 3e 2f 37 8b 3e 6a eb 84 3e
       0.34431088 0.25825346 0.2719054 0.25960857
0001a0 b7 48 bb 3e 16 a3 8c bd 66 d2 ff 3d cb 67 e2 3e
       0.36578915 -0.06867044 0.12491302 0.44219813
0001b0 3c a2 75 3e 60 a4 a6 38 8d 59 b1 3e 4e cd 18 be
       0.23987669 7.946114e-05 0.34638634 -0.14922068
0001c0 c9 18 93 3e 3e be d1 bd bb a3 c1 3e 80 bf 29 be
       0.28729847 -0.10241364 0.3782023 -0.16576958
0001d0 7a 67 34 3e 93 78 01 3e 24 5a a1 3e 48 be 29 3e
       0.17617598 0.12643652 0.31514084 0.16576493
0001e0 10 7c 6a 3e 3d 63 fb 3e 0d 03 bb 3d dc b4 bb 3e
       0.22898889 0.4909915 0.09131441 0.36661422
0001f0 0d 1b 4b 3d d7 39 a0 3e f7 d3 f2 3e 86 b5 f6 3e
       0.049586345 0.31294128 0.4742734 0.48185366
000200 03 e4 fd 3e 68 2f 07 3f aa 4e 96 bd 63 dc bb bd
       0.49588022 0.5280671 -0.07339223 -0.09172895
000210 f3 f8 9a 3e 9d 75 94 3e fd 9e 0b 3f bb 6a e5 3e
       0.30268058 0.28995982 0.5453947 0.4480799
000220 bd ec fc 3e 68 62 4f 3e a8 ae d0 3e 44 e2 e5 bd
       0.49399367 0.20252383 0.40758252 -0.11224797
000230 85 2b cf 3e 3b 99 32 3e bd 69 58 3e fc 3a cf 3e
       0.4046289 0.17441265 0.21134086 0.4047469
000240 c9 39 fc 3d c5 67 94 3e dd a1 91 3e f8 5e 09 3f
       0.12315709 0.2898542 0.28443804 0.53660536
000250 78 3e 06 3f c2 f6 04 3f 45 fe 08 3e ee cd 33 be
       0.5243907 0.5193902 0.13378246 -0.17559025
000260 40 17 af 3e 10 5e 35 be 1a f8 57 be a5 93 32 be
       0.34197426 -0.17711663 -0.21090737 -0.17439134
000270 18 ec ab be 24 2e 61 3d ea c0 9f 3e 46 cf 35 3e
       -0.33578563 0.054975644 0.3120187 0.1775485
000280 ba c9 5a 3e f0 bd 29 3e c2 d9 d1 3d aa 07 4d 3e
       0.21366015 0.16576362 0.10246612 0.20022455
000290 6a 44 7b be 23 0f eb bc fb f3 8b 3e af 2f 87 bd
       -0.24537817 -0.028693741 0.2733458 -0.06600892
0002a0 1b a1 4f 3d d1 65 5f 3e e8 68 86 bd 14 fa 04 be
       0.05069075 0.21816184 -0.06562978 -0.12986022
0002b0 5c 41 e4 bc 73 2c 56 3e 1d f5 36 3e 2b 6e cf 3e
       -0.027863197 0.20915394 0.17866941 0.4051374
0002c0 82 da ad 3e ce 49 0b 3e a7 a5 31 bd a1 ca e5 3e
       0.3395577 0.13602373 -0.04337087 0.44881156
0002d0 92 da 15 be 42 c1 15 be 4b 2a 09 3e 89 cd b8 bd
       -0.14634159 -0.14624503 0.1339504 -0.09023578
0002e0 d9 8f 8b be a6 4b 58 be 32 6c 91 3d 4c 9c d5 3e
       -0.27258185 -0.21122608 0.07100715 0.41720808
0002f0 8e 64 a6 be 59 a7 7e bd dc a2 f7 3e 5e 99 a8 3e
       -0.32498592 -0.062171314 0.4836644 0.3292951
000300 75 65 35 be 2f 60 ed 3c 7a 5b 36 3e 50 c1 e3 3e
       -0.17714484 0.028976528 0.17808333 0.44483423
000310 f6 5f 75 3e e0 02 d4 3e 33 b7 9f 3e ea b8 c2 3e
       0.23962387 0.41408443 0.31194457 0.38031703
000320 22 8e af 3e 4d 8f c0 3e 48 b7 3f 3e e3 51 38 be
       0.34288126 0.3760933 0.1872226 -0.17999987
000330 e0 da b5 3c 87 c9 c8 3e 28 d8 1f 3e a2 0a 87 be
       0.022199094 0.39216253 0.15609801 -0.263753
000340 6c cb 4e 3e c5 9c 6b 3e 29 59 ff 3e b8 1f 08 3f
       0.20194787 0.23009022 0.4987271 0.531734
000350 95 16 74 be 95 81 2d be bf a5 a6 3e a8 65 2d 3e
       -0.2383674 -0.16943963 0.3254833 0.1693331
000360 86 3d 97 bd 37 70 aa 3d d4 c6 7a 3e 7b 6b fb 3e
       -0.073847815 0.083221845 0.2448991 0.4910544
000370 d3 28 7b 3e d3 76 dd 3e 96 8f 97 3d ff 15 5f be
       0.24527292 0.43254718 0.07400434 -0.21785735
000380 bb 73 7e 3e df c0 3b bc a5 b3 89 3e c6 70 b7 3e
       0.24848835 -0.011459558 0.2689487 0.35828227
000390 1c 31 f6 b9 36 7e 09 3f d6 c6 a4 3e d3 44 aa bb
       -0.00046957366 0.5370821 0.3218295 -0.005196193
0003a0 2c 67 90 3e bc b3 a3 3e c1 95 b5 3e b6 05 18 bd
       0.28203714 0.31973064 0.35465816 -0.03711482
0003b0 80 10 04 3f 29 b7 00 be df db d9 bd b9 65 0a 3f
       0.51587677 -0.1256987 -0.1063764 0.54061466
0003c0 ad 15 0c bd c9 59 b0 bd 9f f9 af 3e d8 b2 0a be
       -0.03420036 -0.08610875 0.34370133 -0.13544786
0003d0 dc 16 12 3f f5 2c 48 3e 16 a5 7d 3e 4e 87 24 3f
       0.5706613 0.195484 0.24770007 0.6426896
0003e0 86 6b 29 3e fd d3 97 3e 42 96 d4 3e a9 b9 ee 3e
       0.16544923 0.29653922 0.41520888 0.46626022
0003f0 43 8d 49 be e9 83 11 3f ed 4f 90 3e da 73 17 be
       -0.19682793 0.56841904 0.2818598 -0.14790288

weight f4 [256, 512]
000000 06 fd fa bc 2d 98 e0 be df b2 68 bd e5 07 87 bb
       -0.03063823 -0.438661 -0.05681121 -0.004120814
000010 29 20 f0 bd 64 fa bf be 2e 02 2c bd f3 b8 1f 3d
       -0.11724884 -0.3749572 -0.041994266 0.03899474
000020 0e c2 85 3e 8c ec 59 bd 5b d9 05 3e 05 08 04 bf
       0.26124614 -0.053204104 0.13071196 -0.51574737
000030 67 c3 9e 3e 3b 6e d9 3d 84 a9 a6 3e bc 0c 22 3d
       0.31008455 0.10616728 0.32551205 0.039562926
000040 8d f3 4c bf 8f 0e be be 94 f3 27 3e d4 28 13 be
       -0.8005913 -0.37120482 0.16401511 -0.14371043
000050 f9 0e 5e bd 22 20 d1 3d e0 df 87 3e 24 cc 3c bf
       -0.054213498 0.10211207 0.2653799 -0.73748994
000060 3c 89 bb 3d 3b 25 41 be e8 27 ae bc b9 5b 5c 3e
       0.09157035 -0.18861859 -0.021259263 0.21519364
000070 f1 37 ad 3e 7e e5 6c 3e ab a6 df bd 9e 43 33 bd
       0.33831742 0.2313442 -0.10920461 -0.043765657
000080 be 56 b2 3e 42 09 8b 3d 61 52 cf 3d 49 b1 7d be
       0.34831804 0.06788875 0.101231344 -0.2477466
000090 6c 9b 61 3d 88 a0 0c bf de 2b bb bd b6 f0 8f 3c
       0.055079862 -0.5493245 -0.091392264 0.017570835
0000a0 64 7c 02 3e 4b c2 5f 3e a1 88 a5 be ad 65 e4 3e
       0.12742764 0.2185146 -0.32330802 0.44608822
0000b0 43 d0 9e 3b 89 79 e1 3d 23 f7 39 3c 05 e7 11 3b
       0.004846604 0.11009509 0.011350426 0.0022262943
0000c0 6d 60 2d bc 61 65 63 3e b0 4e d1 bc c7 d4 80 3d
       -0.010582072 0.22206642 -0.025550216 0.06290584
0000d0 cb 9a 6e 3d 6b 1e d7 3d a8 30 f7 be 2f df c2 3d
       0.05825309 0.10503849 -0.4827931 0.09515225
0000e0 ca fd 83 3d bc cd 65 3e 66 a6 4b 3d f7 0e ec 3d
       0.06444891 0.22441763 0.049719237 0.11526292
0000f0 44 5e a0 bd c3 8c 95 3b ac d4 cc 3d 03 36 a9 bd
       -0.0783048 0.0045638992 0.100015014 -0.08262255
000100 2c d5 04 3d a2 54 a9 3e f1 d7 45 3d 60 c6 28 3e
       0.03242986 0.33072382 0.04830164 0.16481924
000110 ea 69 a5 bd 01 20 76 bd 7b 43 2c 3d 42 7a c2 3e
       -0.08076842 -0.060089115 0.042056542 0.379839
000120 6c 71 86 be df b0 2d 3e f8 f4 0a bd cf a6 da 3d
       -0.2625841 0.16962002 -0.033925027 0.106763475
000130 70 95 0e bf d5 d6 d7 be 96 e0 b6 bd 4d 54 8e 3d
       -0.55696774 -0.4215609 -0.08929555 0.06949673
000140 df d1 1d bd 2a 3c 4d bd 44 65 a5 bb 46 d7 d8 bd
       -0.038530227 -0.050106205 -0.005047472 -0.10587935
000150 27 73 08 be fa a2 fa bc 96 20 49 3e 5f 4d 8c 3a
       -0.13325177 -0.030595291 0.19641337 0.0010704211
000160 12 93 72 bd 12 04 82 3e 2c a4 03 bd 61 7c c5 3d
       -0.05922229 0.2539373 -0.03213899 0.09642864
000170 31 df 10 bd 81 30 47 3e d0 82 61 be 06 fa bb 3d
       -0.035369102 0.19452097 -0.22022557 0.091785476
000180 95 12 6a 3d 18 1d b0 bd 5d 44 b9 3c d3 31 76 bd
       0.057146627 -0.08599299 0.022615606 -0.06010611
000190 f3 f8 03 3d 5d d5 74 3d 01 0c 95 bc ab 12 ed bb
       0.03221984 0.05977379 -0.0181942 -0.0072348914
0001a0 9e 62 44 3e fb 9c d5 be d0 14 31 3e 2a 69 fd bc
       0.19178244 -0.4172133 0.17293096 -0.030933935
0001b0 c3 d0 57 3d 9a 72 95 bf ab 71 41 bd 08 79 8b 3e
       0.052689325 -1.1675599 -0.047227543 0.27240777
0001c0 35 14 be 3d 52 a1 20 3e 7a 91 c7 3c 3f 2d b8 3e
       0.09281198 0.15686539 0.02436136 0.3597202
0001d0 59 9d 00 bc 97 96 77 3d 7b 22 d4 3c e6 05 ab bd
       -0.007850015 0.060446348 0.025895348 -0.083507344
0001e0 b2 d6 c1 bc 2b 10 f8 bd b3 06 1b bc 3e 75 8e be
       -0.023661945 -0.12112459 -0.009462046 -0.27823824
0001f0 5f 5b dd 3e 06 7f 88 3d 2b 36 24 bd 05 3e 7b bc
       0.43233773 0.06664853 -0.04009072 -0.015334611
000200 67 f7 8a bb 11 50 f5 3c ac 61 88 3e 73 5d 8b 3d
       -0.0042409184 0.029945405 0.26637018 0.068049334
000210 1d af 46 3e 89 7d 36 3d c4 4a a7 bd 47 ef 16 bd
       0.19402738 0.044553313 -0.08168557 -0.036849286
000220 dd bf b8 bb 85 1c ff 3d 9c a0 f0 3b b6 e7 0d 3e
       -0.0056381063 0.124566115 0.007343365 0.13857922
000230 8d 58 d5 bc 0c fc 93 3d 68 3b 4b 3d ad a6 db 3d
       -0.0260432 0.072258085 0.0496172 0.1072515
000240 76 d0 26 bd db 11 98 3d 8b 9a ce 39 a6 a6 a8 bc
       -0.040726148 0.07425281 0.00039406525 -0.020587277
000250 88 92 e2 3c f4 62 a3 bd e4 fd 70 3e 5c 5e 45 3e
       0.027657762 -0.07977858 0.23534352 0.19274276
000260 1a e4 21 bb 13 6d f3 be 6a 64 27 3e 9c 61 87 3e
       -0.002470261 -0.47544155 0.16346899 0.26441658
000270 11 62 11 bf 9d f9 64 bd f7 18 ca bc c4 fd 73 3e
       -0.5679026 -0.055902112 -0.024670107 0.23827273
000280 ec 61 ba 3d 32 14 0d 3d eb 18 b8 3d 81 9c ac 3d
       0.09100708 0.034443088 0.08989128 0.08428288
000290 6c 69 86 3e 96 47 6d 3e 67 1d 0d 3e bf e8 25 3f
       0.26252306 0.23171839 0.13780747 0.6480827
0002a0 d7 69 16 be bd e5 04 be fe 65 f5 3d 12 7e 72 bd
       -0.14688812 -0.12978263 0.11982344 -0.05920226
0002b0 32 6d 09 bd 15 b0 e3 3c 4b f8 18 3e 83 f6 0f be
       -0.033551402 0.027793923 0.14938466 -0.1405888
0002c0 be b8 9d 3c 41 8b c4 bd a6 4a 95 3e 7a b2 8c bd
       0.019253131 -0.09596873 0.29158515 -0.06869979
0002d0 5c db b4 3e b3 71 ec 3c 80 c9 9e bd 05 c3 12 bd
       0.35323608 0.02886281 -0.07753277 -0.035830516
0002e0 c7 db fa 3d 39 80 30 3f c1 2e 1a 3e 3c e1 15 3d
       0.122489505 0.6894565 0.15056898 0.036591753
0002f0 61 75 93 3e 1f 91 f3 3d 77 43 f3 bd b5 4e 3d bc
       0.2880049 0.11892914 -0.11878102 -0.01155441
000300 ff b6 95 3e 07 ba e8 bd 77 37 fd bc 2a 74 86 3d
       0.29241177 -0.11363607 -0.030910237 0.06565125
000310 5f 5c c0 3c 88 d1 0f 3d 92 a1 e6 bd 65 72 3e bd
       0.023481546 0.035111934 -0.11261286 -0.046495814
000320 d3 81 a1 bc 6a 5d a0 3d 4b 75 05 bc 08 67 10 3e
       -0.019715225 0.07830317 -0.008145641 0.14101803
000330 e8 9d 2a 3d 86 43 8b bd 76 11 2e bf 0e 35 1f be
       0.041654497 -0.067999884 -0.67995393 -0.15547583
000340 e0 a4 e8 3d 91 d1 bd bc 3f 59 d0 bc 16 93 13 3c
       0.113595724 -0.023171218 -0.02543318 0.009007236
000350 65 77 a6 3e 56 23 2f 3e d8 90 73 3d 12 9c 91 bc
       0.32512966 0.17103323 0.059464306 -0.017774615
000360 b7 84 7e 3e 4d 4a 77 3d ea d5 0a bc 45 0d 65 3d
       0.24855314 0.060373593 -0.008473853 0.055920858
000370 92 9b aa 3d 93 19 1d 3c 26 3b 0c 3d 85 85 0d be
       0.08330454 0.009588617 0.034236096 -0.13820465
000380 b1 a9 cc bc 36 03 18 3f f3 00 2d bc 5a ce b5 3b
       -0.024983259 0.593799 -0.010559308 0.0055482807
000390 1b fb 1c be 05 cf f5 bc 1d d9 09 bd 86 3b 0b bf
       -0.15330164 -0.030005941 -0.03365432 -0.543877
0003a0 2a 9e 82 bd 8b 60 86 3c 68 49 28 bd 9a c8 6f 3b
       -0.06377824 0.016403457 -0.04108563 0.0036588074
0003b0 d6 45 10 3b cc e7 77 bd b6 7f e8 3d 0a 48 99 bc
       0.0022014282 -0.060523793 0.11352484 -0.018711109
0003c0 27 44 16 3e e3 71 80 bd 36 41 64 3a 10 56 6a be
       0.14674436 -0.06271722 0.0008707227 -0.22884393
0003d0 21 28 a7 bd 2c 9e ac be 2f 8e 1b be 03 87 40 bd
       -0.08161951 -0.33714426 -0.15190957 -0.047003757
0003e0 b0 02 94 3d 1d e7 5f 3d 4e 4c 17 bd e6 bc 66 3d
       0.07227075 0.054663766 -0.036938004 0.05633249
0003f0 60 d2 f7 bb 5b 89 05 bc 1f af 97 3d 8a 81 c9 bd
       -0.0075629205 -0.008150424 0.074064486 -0.09839161

bias f4 [256]
000000 b9 45 84 bc c4 eb 18 bd c2 c5 b1 3c c6 25 26 bb
       -0.016146528 -0.03733422 0.021700744 -0.0025352105
000010 0c 52 c7 bb 7b df a1 3c ff 12 27 3d 43 1f 02 3d
       -0.006082779 0.019759884 0.0407896 0.031768095
000020 39 d9 bb bc 8b ac 90 bc 66 f8 a1 3c 0b d2 0d 3d
       -0.022930728 -0.0176604 0.019771766 0.03462414
000030 33 85 2b bd e1 3e 13 bd 7b 87 79 3d c5 f9 c0 3d
       -0.041875076 -0.035948638 0.06092022 0.0942264
000040 27 b8 ff bd 31 18 8a 3d a2 30 34 3c 60 d6 d9 3d
       -0.12486296 0.067428954 0.010997923 0.10636592
000050 bc f3 d4 3d 4e f8 a1 39 88 3b 3d 3d 5d 45 33 bd
       0.10398051 0.00030893314 0.04619935 -0.04376732
000060 1d cd d8 bc f8 f2 6a 3d e5 99 2a bc a4 16 c1 3c
       -0.026464993 0.05736062 -0.010412668 0.023570366
000070 df 3e 20 3d e8 18 fa bc 87 61 95 3d 13 63 11 3d
       0.03912246 -0.030529454 0.072939925 0.035494875
000080 52 1e dc bd aa 14 0f bd a8 52 03 bd 2c c5 81 bc
       -0.10747971 -0.034931816 -0.03206125 -0.01584109
000090 9d 82 27 3c 2b ed 78 3c dc c2 35 bc 9e d6 b8 38
       0.010224012 0.015193264 -0.011093821 8.813779e-05
0000a0 e7 94 f6 bc 97 94 6b 3c 13 bd aa bd 6d 09 f6 3c
       -0.030100299 0.014378688 -0.08336844 0.030033791
0000b0 44 9d f2 bc f9 eb 02 3b d1 5d 63 3e e3 28 77 3c
       -0.029616006 0.0019977076 0.22203757 0.015085432
0000c0 c0 88 b5 3c d0 98 83 bc 23 eb c2 3b d1 4a 90 3d
       0.022159934 -0.016064078 0.0059484406 0.0704552
0000d0 d3 6e 80 3c 0d 98 e5 3c 55 6b 08 3d 27 0a 41 3d
       0.015677845 0.028026605 0.033305485 0.047128823
0000e0 29 95 ea 3d 61 53 ce 3c fb f6 64 3b 70 8e 68 bd
       0.11454231 0.025186243 0.003493725 -0.056776464
0000f0 b3 e9 2c be 1d 41 35 3b ce 20 78 3c 2f 12 10 3d
       -0.16886024 0.0027657219 0.01514454 0.03517359
000100 78 63 b5 bc 22 db c3 bb 17 91 1c bc c7 69 2a 3d
       -0.022142157 -0.0059770504 -0.0095560765 0.041604783
000110 3c a4 51 3c dd 66 93 bc e5 45 67 3c 04 c3 61 3c
       0.012795504 -0.017993385 0.014115785 0.0137794055
000120 3e 27 eb bc fa ed 23 3d f2 e8 67 bc 81 7d 73 3d
       -0.028705236 0.040021874 -0.01415466 0.05944586
000130 2f 0c 04 3d 0b 82 01 3d c6 5d 20 3d 1d bd 1c 3d
       0.03223818 0.03161816 0.03915193 0.03826629
000140 62 3b 88 3d 0c fc 2b 3d bd 55 09 3d 8d 37 0f 3d
       0.066519514 0.041988418 0.033529032 0.034965087
000150 2f f3 99 3c ff 47 8a 3c 91 64 ef 3c 29 39 db bc
       0.018792717 0.016880034 0.029222758 -0.026760655
000160 8f fd a2 3d 1b e9 6e 3d b5 b0 a5 bc aa 4b 29 bb
       0.07958519 0.058327775 -0.020225862 -0.0025832453
000170 99 ab 9c bc 49 cd 8c 3d ee 1d be 3c d5 9b d8 3d
       -0.019124793 0.068750925 0.023207631 0.105765976
000180 01 c7 0d bb 6b 59 6f 3d 4a 13 c5 3c 93 90 37 bc
       -0.0021633508 0.058434885 0.02405705 -0.011203903
000190 fb df 0b 3d 3d ce 6a 3c fa b4 30 3d f2 dd b1 bd
       0.03414915 0.014331398 0.043141343 -0.08684911
0001a0 9e 2c f5 3a 23 28 33 3b 28 3b 9f 3e 4e ad b1 3d
       0.0018705314 0.0027337156 0.3109982 0.08675633
0001b0 c3 d6 06 bc 90 fe 50 bc 21 52 28 bd dd 94 84 bb
       -0.008229914 -0.012756005 -0.04109395 -0.004046066
0001c0 dc 83 19 b9 ad 8b bf 3c 99 a0 5d bb 20 a0 73 3d
       -0.00014640338 0.023382032 -0.0033817647 0.05947888
0001d0 80 ad 63 38 00 4f ef 3d 7a 0f 3b 3d 72 db 53 3c
       5.4282602e-05 0.1168499 0.045669056 0.012930738
0001e0 aa 05 4d 3e 13 36 af ba 7c 8e 34 3d 3e 29 22 3c
       0.20021692 -0.0013367556 0.044081196 0.009897528
0001f0 d3 af 0f 3e c4 5d 35 3d 3c e9 1c 3d 8f d9 0d 3e
       0.14031915 0.044278875 0.038308367 0.13852523
000200 38 99 ba 3a c8 1f 68 3d 83 c9 4b bd 02 a8 18 bd
       0.0014236337 0.056670934 -0.049752723 -0.0372696
000210 e6 2d 99 3d ee ba aa 3b 07 2f 1f 3d 60 69 8d 3c
       0.074794576 0.005210272 0.03886321 0.01726216
000220 02 2a 9b 3c 30 2a 02 3d 2c 08 06 bd d0 ae 61 3e
       0.01894093 0.031778514 -0.032722637 0.22039342
000230 53 55 ee bd de f4 05 bd 34 f5 13 bc f6 bc e9 bc
       -0.11637368 -0.032704227 -0.009030629 -0.028532486
000240 f2 eb aa bc 8a 9f 15 be 80 4e 46 bd ad 66 d3 ba
       -0.02086446 -0.1461164 -0.048414707 -0.0016128622
000250 aa 42 dd bc 29 1c 23 bd 82 d5 80 bc 61 e3 c5 3d
       -0.027009327 -0.039821777 -0.015726808 0.0966251
000260 f3 d2 cd 3b 22 d7 b4 ba 9d 38 53 3d bc c4 f3 bc
       0.0062812506 -0.0013797025 0.051567663 -0.029756896
000270 3b 35 1f 3d 3f de 48 3d 12 90 ff bc ca f6 55 3d
       0.038869124 0.049040075 -0.031196628 0.05223731
000280 38 42 d7 3c 41 e0 07 3d 6c ea 06 3d 00 53 2d bd
       0.026276693 0.03317285 0.032938406 -0.042315483
000290 31 63 10 3d 4d ca f4 3c 90 f4 84 bc 89 39 c5 ba
       0.035250846 0.02988162 -0.016229898 -0.0015047054
0002a0 9b 43 bb 3d 87 b7 94 3d 2a 7c b8 b8 c2 35 b1 3c
       0.09143754 0.072615676 -8.796931e-05 0.021632079
0002b0 30 30 5a 3d 8b be cc 3a d0 cd 4d 3c 1e f9 7a 3d
       0.05326861 0.0015620751 0.012561277 0.061272733
0002c0 6c bb 9c bc 75 07 ab bd ed cf 87 3d 94 55 09 bc
       -0.019132338 -0.08351032 0.066314556 -0.00838222
0002d0 d4 34 dc 3c 64 ac 14 3d 58 8b 49 bc 07 f8 2c 3d
       0.02688066 0.036297217 -0.012301289 0.042228725
0002e0 0d bc b7 3c c4 b1 9b bd ba cf 60 bc 10 9e 2f bd
       0.022428537 -0.076022655 -0.013721401 -0.04287535
0002f0 ae c2 2e ba 0c 82 f2 3c 5e be 4f 3c 6b 3f 35 3d
       -0.0006666583 0.029603027 0.012679664 0.044249933
000300 a3 6d f2 39 c4 36 6a 3c de 68 0b 3c ff 8f 0d 3d
       0.00046239523 0.014295284 0.008508889 0.034561154
000310 a4 8e e7 bc 88 fb 17 bd 16 17 a9 3c 34 19 12 bd
       -0.028266259 -0.037105113 0.020640891 -0.035668567
000320 9b ca 4d be e5 30 d5 bb db ed e1 3d 42 e9 44 be
       -0.20096819 -0.006506073 0.110316955 -0.19229606
000330 01 b2 68 3c b7 1e 52 3d 88 35 fe 3c bc a1 c0 3d
       0.014202596 0.051298823 0.031031385 0.094058484
000340 af 13 36 3d d3 9b a7 3c 62 28 10 bd d0 a3 51 3d
       0.044452365 0.020460045 -0.035194762 0.051181614
000350 dd 2b 24 3d ac 4b 9c bc b9 ad d1 3c 3a c1 dd 3c
       0.040080894 -0.019079052 0.025595533 0.027069677
000360 6f 68 0a 3d 0c 5a 98 bc 60 c5 0e 3d b7 ba 4d 3d
       0.033791002 -0.018597625 0.0348562 0.050226893
000370 98 fb 0a 3d 21 f5 5a 3b c8 c3 58 bc 23 b3 07 bd
       0.033931345 0.0033410268 -0.013230272 -0.033129822
000380 e5 61 63 3d 07 b6 d5 bc e4 50 af bc 2c 95 3b 3c
       0.05551328 -0.026087774 -0.021400876 0.01144914
000390 2b 63 6f 3c ee 1c 1e bd f6 bf 0e 3d 39 0f 57 3e
       0.014611046 -0.03860181 0.034851037 0.210019
0003a0 55 ae 59 3e fe 7f 50 bd 3b 8d 26 3d 18 db 50 ba
       0.21257909 -0.050903313 0.04066203 -0.0007967218
0003b0 c3 2d ee bc 35 49 3f bd c8 f6 fe bb e7 28 bd 3b
       -0.029074555 -0.046700675 -0.0077808835 0.005772698
0003c0 d7 23 83 bc 18 b1 29 3d 68 3e 3e bc 22 4c 37 3d
       -0.0160083 0.041428655 -0.0116115585 0.04475034
0003d0 f0 47 d1 3b dc a2 1a bb e0 6b c1 3c 92 87 cb bc
       0.0063867494 -0.0023595607 0.02361101 -0.024844918
0003e0 af 17 23 bd b0 d7 32 bd 06 82 0c 3c 34 74 d8 3a
       -0.03981751 -0.043662727 0.008575922 0.0016514123
0003f0 d2 7e 09 3d 52 f3 39 bc c4 94 1a 3d 74 45 88 bc
       0.03356821 -0.011349516 0.03773953 -0.01663468

weight f4 [4, 256]
000000 ad a1 4c be a4 08 9a be f5 3a 80 be 75 e5 c5 3e
       -0.1998355 -0.30084717 -0.2504498 0.38651624
000010 8f 16 6b be ec 2c 1a be a8 d7 6c be 00 64 0c 3d
       -0.22957824 -0.15056199 -0.23129141 0.034275055
000020 de 1b 98 bb 42 1d a3 be d8 34 a1 bd 00 7e 94 3e
       -0.004641994 -0.3185826 -0.07871407 0.2900238
000030 f3 36 ac bc 9f 34 26 be 8a 88 f9 bd 42 b8 36 3f
       -0.021022296 -0.16231011 -0.12184246 0.71374905
000040 ee c6 dd bd 05 84 d0 3c 22 7f 68 3d 5e 00 fb 3c
       -0.108289585 0.025453577 0.05676187 0.030639824
000050 38 12 e5 3e 55 c8 88 be 43 56 97 be 1f 7b 12 be
       0.44740462 -0.2671534 -0.29558 -0.1430478
000060 57 d8 6f be 98 4e 4c bd 0e 8f a4 be fc be ce 3d
       -0.23422371 -0.04987964 -0.32140392 0.10095021
000070 97 e5 5c 3e 3f 72 a6 be 7d 81 90 3d bc de 94 bd
       0.21571957 -0.32509038 0.07055948 -0.07269046
000080 c9 d1 1d 3e a8 f2 08 3c 53 bb 78 be 0d 44 17 be
       0.15412058 0.008358635 -0.24290209 -0.14772053
000090 5d 3b 0b be 8c b3 51 be 8f 81 54 be 4d 50 4e 3d
       -0.13596864 -0.20478648 -0.20752548 0.05036955
0000a0 e8 6b ad 3c 89 2a 45 be 57 21 85 be 4b 35 6d be
       0.021169618 -0.19254507 -0.26002 -0.23164861
0000b0 7d 4d e3 3c 45 48 70 be 1f 8f 0d 3f 2a 48 47 be
       0.02774691 -0.23465069 0.5529651 -0.19461122
0000c0 d6 81 bb 3c 50 bd b2 bb b6 c4 8b be bf 1a 4b be
       0.022889059 -0.0054546967 -0.27298516 -0.19834422
0000d0 b7 69 47 be 87 73 28 be 18 a4 54 be f5 56 64 be
       -0.19473921 -0.1645032 -0.20765722 -0.22298796
0000e0 ff 79 0a 3f 4d 21 81 be d4 fa 3e be 39 05 0e 3f
       0.540924 -0.2522072 -0.18650371 0.5547672
0000f0 a4 b5 bd 3d 50 bf 63 be 4e 3b d1 bc ce 54 6e be
       0.09263161 -0.22240949 -0.025540974 -0.23274538
000100 9e 93 58 be d4 d3 3c be ac 06 f9 bc e7 ae b0 be
       -0.21150061 -0.18440181 -0.03039869 -0.3450844
000110 72 1a 14 be c9 e7 17 3c 7d 9c 65 3e 56 32 20 be
       -0.14463213 0.0092715705 0.22422977 -0.15644202
000120 ac a5 01 be 20 77 3d bd 47 69 19 3e 5a 53 eb 3e
       -0.12660855 -0.046256185 0.14981566 0.4596203
000130 d3 33 31 3f 60 46 f5 bc f5 73 70 be 8e 05 0f be
       0.692197 -0.029940784 -0.23481734 -0.13966963
000140 92 48 eb 3d bd e6 84 be ad 38 40 be f6 62 3a 3d
       0.11488451 -0.2595729 -0.1877162 0.045504533
000150 c8 81 a8 bd 0d 76 9b be a9 60 5c 3d 75 50 79 bd
       -0.08227879 -0.30363503 0.05380312 -0.060867745
000160 b8 11 64 be f8 7f 1e be ff b2 2d be 04 42 88 3c
       -0.22272384 -0.15478504 -0.16962813 0.016633041
000170 24 42 69 be 6c 60 22 be 3c cb bb bd e7 79 d4 3e
       -0.22779137 -0.15857095 -0.09169623 0.41499254
000180 fa bb b8 ba 90 56 63 3e e8 d0 da 3c 78 a8 8d be
       -0.0014094107 0.2220099 0.026710942 -0.27667594
000190 af 7c bd 3b bf 79 85 be ef 4c 9d be 25 12 3b be
       0.0057826857 -0.26069447 -0.30722758 -0.1826864
0001a0 7d 93 6d 3e ca 2a 06 bc dc 86 2d 3e c3 29 27 3f
       0.23200794 -0.008188913 0.16945976 0.652981
0001b0 f8 35 94 be d8 cb 7b ba 46 1f 38 3d 21 89 41 be
       -0.28947425 -0.0009605265 0.0449517 -0.18899967
0001c0 ee b2 02 be c2 f4 5d be 1e 6d 80 be d9 e8 c3 3e
       -0.12763569 -0.21675399 -0.2508325 0.38263586
0001d0 7b 69 23 be fc 23 c7 3e 3a 58 91 be 60 66 89 be
       -0.15958206 0.3889464 -0.28387624 -0.26835918
0001e0 f3 95 75 3f 31 33 4f be 7d 33 2c be 68 cb 59 be
       0.9593193 -0.20234372 -0.16816516 -0.21269
0001f0 ec 00 e3 3e c7 0b 38 be 77 f1 41 be 37 63 15 3f
       0.4433664 -0.17973243 -0.18939768 0.58354515
000200 92 60 2b be f6 80 73 be f1 d8 83 3c b9 69 09 3f
       -0.16736057 -0.23779663 0.016094657 0.53676945
000210 7c b6 0e be c2 64 62 3d b4 2f a0 be 02 a2 1c be
       -0.139368 0.05527187 -0.31286395 -0.15296176
000220 ec 67 27 3d 45 a3 5a be a5 06 6b be 6a 67 53 3e
       0.040870592 -0.21351345 -0.22951753 0.20644918
000230 40 17 31 bb 89 bd 86 3b 77 9b 66 be 58 ed 7b bc
       -0.0027021915 0.00411195 -0.22520243 -0.015376411
000240 7d 13 7d be 51 9a 43 3c ca 2e c7 be 53 9d 65 bd
       -0.24714465 0.011938647 -0.38902885 -0.05605824
000250 dc ef 68 be 1c d5 e6 3c 54 6f 5e be 93 86 1e be
       -0.22747749 0.02817779 -0.21722156 -0.15481023
000260 79 5b 26 3d 8e bf 5f be 02 22 1e be 9d 08 6d be
       0.04061458 -0.21850416 -0.1544266 -0.23147817
000270 7c cb 86 be 36 aa 32 3d f5 e3 36 3d 46 de 27 be
       -0.2632712 0.043619357 0.04465099 -0.16393384
000280 1e 14 7f be c0 45 fb bd 1c a8 22 3f fe 94 76 be
       -0.24910018 -0.12269163 0.63537765 -0.24080274
000290 44 ac 20 be 4f bf bb 3e 9b da 37 3c 30 6f 1d 3c
       -0.15690714 0.36669394 0.011221553 0.009609029
0002a0 93 07 39 3e b2 59 4d 3e 10 13 86 3c 3c 8c e6 3e
       0.18069296 0.20053747 0.016366512 0.45028865
0002b0 5e 67 33 be f3 11 93 3b f8 2d 18 bd 62 c9 75 be
       -0.175199 0.0044882237 -0.037153214 -0.24002603
0002c0 96 2e ba 3c bb 71 75 be 21 53 18 be 7e 2c 91 bd
       0.022727292 -0.23969166 -0.14875461 -0.07088564
0002d0 0d 98 d9 bd 7c 97 21 be 26 ca 13 3d 37 cc d6 3e
       -0.106247045 -0.15780443 0.036081456 0.4195268
0002e0 2e 0f 83 be 5e ed 5c 3e 26 11 1a 3d b4 0c 53 bd
       -0.2559752 0.21574923 0.03761401 -0.051525787
0002f0 ce ba 62 be 37 58 93 bd a9 ad 91 be b4 37 2e be
       -0.22141573 -0.0719456 -0.28452805 -0.17013437
000300 1c e3 3c be af b2 9d be ad aa 62 be 80 5c 7a bc
       -0.1844601 -0.30800387 -0.2213542 -0.015280843
000310 aa 5c 97 be ee 7f 56 3d 48 c5 6a be 9b 01 10 be
       -0.29562885 0.052368097 -0.2292682 -0.14063112
000320 bb 13 88 3d 4b aa 22 bd 09 e1 a3 be f1 0c a6 3d
       0.06644388 -0.039713185 -0.32007626 0.08107937
000330 aa 57 91 be 42 38 66 be 70 b9 4f 3c 66 e3 88 3e
       -0.28387195 -0.22482398 0.012678489 0.2673599
000340 33 02 99 3e 7e 73 29 be ef a1 48 be 88 ee 4c be
       0.2988449 -0.16547963 -0.19593023 -0.20012867
000350 2a 41 cb bd bd 12 89 be a3 04 3f bd 61 eb be 3b
       -0.099245384 -0.2677211 -0.04663528 0.005826399
000360 28 d7 5b be 74 fa 4b 3d 89 c8 79 be 82 e0 6f 3e
       -0.21468794 0.049799398 -0.24392904 0.23425487
000370 36 5d 7a be 48 24 63 be 07 20 8b 3d 89 42 fd be
       -0.2444962 -0.22181809 0.06793218 -0.49464825
000380 42 71 92 3d 84 72 58 be 3e 12 89 be c7 53 5a 3b
       0.071505085 -0.21137434 -0.2677173 0.0033314095
000390 fd 60 3e be 89 5b 0c bd 53 6f 0d bd 76 34 50 3e
       -0.18591686 -0.034266982 -0.034529995 0.20332512
0003a0 17 0b e2 3e 0d 18 66 be 0a 0d 88 be 84 7b 47 be
       0.44149086 -0.22470112 -0.26572448 -0.19480711
0003b0 d0 61 82 3c d6 73 5c be a0 e3 81 be 4e 8c 3d be
       0.015915781 -0.21528563 -0.25368977 -0.18510553
0003c0 46 9d cb 3e df e8 41 be 08 07 d5 be ac 69 0e be
       0.39768428 -0.1893649 -0.41606927 -0.13907498
0003d0 bd 5d 0d bc ef e1 cc 3e c9 d4 68 3e f6 6c e6 bc
       -0.008628306 0.40016124 0.22737421 -0.028128128
0003e0 70 9e 08 3d cc 05 23 3d b6 59 90 be 0b 1b 5a be
       0.033354223 0.03980045 -0.28193444 -0.21299379
0003f0 34 8c 61 3d 97 0c 8f be ef 44 80 be 7a 02 b8 bd
       0.05506535 -0.27939293 -0.25052592 -0.08984847

bias f4 [4]
000000 cf 84 d9 3c c1 26 4f 3b d7 e8 ca 3d fc 3d 20 bb
       0.026552586 0.0031608792 0.09907692 -0.0024451008
