models/dqn.pt (torch, 551712 bytes, 6 tensors)

weight f4 [512, 8]
000000 ef d2 27 3f d7 85 57 3c 69 79 1d bf b9 0b 85 be
       0.65556234 0.0131544685 -0.6151338 -0.25985506
000010 9b 84 0a 3f ef cc 0f 3f df f6 8a be 79 61 f0 be
       0.5410859 0.5617208 -0.27141473 -0.46949366
000020 97 fb ed bc 31 8e 5c ba 09 9b 75 bf 49 d3 c6 3e
       -0.029050631 -0.0008413522 -0.9593969 0.38833073
000030 09 65 2e 3f 71 a5 11 c0 be bc 49 3f 43 0b 0c 3f
       0.6812292 -2.2757227 0.7880362 0.54704684
000040 31 2d 03 bf d0 81 7e c0 77 cb 07 3e 9e 9f ee bd
       -0.5124083 -3.9766731 0.1326121 -0.11651538
000050 55 cb d8 3f 14 5d 9a be f0 f4 9a be d4 7e dc be
       1.6937052 -0.30149138 -0.30264997 -0.43065512
000060 c9 3c ba bb 6d 04 ea bf 1c ed 11 3b 94 08 9e bd
       -0.0056835157 -1.8282601 0.0022266572 -0.0771648
000070 c1 9f 74 3c e4 a2 30 bd b1 cf e2 3c a9 f1 9e be
       0.014930666 -0.043124095 0.027686926 -0.31043747
000080 ef 81 4b bf 94 64 9f bf e6 fa a3 3d 35 1a 19 3f
       -0.7949514 -1.2452569 0.080068395 0.59805614
000090 55 5a 38 be b7 c3 cc bb d0 4e 22 be a1 9e 7a 3d
       -0.18003209 -0.006248917 -0.15850377 0.061186437
0000a0 eb 14 11 3e b1 7e f4 be 93 94 16 3f 01 2d de 3f
       0.14168136 -0.47752908 0.58820456 1.7357484
0000b0 29 fa b6 be b9 5a 3b 3f f7 3f 0d 3f 4f 64 dc be
       -0.35737732 0.73185307 0.5517573 -0.4304528
0000c0 1e 34 34 bf 65 e2 23 3e 31 ea c5 3e fe 93 b4 3e
       -0.70392025 0.16004331 0.38655236 0.3526916
0000d0 bc 68 99 bf 0d e2 94 bf 9d 88 49 be e9 7f d1 3d
       -1.1985087 -1.1631485 -0.1968102 0.10229475
0000e0 ff 9f b0 bf 25 05 c3 bf 4e e1 48 bf 60 4b 32 3e
       -1.3798827 -1.5235945 -0.7846879 0.17411566
0000f0 e4 4b f2 bb 2c 12 02 bf 4d 25 4d be 5d 6b fd 3d
       -0.007394301 -0.5080898 -0.2003376 0.123739935
000100 86 43 47 be e5 7f 97 3e 1f 3b 7d 3f 7e 7c 1a bf
       -0.19459352 0.29589763 0.98918337 -0.6034621
000110 0d bd fa be ab 54 9e 3e 4c f2 cc bd c5 38 b8 be
       -0.4897236 0.30923972 -0.10007152 -0.35980812
000120 1b dc 39 3e 8f 9b 0a c0 58 dd eb be 2c e5 1c be
       0.1815037 -2.1657445 -0.4606731 -0.15321797
000130 80 02 03 bf 76 de 4d 3d a4 47 5b bf 61 21 57 be
       -0.5117569 0.050260983 -0.8565619 -0.21008827
000140 7b dd 35 3e 9f ec 75 c0 b2 2b 6c 3e 53 2f 11 bc
       0.1776027 -3.8425672 0.23063543 -0.008861381
000150 30 37 63 3f 89 65 31 bf b7 d4 dc bd 76 5d 77 bf
       0.88756084 -0.69295555 -0.1078276 -0.96626985
000160 60 3d 2a be 3b 6e b3 bf 88 15 28 3b 96 3c cb bd
       -0.16624975 -1.4018015 0.00256476 -0.09923665
000170 10 65 8e 3f 3a 1b b4 3e 72 38 1d be 45 b3 51 bf
       1.1124592 0.35177022 -0.15353563 -0.8191417
000180 b6 b2 0b be db d6 fb bf c8 5a b7 3e 82 88 96 3e
       -0.13642392 -1.9674944 0.35811448 0.29401022
000190 25 c6 08 3f 63 8a cb be aa 34 2d 3e 58 da 05 bf
       0.53427345 -0.39754018 0.16914621 -0.5228629
0001a0 ba fd 91 be 99 fb 6d bf 0b 54 a4 bf 77 c0 1a bf
       -0.2851389 -0.9296203 -1.2838148 -0.6044993
0001b0 5f 2c fa be 4b 7d 8f 3e ae 7e 83 bf 5a 79 54 3e
       -0.48861977 0.28025278 -1.0273035 0.20749417
0001c0 69 87 2c bd 2a b6 08 bd 26 d1 07 c0 a0 b7 48 40
       -0.042121325 -0.03337685 -2.1221404 3.1362076
0001d0 bb 9c e1 3d cd 21 11 3f 6c 63 87 3e 59 02 0c 3e
       0.11016222 0.566922 0.2644304 0.1367277
0001e0 e8 5d 4e 3e d6 09 8c bf 31 59 cb be ce c4 91 3d
       0.2015301 -1.0940502 -0.39716485 0.07117616
0001f0 cb b6 a5 be 45 ac b5 bd 5b ea f3 be 13 f9 a5 3d
       -0.32366022 -0.088707484 -0.47639737 0.08104148
000200 a7 fe 23 3f 2d 1f 7b c0 ef 72 a5 3e 18 5f 8a 3d
       0.64060444 -3.9237778 0.3231425 0.06756419
000210 5c ed 9f 3f e3 43 8a be c9 7d ab be 4c 01 62 bf
       1.2494311 -0.27004918 -0.33494404 -0.8828323
000220 66 89 cc be ca d8 37 3e 17 63 34 bc 88 11 d9 3e
       -0.39948577 0.17953792 -0.011009953 0.42396188
000230 c3 c4 98 40 a8 62 60 3f b2 ec d3 3e f0 9a 55 be
       4.774019 0.8765054 0.41391522 -0.20859885
000240 43 51 6f be 85 a2 5b bf ba 69 53 3f ce 89 c2 be
       -0.23370843 -0.8579486 0.825832 -0.37995762
000250 c8 a7 37 bf b4 26 57 bf b0 10 36 bf 28 1a 2d be
       -0.7174039 -0.8404343 -0.71119213 -0.16904509
000260 02 62 14 bf 32 ad 3d c0 6d ac df 3e 03 25 b9 be
       -0.5796205 -2.963696 0.43686238 -0.3616105
000270 da 26 04 3f 45 9a 0c 3f c4 ba 2e bf 31 e8 ee 3e
       0.5162178 0.54922897 -0.6825373 0.46661523
000280 4c 99 e6 3c 42 d0 5a be be db cb 3f ce 1e 67 bb
       0.02814927 -0.21368507 1.5926435 -0.0035266164
000290 ab a8 28 bf ee 67 33 bf 9b 96 e4 be 51 d4 2d 3f
       -0.65882367 -0.7008046 -0.44646153 0.67902094
0002a0 fa c2 ed 3e 29 ef af bf 32 de d4 bd fd b0 c8 3e
       0.46437818 -1.3744861 -0.10393943 0.3919753
0002b0 90 4a ff be 41 37 de 3d 7b 2d 8d bd e4 b4 aa 3e
       -0.49861574 0.108503826 -0.0689344 0.33341134
0002c0 ef 96 b1 3e 94 21 2a bf 22 cd 18 bf 9e 97 c5 3f
       0.34685466 -0.66457486 -0.5968801 1.5436895
0002d0 95 12 20 3f b8 18 4e 3f e6 f0 79 be 10 75 28 bf
       0.62528354 0.8050647 -0.24408302 -0.65803623
0002e0 2f ce ad 3d 00 e0 74 c0 fd 5c 74 3e 2e bb 61 be
       0.08486592 -3.8261719 0.23863597 -0.2204406
0002f0 f1 bb 00 3e cd d4 d1 be 93 d1 70 bf fa 5e 80 bf
       0.12571694 -0.40982667 -0.94069785 -1.0028985
000300 20 5b e7 3e 84 b2 61 c0 ad c6 23 3e 23 78 52 3e
       0.4518671 -3.5265207 0.15993758 0.20553641
000310 91 3f 66 be 68 7d d9 be 48 32 44 bf 21 89 2a 3e
       -0.22485186 -0.4247849 -0.76639223 0.16653873
000320 bb 05 d9 3e 54 8e b9 be 8c b7 a6 bf 17 6c ea 3f
       0.42387185 -0.362414 -1.3024764 1.8314236
000330 ab 34 35 3f 56 31 1a bf c4 8e bf 3e fe 6a 5b bf
       0.7078349 -0.6023153 0.3741361 -0.8571013
000340 9e 04 85 bf 0b 75 05 c0 7e 42 3e bf cf 82 88 be
       -1.0392034 -2.0852687 -0.7432021 -0.266623
000350 ab e0 1e 3f 37 7f 53 3f 38 1b cb bd f4 26 8e be
       0.62061566 0.8261599 -0.09917301 -0.27764094
000360 54 78 53 3e 48 73 87 be 33 bb 26 bf 70 ac 0a 3f
       0.2065137 -0.2645514 -0.65129393 0.5416937
000370 07 6f 08 bf dc 75 41 3f ad a6 35 bc 0f f9 dc be
       -0.53294414 0.75570464 -0.011087102 -0.43158767
000380 3e e0 96 bf 2f 23 d7 bc 2c a1 fd be 96 82 39 bf
       -1.1787183 -0.026261894 -0.49537027 -0.72464883
000390 83 0c 94 bc ae 23 7b 3e 08 18 7f bf 90 75 11 3f
       -0.018072372 0.2452533 -0.99646044 0.5682001
0003a0 5b 72 e1 be 7c 8e e6 bf fd ab 94 3e 4d 0e c9 3e
       -0.4403256 -1.8012233 0.29037467 0.39268723
0003b0 47 42 a0 3e e5 ee ca 3d 9f fd 0b bf 93 78 91 be
       0.31300566 0.09908847 -0.5468387 -0.28412303
0003c0 3b 9f a2 3e 31 33 ce bf 06 76 86 be 24 90 40 3e
       0.31762108 -1.6109372 -0.2626192 0.18804985
0003d0 88 a5 de be df 90 0b 3e 68 fd 04 bd 43 dd 4c 3e
       -0.43485665 0.13629483 -0.03246823 0.2000628
0003e0 67 b9 90 3e 09 b5 b6 be 12 56 32 be 72 d1 4a 3f
       0.2826645 -0.35684994 -0.17415646 0.7922584
0003f0 71 c5 83 3f e7 72 d8 bf 47 1a 98 3e 0a 3b 12 3e
       1.0294629 -1.6910065 0.29707548 0.14280334

bias f4 [512]
000000 18 9f 36 be e9 1d 24 bd f9 eb 3f 3e b7 57 1c bf
       -0.17834127 -0.040067587 0.1874236 -0.6107134
000010 08 a4 f5 be 70 4c 75 be d2 c3 29 bf f9 fb d9 3d
       -0.47976708 -0.2395494 -0.66314423 0.10643763
000020 6f 8c 90 be b0 d6 1f bf cf af e0 be 56 9b 09 bf
       -0.28232142 -0.6243696 -0.4388413 -0.5375265
000030 72 11 0a bf 0b 09 6a be c6 8b 3a 3d 40 46 78 bf
       -0.5393287 -0.22855012 0.045543455 -0.96982193
000040 a9 82 82 3e 02 04 0e 3e 81 f0 3d 3e 4a db b9 be
       0.2549031 0.13868716 0.18548776 -0.36300117
000050 97 91 81 3e ea a2 1d bf 52 5b 2c be 53 e0 ae be
       0.2530639 -0.6157671 -0.16831711 -0.3415552
000060 a4 71 02 be 58 f3 70 3c 7d 69 e3 be f7 63 3d bf
       -0.12738663 0.014706455 -0.4441642 -0.7398066
000070 99 20 2d bf d1 e2 4b bf 9f 57 0d bf 1a 76 df be
       -0.67627865 -0.7964297 -0.55211824 -0.43644792
000080 a9 7e 76 bf ab e2 46 bd e9 27 67 be 03 48 e1 be
       -0.9628702 -0.04855601 -0.22573818 -0.44000253
000090 fc 1a 03 bf 57 31 27 bf c6 5a 4d 3d 9d f7 4d bf
       -0.5121305 -0.6530966 0.050135396 -0.8045595
0000a0 77 4a 1b bf b3 a6 0e bf 7e 29 9e bf d8 c0 70 bf
       -0.606605 -0.5572311 -1.2356412 -0.94044256
0000b0 bd 79 1c 3f 17 b5 1c bf cf f6 5c bf f4 7b 82 bd
       0.6112326 -0.6121382 -0.863141 -0.063712984
0000c0 04 b7 61 be 0f 3d a5 be eb a9 2a bf db f0 17 bf
       -0.22042471 -0.32273147 -0.66665524 -0.5935189
0000d0 b0 38 b5 bf 9d fa db be 39 45 46 bf 85 5b 10 3d
       -1.4157925 -0.4296464 -0.77449375 0.03524353
0000e0 84 9e e0 be 64 4a 37 be 16 63 fb bd 6f 65 77 3e
       -0.43870938 -0.17899472 -0.122747585 0.24159788
0000f0 fb 6e 83 bc d6 e6 46 bf 3f ae 1a bf 78 ec fe 3d
       -0.01604413 -0.7769598 -0.6042213 0.124474466
000100 2d a4 7a 3e 0b 59 9b bd ef b5 5c bf 4d d3 d0 be
       0.2447669 -0.07585343 -0.8621511 -0.4078621
000110 25 b3 39 be ab d0 21 3e 6b f7 cb be ea 79 da be
       -0.18134744 0.15802257 -0.39837202 -0.42671138
000120 2c 5e 19 3e c9 35 2c bf df b6 43 bf e6 ee 2c 3f
       0.1497733 -0.6726957 -0.76450914 0.6755203
000130 84 f8 17 bf f1 8a d1 be c3 ff 1f bf 42 a2 03 bf
       -0.5936358 -0.40926316 -0.62499636 -0.5141946
000140 37 74 2d bf 86 ad 1c bf bf 86 3b 3e fd 60 92 3e
       -0.67755455 -0.61202276 0.1831312 0.2858962
000150 60 45 83 bf 18 df 14 bf 04 70 68 bf cb 3b 1b bf
       -1.0255547 -0.58152914 -0.9079592 -0.6063811
000160 cb 31 1e bf 9b 3b e1 be c8 fa b0 be 78 d3 7e bf
       -0.6179473 -0.43990788 -0.3456633 -0.99541426
000170 26 d9 0b bf 8f f9 d8 be a1 66 72 bf 62 97 2c bf
       -0.5462822 -0.42377898 -0.9468785 -0.6741849
000180 27 a2 4e bf 69 d5 02 bf e9 56 2b 3e 14 74 23 bf
       -0.80716175 -0.5110689 0.16732372 -0.63848996
000190 69 4c 01 3e 84 31 61 be b5 d1 20 bf 38 3e ef be
       0.12626804 -0.21991545 -0.6281999 -0.46727157
0001a0 17 93 37 be 1f f9 6b be 5e 12 3e 3e 8c ff d4 3e
       -0.17927204 -0.23044251 0.18561694 0.41601217
0001b0 f1 85 fd be 19 fb 8f be 8a 9c 38 bf d8 d5 3d bd
       -0.49516252 -0.2812126 -0.7211386 -0.046346515
0001c0 2a cc 0c be e9 cf 82 bf 76 8c 12 3c 35 98 6b bf
       -0.13749757 -1.0219699 0.008944621 -0.92029124
0001d0 4c b3 c1 3d 34 16 de 3e 94 a4 26 bf bf 23 8d be
       0.09458026 0.43376315 -0.65094876 -0.27566335
0001e0 2a 3f a8 be 61 65 9d be 23 85 72 bf 75 18 3a bf
       -0.3286069 -0.30741408 -0.947344 -0.7269357
0001f0 f4 a8 83 be a6 b0 11 be d8 fc e5 be 6b 00 8e 3d
       -0.25714839 -0.14227542 -0.44919467 0.069336735
000200 8f 93 c6 be f9 0d 00 bf f9 38 f1 be 09 b0 27 bf
       -0.38784453 -0.5002132 -0.4711378 -0.65502983
000210 2d 7a 81 be 30 83 1c bf a5 1a 40 bf 7f 2f f1 be
       -0.25288525 -0.61137676 -0.75040656 -0.4710655
000220 4a ce 09 bf ed d3 97 be 92 79 36 bf 21 12 13 bf
       -0.538304 -0.29653874 -0.7127925 -0.5744954
000230 fb 68 5b bf be dc 33 bf 72 ba 0b bf 4f 61 80 bf
       -0.8570706 -0.702587 -0.5458137 -1.0029696
000240 d1 1b 03 bf 2b 8e 39 bf 46 9c 06 3e f0 7e 0e bf
       -0.5121432 -0.72482556 0.13145551 -0.5566244
000250 86 8f 86 be 8f e5 0d 3f 0a d2 7d bd ff 02 27 bf
       -0.26281375 0.55428404 -0.061967887 -0.65238947
000260 9f 03 59 3e f7 df 84 bf 69 e5 04 bf 05 85 f1 be
       0.21192788 -1.0380849 -0.5191255 -0.47171798
000270 39 c0 31 3e 1f 75 10 bf db 97 ae 3d b4 bd 0d bf
       0.17358483 -0.5642871 0.08525058 -0.5536759
000280 aa 76 f1 be 4c 86 c7 be 14 74 c6 be bf 2f f9 be
       -0.47160846 -0.38969648 -0.38760436 -0.4866924
000290 87 5e 4a be 54 fc 3c bf d6 33 13 bf 03 8b 45 bf
       -0.19762622 -0.7382252 -0.5750097 -0.7716524
0002a0 37 d1 47 bd 0a 2c 54 bf 7b 96 1e bf ac d9 65 bc
       -0.048783507 -0.828797 -0.61948365 -0.014028948
0002b0 57 96 0c bf 6c 73 20 bf 6f e0 ca bd 6b f0 b8 be
       -0.549169 -0.6267612 -0.099060886 -0.36120924
0002c0 37 43 6d bf 34 07 3b bf 6e a6 5b 3d a9 69 09 bf
       -0.92680687 -0.73057866 0.053625517 -0.5367685
0002d0 19 57 b5 3e f2 2d a3 be 7d cf 3a bf 27 4b 52 bf
       0.35418013 -0.3187099 -0.7297285 -0.82145923
0002e0 9a ac 31 bf d5 14 8d bd 89 e9 85 3e 87 14 d3 be
       -0.69403994 -0.06888739 0.26154736 -0.412266
0002f0 b5 cc c3 bd 6f f2 66 bf 82 c1 5a bf c9 06 f2 be
       -0.09560529 -0.90213674 -0.8545152 -0.47270802
000300 a5 e8 d8 bd 13 9f 5f bf 5f de ae bf 93 f5 0d bf
       -0.105912484 -0.87352103 -1.3661612 -0.5545284
000310 85 a2 09 bf 1d 7c 05 be 72 02 00 bf 87 f2 5d bf
       -0.5376361 -0.13035627 -0.5000373 -0.8669819
000320 8d ab 38 bf a7 cd 04 3f 2d f0 34 bf 51 3e f9 be
       -0.72136766 0.518763 -0.7067898 -0.48680356
000330 50 82 35 bf dd 66 3e bf d9 54 f1 be 6e 80 01 bf
       -0.70901966 -0.74375707 -0.47135046 -0.50586593
000340 45 26 ef be 7e db 1b be 4c 13 50 be 01 9d 42 bf
       -0.46708885 -0.15220448 -0.20319861 -0.7602082
000350 8f 9f d3 be d4 b8 63 be 31 56 5e be c0 58 f5 be
       -0.4133267 -0.22238475 -0.21712567 -0.47919273
000360 ea 06 4d bf 2a 7d e1 be 51 f0 10 bf 8b 35 38 3c
       -0.80088675 -0.44040805 -0.56616694 0.011243234
000370 c3 d9 20 bf 49 5b 50 be 63 25 3f bf 8a c0 5a bf
       -0.6283228 -0.20347323 -0.7466642 -0.8545004
000380 57 e6 26 bf 44 40 55 bf 03 7d 0b be 18 66 4c bf
       -0.6519522 -0.83301187 -0.13621907 -0.7984328
000390 8c 40 0a bf 38 0e 41 be 57 6f 87 bd 28 57 9c 3b
       -0.5400474 -0.1885308 -0.06613033 0.004771132
0003a0 14 9e b9 bf 0d 81 13 be 58 a5 af be 14 57 9e be
       -1.4501367 -0.14404698 -0.34305835 -0.3092581
0003b0 57 6b 7e be 24 b7 46 bf 35 f0 f9 be 0d b4 6c bf
       -0.24845634 -0.776232 -0.48816076 -0.92462236
0003c0 4f 95 30 bf a7 92 c6 be 99 81 fc be 48 c3 78 bf
       -0.68977827 -0.38783762 -0.49317625 -0.97172976
0003d0 f8 8a a8 bb cd 7f 44 bf 5c 7d d2 be ed c2 81 bf
       -0.0051435195 -0.7675751 -0.41111267 -1.0137612
0003e0 93 54 12 3c a4 c6 4e bf 79 12 8c bf 71 60 1e bf
       0.008931297 -0.8077185 -1.0943137 -0.6186591
0003f0 53 ad 3a be 42 b0 8c be b8 90 3e bf a7 ff 46 bf
       -0.1823018 -0.27478224 -0.74439573 -0.77733845

weight f4 [256, 512]
000000 14 60 b4 bf 5a d2 d7 be e4 bd 9e bf 2d d2 f0 3d
       -1.4091821 -0.42152673 -1.24017 0.11758838
000010 c4 5d 2c be 33 27 e7 be 89 a3 8b bf bd 93 78 3e
       -0.16832644 -0.45147094 -1.0909282 0.24275108
000020 2f 35 fc be 51 23 4d bf 8f 73 d5 bf af 13 b3 3e
       -0.49259326 -0.80132014 -1.6675891 0.34975955
000030 e3 b9 9f be 48 36 ee be eb a3 de 3e 81 c7 f0 be
       -0.31196508 -0.46525788 0.43484434 -0.4702721
000040 6b f3 1f bf 03 4a 0e bf e6 93 84 3f 37 fc f2 bc
       -0.624808 -0.5558168 1.0357635 -0.029661281
000050 89 26 c0 be bd f5 5a be 7a 1a 28 3f 5c 5d 3d bf
       -0.375294 -0.21382804 0.656654 -0.7397058
000060 df 61 44 be 21 c5 07 bf 2c 0f 87 3e 81 8a 01 3f
       -0.1917796 -0.5303517 0.26378763 0.50601965
000070 59 c1 93 bd 66 80 30 be e0 5b b2 be a3 95 24 c0
       -0.072146125 -0.1723648 -0.3483572 -2.571633
000080 6b 50 e2 be 2f ae c7 be 23 65 2b bf 96 2f 7b 3f
       -0.4420198 -0.3900008 -0.669512 0.98119485
000090 65 e4 2a 3e 7c cf 13 3d e2 47 da 3e 2b 20 42 3f
       0.16688688 0.036086544 0.42632967 0.75830334
0000a0 d3 0d 86 bf ce 3c 1b 3e 6d 67 a7 3e 53 45 07 bd
       -1.0472969 0.15159914 0.32696095 -0.033025097
0000b0 9b bc 26 3f 59 7e 69 c0 b6 4f 7a 3f 83 97 10 40
       0.6513154 -3.6483366 0.9777788 2.2592475
0000c0 54 6f a0 3e 47 23 7b 3d 3c 41 26 3d 07 72 da 3e
       0.31334937 0.06131294 0.040589556 0.4266512
0000d0 6d 23 3e 3e 19 97 bc be 9a ef cf 3d df 2a 86 3f
       0.18568201 -0.36834028 0.10153122 1.0481833
0000e0 93 cc d0 3e 63 c2 54 3f 34 03 15 bf 6a 61 5d 3f
       0.40781078 0.8310911 -0.5820801 0.8647677
0000f0 bc 30 15 3f c3 47 82 be 88 38 1d bf 72 ed cb bf
       0.5827749 -0.25445375 -0.61414385 -1.5931838
000100 1d 28 03 be 0f b1 97 3f 88 86 15 bf f1 04 1d 3f
       -0.12808271 1.1850909 -0.58408403 0.61335665
000110 25 44 29 bf 5c 17 5a be 89 f4 fe be cb c7 a7 3e
       -0.66119605 -0.21297973 -0.4979594 0.32769617
000120 74 d2 f7 3e 5d 33 7f bf b1 63 43 3e 86 9e a1 3e
       0.4840275 -0.9968775 0.19080998 0.31566256
000130 69 dc a4 3e 7f c2 87 be fa 8d dd be 4a 61 29 3d
       0.3219941 -0.26515576 -0.43272382 0.041352548
000140 2f 25 61 3e 22 d9 26 3f d3 be 1a 3f fe 89 de be
       0.2198684 0.6517507 0.60447425 -0.43464655
000150 d9 ca 78 be 7e 1d 78 3c 8b b2 3b bd cf 83 82 be
       -0.2429613 0.01514375 -0.04582457 -0.25491187
000160 b0 79 25 be b6 cd 84 bf 7b db b6 3f 2e 1f 16 bf
       -0.16159701 -1.0375278 1.428573 -0.58641326
000170 f8 ff 1a bf 05 20 3b 3f 74 84 5c be 93 10 51 be
       -0.6054683 0.7309573 -0.21534902 -0.20416479
000180 3e d3 c0 3e 63 e7 08 3f eb bc fe bd 02 48 c5 be
       0.37661165 0.5347807 -0.12438377 -0.385315
000190 bd 73 30 bf e9 71 a9 bf ee c8 84 3e 3e 83 43 bf
       -0.689266 -1.3237888 0.25934547 -0.76372135
0001a0 90 e7 ae bf 41 45 b4 3d 88 8b 36 3d 99 96 aa be
       -1.3664417 0.08802272 0.04456666 -0.33318022
0001b0 8b bb a2 3f ae d1 77 3d 50 5f be bf a8 3c f2 be
       1.2713484 0.0605027 -1.4872837 -0.47311902
0001c0 d3 3e ba 3d 87 6c 2b bf e4 20 94 3e 5f 31 49 3d
       0.09094014 -0.66962475 0.28931344 0.04911935
0001d0 21 4c 01 3f ca 85 3b 3f ad 45 11 3e ef f4 8f 3d
       0.5050679 0.7325102 0.14186735 0.07029139
0001e0 18 08 91 3e c7 ff c4 be 78 ee 39 bf 9d 5f 7a bf
       0.28326488 -0.38476393 -0.726295 -0.97802144
0001f0 23 c8 92 3e 2f 78 2c 3f 7d 6a 80 3e b3 89 f1 3d
       0.28668317 0.67370886 0.25081244 0.11793842
000200 ca bb 87 3e aa 94 96 3d 5a ad 37 3e 35 77 53 3e
       0.2651046 0.07352574 0.17937222 0.20650943
000210 73 61 f3 bd 1a 1e 27 be f0 58 f9 3d d4 b2 b1 3e
       -0.11883821 -0.16320077 0.121751666 0.34706748
000220 63 22 4b 3f 8b a6 b1 bf f5 6c 3d 3f 0c 51 22 3f
       0.79349345 -1.387895 0.7399438 0.6340492
000230 58 e8 20 3e 30 0e 05 bf 8d 63 ac be b6 ca 8a bf
       0.15713632 -0.51974773 -0.336697 -1.0843112
000240 a0 6c bf bd 40 8e 63 be 89 50 b4 bf 90 4d 46 bd
       -0.093468904 -0.22222233 -1.4087077 -0.048413813
000250 10 58 4e bf f2 f9 17 3f fd d2 92 3d f2 bc 16 3e
       -0.8060312 0.5936576 0.07169149 0.14720514
000260 ce af 63 be ef 32 90 bf bf 1d 84 3f 11 cb b8 bc
       -0.22235033 -1.1265544 1.0321578 -0.022557767
000270 16 0d f3 bf 19 83 4e 3e 8e 86 74 3f 01 40 54 bf
       -1.8988369 0.20167197 0.95517814 -0.8291016
000280 77 cb 76 bf 9d 24 f5 be 30 e6 52 bf 6f 2c 75 bf
       -0.9640421 -0.47879496 -0.8238249 -0.95770925
000290 9f 09 47 bd 7b e9 07 bf ef e1 36 3f 86 ea 83 bf
       -0.04859316 -0.5309064 0.714385 -1.0305946
0002a0 34 6c 0a c0 8f e1 31 bd 5b c7 08 bc 6a 28 12 3f
       -2.1628542 -0.043428 -0.008348311 0.57092917
0002b0 5b 27 26 3f 3b f4 da 3e de ed ea 3d d9 83 c7 be
       0.649038 0.42764458 0.11471151 -0.3896778
0002c0 43 38 03 3f a0 69 1c be 5d 42 4d 3e ca 01 05 3d
       0.51257724 -0.15274668 0.20044847 0.03247241
0002d0 b3 d1 26 bf 90 60 00 3e 33 6f e0 3d bf d9 c0 be
       -0.65163726 0.12536836 0.109587096 -0.37666127
0002e0 34 11 45 bf 83 58 6b bf 68 d6 ac 3e b7 db 4c be
       -0.76979375 -0.91931933 0.3375733 -0.2000569
0002f0 1b a8 16 be d2 d2 64 3f 42 05 68 be a5 df 6b 3f
       -0.14712565 0.89384186 -0.22658256 0.9213813
000300 3b 94 1d bf c4 0d 45 3e 16 39 8c bf 45 4b 5e be
       -0.61554307 0.19243532 -1.0954921 -0.217084
000310 33 4c c8 be c7 e1 35 3f 05 22 70 be 7d 34 35 be
       -0.39120635 0.71047634 -0.23450477 -0.17695804
000320 78 cc 40 bf 15 9a 83 3f fb 45 91 3e ac 19 ec 3e
       -0.75311995 1.0281397 0.28373703 0.46113336
000330 64 cb 18 3e 07 ff 62 bd d1 71 ff 3d 22 05 82 3e
       0.14921337 -0.055418994 0.12472881 0.2539454
000340 f7 75 12 3f ec 7c b0 be bc 8f 39 bf 28 01 e1 3d
       0.5721125 -0.34470308 -0.72484946 0.10986549
000350 8a a3 78 3f 70 f0 0b 3e a5 14 ee 3e 1d f4 29 be
       0.9712454 0.13665938 0.46500126 -0.16597028
000360 45 d1 7e 3f c1 aa a0 3d 63 f3 8e bf d2 53 08 c0
       0.9953807 0.07845069 -1.1168026 -2.130116
000370 0b 31 f9 be 9f 72 4e bd d8 a2 fa 3e 97 27 05 bf
       -0.4867023 -0.05040228 0.48952365 -0.52013534
000380 19 4c ed 3e bc bd 83 be 1a 84 07 bf 3a b4 d9 be
       0.4634712 -0.25730693 -0.52935946 -0.42520314
000390 d4 b3 58 3f ba b0 13 3f e3 ee 3c bf 8b ac 5d bf
       0.84649396 0.5769154 -0.7380201 -0.86591405
0003a0 2c c1 00 c0 b4 0d cf be 35 42 90 3e bb 27 2e c0
       -2.0117903 -0.40440142 0.28175512 -2.721175
0003b0 9e 4e a0 3e 51 17 6b 3e 62 7c d3 be 5b a0 fd be
       0.3130998 0.22958113 -0.41305834 -0.49536404
0003c0 f3 c7 e1 be 08 ed 93 bd d5 d2 ab be a4 cd 3a bf
       -0.44097862 -0.072229445 -0.3355929 -0.7297003
0003d0 28 00 29 3f 5f db af be ae 4c 0a be cf 7e 8e 3e
       0.66015863 -0.34347054 -0.13505813 0.27831122
0003e0 14 61 9b be fe a0 34 bf 74 74 ea 3c 55 38 1d bf
       -0.30347502 -0.70558155 0.028619982 -0.6141408
0003f0 2c 03 39 bf 8d 9e 9c bd 82 5a d2 3d 2b c5 73 be
       -0.72270465 -0.07647429 0.10271169 -0.23805682

bias f4 [256]
000000 ef ff 7f 3e 3d 24 a9 bc 5c bc d0 be ee 32 e2 bc
       0.24999975 -0.020647163 -0.40768707 -0.027612176
000010 86 be a3 be e1 e7 97 be b0 82 99 3e 5d 60 1c bc
       -0.31981295 -0.29669097 0.2998252 -0.009544459
000020 68 ef 84 bd ce a1 8c be 09 09 73 3e b0 d3 c9 be
       -0.064909756 -0.27467197 0.23733915 -0.39419317
000030 6e 21 92 bd b1 ba 24 3e 88 48 68 be 5e 5f 16 3d
       -0.071352825 0.16086842 -0.22683918 0.036712043
000040 65 2e 82 3e db 38 0b be 8d 71 d7 bc a4 f0 21 bd
       0.2542602 -0.13595907 -0.026299262 -0.039536133
000050 a1 99 a8 3d bd 02 80 bd ef fa 75 bc 74 f8 0c bd
       0.082324274 -0.06250522 -0.0150134405 -0.03441663
000060 7c 2c 78 bd ee cb 95 3e 21 1e 66 bd b9 2a 6b be
       -0.0605893 0.29257149 -0.056181077 -0.22965516
000070 83 e4 b2 3b 4a 22 aa bd 67 33 12 bb 67 67 31 bd
       0.0054593696 -0.08307321 -0.002230847 -0.043311503
000080 8c 85 a7 bd 12 dd ad be 68 c6 30 bf bd c6 1b 3f
       -0.08179769 -0.33957726 -0.69052744 0.60850126
000090 f9 bd 91 be ae 49 06 3d 24 12 06 3f 0a d9 d5 be
       -0.2846525 0.03278511 0.5237143 -0.4176715
0000a0 a3 d4 ac 3e 30 0a f1 be c5 06 d7 bd c8 ea a8 bc
       0.3375598 -0.47078085 -0.10499338 -0.020619765
0000b0 74 04 9c bd 77 c6 5a bb fb fb 87 bd 8c 18 22 3e
       -0.07618037 -0.0033382454 -0.06639858 0.15829676
0000c0 da 59 95 bd 63 8d c5 3e b8 91 c8 bb af b9 74 3e
       -0.072925285 0.38584432 -0.0061208867 0.23898958
0000d0 e4 d1 d6 3e 25 bb 46 3a 7a c2 e8 bd d1 92 c2 3e
       0.4195701 0.00075809873 -0.113652185 0.38002637
0000e0 54 ad 00 bb af ae 90 bd 4b 53 d3 bd b5 7c 96 3d
       -0.0019634562 -0.07064568 -0.10318621 0.07348005
0000f0 ff 7c 30 bd 2c 5a 3b bd f4 1e d6 be a7 ae f4 bd
       -0.043087956 -0.04574029 -0.4182049 -0.11947375
000100 96 7b 47 bc b5 ba 96 bd 50 7e a7 be cc 25 86 bd
       -0.012175461 -0.0735983 -0.32713556 -0.06550178
000110 90 46 24 be f4 5e a1 3c 42 f6 0a bd b6 d5 8d bd
       -0.16042542 0.019698597 -0.033926256 -0.06925528
000120 76 20 c6 be ee 9a 89 b9 33 35 44 bd 94 fa b9 bd
       -0.3869664 -0.00026246108 -0.047902297 -0.09080997
000130 3e 32 8e 3e f0 1c ce be 36 44 e2 be 85 d7 64 be
       0.27772707 -0.40256453 -0.44192666 -0.22347839
000140 6f 97 1e 3c 26 dd 16 be 65 35 c7 bd 0c 63 d5 bd
       0.009679659 -0.14732799 -0.09726981 -0.10419282
000150 f3 71 1f 3e e1 91 b7 bd af 49 90 be e0 bf a3 be
       0.15570812 -0.08963371 -0.28181216 -0.31982327
000160 35 bf 41 bd 06 67 66 bd c9 b6 0b bd ae a6 8a bd
       -0.04730149 -0.056250595 -0.034109864 -0.06770073
000170 f6 bf 24 3d 41 13 4c bd ac aa 7e bd 20 69 fc bd
       0.04022213 -0.04982305 -0.062174484 -0.123247385
000180 6e 71 0f be c2 55 70 be 31 9a 51 bd cc e5 cb 3d
       -0.14008114 -0.23470214 -0.05117244 0.0995594
000190 50 2b 7b bd 10 5b 96 be 99 e2 9e bc 08 af a0 be
       -0.061320603 -0.2936635 -0.01939516 -0.31383538
0001a0 55 35 32 3e f7 6c 0e bf 8d 35 d6 bd c5 33 0a bd
       0.17403157 -0.5563502 -0.10459433 -0.033740778
0001b0 b1 04 84 bd a8 18 16 bf 7a a3 86 bd 88 8f 74 bd
       -0.06446207 -0.5863137 -0.065741494 -0.059707195
0001c0 0a 43 14 be 48 a1 2d be 83 08 8a bb 30 00 ae bc
       -0.14478698 -0.16956055 -0.0042124405 -0.021240324
0001d0 4e c9 66 3e bf 06 80 bd 97 8a 80 bd 8b 50 d6 3e
       0.22537729 -0.06251287 -0.06276434 0.41858324
0001e0 ee 0e 63 bd 9d a0 40 be e4 54 d8 bd ac 2e 94 bd
       -0.05543416 -0.18811269 -0.105630666 -0.072354645
0001f0 ab 56 8f be ce ab 28 3f 2f 98 d5 be 9f c1 a8 be
       -0.2799581 0.65887153 -0.4171767 -0.3296022
000200 f2 9f 3a be c2 40 15 bf ea 46 a0 3e 2c cf ba 3e
       -0.18225077 -0.5830194 0.31304103 0.36486185
000210 98 10 21 bd 35 59 3e bd 8d 7c 8a bb 5e 5a a7 3e
       -0.039322466 -0.046471793 -0.0042262734 0.32686132
000220 a8 e4 50 bd 6d 15 ca bd 24 da 75 bd 42 98 a5 be
       -0.050999314 -0.09867368 -0.06002249 -0.32342726
000230 56 37 c4 bd ee 94 a3 be 02 51 f7 be 45 31 be bd
       -0.09580867 -0.31949562 -0.48303992 -0.09286741
000240 03 c7 8f bd 74 f0 44 bd b5 62 f8 bb fd 9b c5 3b
       -0.0702038 -0.048080876 -0.007580126 0.006030558
000250 d2 a8 85 bc 0d 52 00 bc 43 b3 7b bd d6 e7 b9 3e
       -0.016315851 -0.007832062 -0.061450254 0.3630969
000260 3a 01 78 bc 3e ce 27 3e 4e f4 57 be 56 22 79 be
       -0.015137011 0.16387269 -0.21089289 -0.24329504
000270 e7 4f 80 3e 71 98 97 bd 88 85 68 bc 4e fe 5a bd
       0.2506096 -0.07402123 -0.014191993 -0.05346518
000280 20 0d 0f bd a7 ce 85 bd 69 fb 37 be d5 3f 0e bd
       -0.034924626 -0.065335564 -0.17966999 -0.034728844
000290 16 0b 40 bd d0 2a 6e be 55 96 92 bd da 30 ae 3e
       -0.046885572 -0.23258519 -0.0715758 0.34021646
0002a0 2b b5 68 be 38 d3 ab be a6 53 72 bc 02 75 91 3d
       -0.2272536 -0.33559585 -0.014790451 0.071023956
0002b0 df c6 14 3e cc 4e f3 bc 04 c5 fa bc 27 35 9f bd
       0.14528988 -0.02970066 -0.030611522 -0.0777381
0002c0 e5 48 6b bd aa f7 63 bd f1 ce 0a bd 73 6b df bd
       -0.057442565 -0.055656113 -0.03388876 -0.10909166
0002d0 a2 b8 1a be 1f e2 ae bc 2f df 36 bd 85 9c 4b be
       -0.15109494 -0.021348057 -0.04464644 -0.19883926
0002e0 c9 68 bd be 7d 86 f0 be ff 7b a7 be d9 8f 4e bc
       -0.36994007 -0.46977606 -0.3271179 -0.012607538
0002f0 eb 81 9c 3e 72 87 af be 42 8c d6 3e ea 6a 83 39
       0.3056787 -0.34283024 0.41903883 0.00025065924
000300 f1 03 cb bc 39 a4 8d bc d7 38 b5 b9 79 bb 4c bd
       -0.024782153 -0.017290222 -0.0003456536 -0.049983475
000310 cb 6c 02 bd 65 fd b5 be 5d 58 ab ba 47 e2 87 bd
       -0.031842034 -0.35544887 -0.0013072599 -0.06634956
000320 e2 22 1a bd ce e7 df be d7 ee 91 bd 30 81 98 3c
       -0.037630923 -0.4373154 -0.07125633 0.018616289
000330 11 b3 c3 bd 1c 62 1b bd de 51 8f bd 25 ac a3 be
       -0.095556386 -0.03793536 -0.06998037 -0.31967273
000340 aa 44 56 bc 58 2f 8b bd f4 d0 88 be d7 6b 75 be
       -0.013077894 -0.067961395 -0.2672192 -0.23966919
000350 3b 94 0b bd 00 af cf be b7 38 25 bb cf 64 87 be
       -0.03407691 -0.40563202 -0.0025210807 -0.26444098
000360 a9 b7 2e be 8c e8 6f bd 67 15 d5 3d f2 ee 20 bd
       -0.17062248 -0.058571383 0.10404473 -0.039290376
000370 66 1c b9 bd 5a 23 33 3f 11 40 76 be 4b ba 73 bd
       -0.0903862 0.6997582 -0.24047877 -0.059503835
000380 0f a6 5d be 40 1e 92 bd 4b e2 81 bd 0d ab c4 bd
       -0.21645378 -0.07134676 -0.0634199 -0.09602938
000390 71 34 e2 bc 55 79 30 bd 01 cc 2a be f7 9a 27 3f
       -0.027612897 -0.04308446 -0.16679384 0.6547083
0003a0 68 e2 ad bd e2 d7 2b be 59 e6 66 3e 29 ff 47 bd
       -0.08490449 -0.16781572 0.22548808 -0.048827324
0003b0 5b 39 8c 3c c0 7a dc bc 85 58 dd bc a8 44 25 bf
       0.017117193 -0.026914 -0.027019748 -0.64557886
0003c0 be 12 44 bd 27 15 2d bc f1 5d 24 3e df 58 fc 3e
       -0.047869436 -0.010564125 0.16051461 0.49286553
0003d0 c8 69 ee 3a 29 95 a8 bb 25 5c 75 be b9 91 8a be
       0.0018189484 -0.0051447344 -0.23960932 -0.27064303
0003e0 5a 0c 13 3e db 6b 44 bd ea 53 6f bd e5 95 86 be
       0.1436018 -0.04795442 -0.058429636 -0.26286235
0003f0 18 a8 48 bd 14 42 55 be 91 df ca be a2 57 89 bd
       -0.04898843 -0.20825988 -0.39623693 -0.06706168

weight f4 [4, 256]
000000 32 d7 72 bd d5 12 0c bb 76 cf 4b bf 78 a7 49 bc
       -0.059287257 -0.002137353 -0.79613435 -0.012307994
000010 75 cc b9 3e 42 b2 c3 be 07 d3 10 bf 97 fb da 3d
       0.362888 -0.38221937 -0.56572 0.10692518
000020 87 55 ff 3c 5d 3a e7 bd 62 6b 77 bf f4 e7 af 3e
       0.031168712 -0.11290429 -0.9664823 0.34356654
000030 46 8e 61 bd 5b b4 e6 3c 93 4a 8c bd 28 91 28 bf
       -0.055067323 0.028162172 -0.068501614 -0.6584649
000040 e9 7d 14 bf 35 3a 56 bc 35 9a 4a bc 58 11 80 3d
       -0.58004624 -0.013075401 -0.012365867 0.06253308
000050 fb f7 50 3f bc 56 ce 3c 0d c1 1f bf a8 0a 17 3b
       0.8162839 0.025187843 -0.6240395 0.0023047123
000060 28 51 50 3d de 49 19 bf 82 17 32 3b 89 24 98 3d
       0.050858647 -0.5987834 0.0027174656 0.074288435
000070 90 82 3a bc 33 19 fa bc 34 94 57 3d 72 6f 3d bd
       -0.011383668 -0.030529594 0.052631572 -0.04624886
000080 29 77 d2 bc c0 32 5b 3f 16 4c 8e 3f bf ee 34 be
       -0.025691586 0.85624313 1.111697 -0.176692
000090 a3 ad 48 bf c0 02 78 3f a3 27 44 bf bb 1d fd be
       -0.7838995 0.96879196 -0.7662298 -0.49436745
0000a0 84 10 bd be 16 6e 03 3f 97 6e 97 3e 66 17 7e bd
       -0.36926663 0.5133985 0.2957656 -0.062034033
0000b0 5c af 3b 3d 58 7f 3a 3d ac 1f 33 bd 9c 17 1a 3f
       0.045821533 0.0455316 -0.043731377 0.60192275
0000c0 0f 7f e2 bc 25 eb 89 3f 2c 87 15 bc f4 d2 3e 3f
       -0.027648477 1.0774885 -0.009126466 0.7454064
0000d0 48 cd be 3f bf 02 42 bd 4c eb de 3c 8d ad 3a 3f
       1.4906397 -0.0473659 0.027211808 0.7292107
0000e0 5d 95 4a bd 30 a9 1b be 6b 54 4b be bd 1e 8f 3f
       -0.04945885 -0.15201259 -0.19856422 1.1181256
0000f0 9b 1a d5 3b 7c 3c 7c bc 03 d7 5d 3f 25 e2 c9 3e
       0.0065034158 -0.01539528 0.86656207 0.39430347
000100 d2 d7 77 3d 70 fc 34 3c d1 57 a5 bf 8c 71 fb be
       0.060508557 0.011046514 -1.2917424 -0.49110067
000110 48 64 1e 3f 7c e3 1f bd 62 82 48 bc 9c a6 20 3d
       0.6187177 -0.039035305 -0.012238117 0.03922139
000120 ae 96 ba 3d 6a d4 d6 3c 50 d2 c5 3c e9 34 b8 3e
       0.09110771 0.026224334 0.024148136 0.35977867
000130 22 2e bb bd 80 d8 35 bf ad 7c 91 be eb ce 96 3e
       -0.091396585 -0.7103348 -0.28415433 0.2945474
000140 c6 58 5b 3d a4 43 1b 3f 7f 94 19 3f b7 6b 37 bc
       0.053551458 0.60650086 0.5999221 -0.011195115
000150 36 e9 67 3f c6 66 0b bc 16 b2 47 bc e5 22 e2 3e
       0.90590227 -0.00850839 -0.012188455 0.44167247
000160 3e 5c 47 bd 97 27 83 bd ea 0e 54 3d a3 5e 65 3e
       -0.048671953 -0.064040355 0.051772036 0.22399382
000170 7e c6 34 3f c3 e0 83 3e 76 20 2f 3c f2 af 8a 3e
       0.70615375 0.25757417 0.010688892 0.2708736
000180 8c d2 22 3e 97 56 37 3f 69 fc 65 bb 77 42 9f 3e
       0.1590063 0.716165 -0.0035093075 0.31105396
000190 a7 cd b3 bc 02 51 7c 3f 02 23 79 3d 9e 07 ce be
       -0.021948649 0.9856111 0.0608244 -0.40240186
0001a0 2d f0 5b bf 30 ee 4c bc 73 fb 75 3f 5c 3f cb 3c
       -0.85913354 -0.01250796 0.96086806 0.024810486
0001b0 dc e4 06 3d e8 9f 3d 3f 13 5b d4 bc f3 dc 2b 3f
       0.0329331 0.7407212 -0.025922334 0.67134017
0001c0 4b d2 d5 3e 79 ba 46 3e 3b 40 51 bd d0 57 24 3d
       0.41762003 0.19407071 -0.051086646 0.040122807
0001d0 35 d3 54 bf e6 10 1e bd 18 b0 66 bc 46 7d a7 bf
       -0.83134776 -0.038590334 -0.01408007 -1.3085105
0001e0 c1 b5 8f bd 01 fe 76 3e bb 2a fa bd 73 4f 8c 3d
       -0.07017089 0.24120332 -0.122151814 0.06851091
0001f0 11 19 f8 3e c0 ff 2e bf cc 35 6b 3f 32 f2 b3 3e
       0.48456624 -0.68358994 0.9187896 0.35145718
000200 61 c3 59 3f 7d 74 9b 3e 4b d0 25 bf 45 13 c8 be
       0.8506375 0.3036231 -0.64770955 -0.390772
000210 96 ba 8a 3b a6 4d 0d 3d f5 fa 17 bf e2 4f 60 3f
       0.0042336686 0.03449788 -0.59367305 0.8762189
000220 bf cd 9b bd b6 9e 26 3d 53 24 fa bb 1c 8d 26 3f
       -0.07607602 0.040678702 -0.0076337247 0.65059066
000230 a6 ff 30 bc a1 3d df 3e fc 54 82 be e5 ea 97 3e
       -0.010803139 0.43601707 -0.25455463 0.29671398
000240 0a cb 62 3c 90 54 0d bd ff 60 88 3c 24 a1 7c 3c
       0.013842354 -0.034504473 0.016647814 0.015419278
000250 bc e3 9d bc fd 96 53 bb 0d 5b 72 bc d4 2a 17 3f
       -0.019273631 -0.003228604 -0.014792216 0.59049726
000260 58 da 2a 3b 19 c9 8b be 5c 4b 87 3e 23 3b 34 3d
       0.0026070084 -0.27301863 0.26424682 0.04400171
000270 bf fe b4 be f2 00 6a 3d 04 f0 be 3f 1e aa c9 3c
       -0.35350606 0.057129808 1.4916997 0.024617251
000280 ea 80 b5 ba 68 62 52 bd 52 ac 76 bd df 43 8b 3b
       -0.0013847623 -0.05136338 -0.06022293 0.004250034
000290 ce 82 94 3c c9 47 a8 bf 5e 56 c7 3d de 2a 11 bf
       0.018128779 -1.3146907 0.0973327 -0.56706035
0002a0 ab a8 00 bd 62 5b ad be 97 19 d1 3b 7b 58 14 3f
       -0.031410854 -0.33858782 0.0063812244 0.5794751
0002b0 1e c4 ab be 65 46 3d bc d5 74 ae 3e e9 d6 ad 3d
       -0.33548063 -0.011552428 0.3407351 0.084882565
0002c0 25 5a 52 3c a7 19 0a 3d e9 81 7e bc 6a 2d b0 3e
       0.012838875 0.03371587 -0.015533903 0.34409648
0002d0 a9 de 08 bf 28 db 16 3d 35 17 bb 3a 00 fa 0a 3e
       -0.5346475 0.036830097 0.0014273884 0.1357193
0002e0 23 a7 c6 be 4f d6 ed be c2 3a 0f 3f 79 d1 e3 3c
       -0.3879939 -0.46452567 0.5594903 0.027809845
0002f0 99 f1 7d 3f bb c1 ee 3d 18 9c 88 be b8 7f de 3c
       0.99196774 0.11658045 -0.2668159 0.02716051
000300 16 f3 5e 3c fc 59 6a bc 5f ac 91 bc b4 f3 ab bc
       0.013607761 -0.0143036805 -0.017782388 -0.02099023
000310 ce 88 ab 3c e6 9a e6 be 9e 0c 13 3d ff 23 2c 3f
       0.020939257 -0.45040053 0.035900705 0.67242426
000320 5e 05 53 3d 91 71 59 3e 37 d1 c6 bc 66 fa 78 3d
       0.05151879 0.21234728 -0.024269683 0.060785674
000330 17 ba 76 3e f8 75 2c bd ef a6 56 3f 9e 6f 32 3e
       0.24094425 -0.04210469 0.8384847 0.17425391
000340 4f 50 12 3f af 89 86 3c 81 0b f4 bc 17 1f 2d bf
       0.5715379 0.016423075 -0.029790642 -0.67625564
000350 b4 63 55 bd f6 9b 7b bf f0 0e 52 bf 2c 63 10 3d
       -0.052097037 -0.9828485 -0.8205404 0.035250828
000360 f6 fa 69 3f f9 98 f8 3c 0a e6 a7 bd 78 0c 95 3e
       0.9139856 0.03034638 -0.08198173 0.29111075
000370 6f d8 ad bd ca 9c be 3f 76 c1 43 3e c7 56 90 bc
       -0.08488547 1.4891598 0.19116768 -0.017619504
000380 30 45 31 3e df 7d d6 3a 5c 0c 31 bd 50 49 4a 3f
       0.17311549 0.0016364417 -0.043224677 0.79018116
000390 3b 1b 4b 3d c7 21 0c bc f1 ad 2d 3f 09 4d a2 3f
       0.049586516 -0.008552975 0.6784354 1.2679759
0003a0 d9 d6 7f bd f9 d0 5a bd c9 23 78 3e 8b 53 cb 3b
       -0.062460754 -0.053421948 0.24232401 0.0062050275
0003b0 ec ec 41 bf 30 d0 ac be f3 26 e3 bb c7 4b f9 3e
       -0.7575214 -0.33752584 -0.0069321333 0.48690626
0003c0 f8 9d e0 ba c6 e1 65 bd 1a 29 de 3e ac 52 94 3f
       -0.0017136922 -0.056123517 0.43390733 1.158773
0003d0 d4 0f 0c 3f 6e c4 05 3d 33 b3 1a bf 95 06 2b 3c
       0.5471165 0.032658033 -0.60429686 0.010438581
0003e0 97 35 d0 be 42 93 5b bd e3 16 05 bd 02 eb 40 ba
       -0.40665886 -0.053607233 -0.03249253 -0.00073592376
0003f0 5a ed a6 3e 43 33 e5 3e a2 94 91 be 3f a8 03 bd
       0.3260296 0.44765672 -0.2843371 -0.032142874

bias f4 [4]
000000 14 70 97 bf 3a 16 9d bf 48 fd 7f 3e ee 5f c7 be
       -1.1831079 -1.2272408 0.24998963 -0.38940376
