models/dqn_half.pt (torch, 551762 bytes, 6 tensors)

weight f4 [512, 8]
0.15438995 0.022894768 0.46292546 -0.08876905 -0.5552768 -0.24037008 -0.09738452 0.19660021
-0.44762346 0.05684238 -0.64290065 0.09126259 0.055693835 -0.29799116 0.08199007 0.0060718413
-0.0884316 -0.076166205 -0.11196499 -0.37455556 -0.1298674 -0.41111663 -0.5401603 0.2923441
0.21764565 0.10667127 0.5310373 -0.47227082 0.59306985 -0.18747258 -0.3276518 -0.07802829
0.02397819 -0.09107162 0.26561338 -0.38890544 0.18016332 0.15408137 0.18997683 0.33203343
-0.302646 0.23809215 -0.09376935 -0.08697409 0.10603083 0.22190757 0.07763512 0.2782025
-0.035318673 -0.2777764 -0.15659246 -0.3593109 0.5094792 0.06732164 0.15497336 -0.23080923
-0.116901405 -0.22934513 0.16334139 -0.42807096 -0.36768398 -0.37214774 -0.31115475 0.0041629947
0.0012711381 0.03991682 -0.14040476 -0.4789018 0.49726716 0.13740931 -0.3544382 -0.43063834
0.04462137 -0.19152918 0.30801538 -0.34052202 0.14576107 0.19489262 -0.06254939 -0.01645158
-0.04034885 -0.09447368 -0.20010045 -0.14864622 -0.4839558 0.33228853 -0.196681 -0.056092504
-0.2190476 0.16532496 -0.16885659 -0.0045288545 -0.034353994 -0.15733825 0.1935016 0.35830253
0.17017137 0.07704152 -0.23447469 0.39500147 0.3423771 0.3222684 -0.27388343 -0.12733193
0.43291628 -0.01738105 0.052593276 0.35505357 -0.56894207 -0.010382472 -0.63004315 0.028876673
0.11802438 0.020133154 0.44144315 0.10442291 -0.20634109 0.15158519 -0.3325125 0.34540528
-0.06870085 -0.25594044 -0.17214856 -0.42713466 0.076357216 0.60936326 0.08112747 -0.66540647
-0.2918916 -0.0055915345 0.35899013 -0.2781515 0.026649494 -0.03126309 -0.38662452 -0.23330787
0.22239034 0.35191366 0.092329144 0.24206187 0.098048255 -0.35036653 -0.49706358 0.082442135
0.40376788 0.04827046 -0.03645778 0.09942425 -0.18048759 -0.36616474 0.19448936 0.02844335
0.25025043 -0.12284816 -0.14760356 0.10823471 0.45180362 0.46005753 0.23591122 0.028195294
-0.0021057443 -0.16424218 -0.38574746 -0.292494 0.35577425 0.09944595 0.040156756 -0.2711002
-0.07723607 0.31608698 0.34882 0.060778547 0.11500802 -0.008284823 -0.28253534 0.20730346
-0.06548788 0.05405088 0.029232277 0.2296625 1.156442 -0.053949747 0.13718243 0.34548488
-0.010047504 0.027956236 9.344099e-05 0.050612047 -1.1077626 0.06151922 0.36424217 0.072523445
0.01455625 0.13149078 -0.32309023 0.76837945 0.08511135 -0.37963778 -0.14361835 -0.3253282
-0.399252 -0.20084308 -0.24831875 -0.024324398 0.70285356 -0.033601258 -0.028169533 0.24392647
0.01842169 0.054675635 -0.009962353 -0.29203764 0.010004349 0.12875232 0.37420595 0.22756171
0.09990978 -0.18629104 0.216671 0.07334004 -0.17744185 -0.58695555 0.0395331 -0.37459365
-0.12959455 0.18228042 -0.7474465 -0.38730738 0.16462107 -0.041255414 -0.12756087 0.3476184
0.08398054 0.36504984 -0.08380457 -0.4172718 -0.04903336 -0.058234576 -0.24885644 -0.26748022
0.2170003 0.24579833 -0.36970183 -0.31084165 0.35381263 -0.395441 -0.27674577 -0.07922923
0.015963048 0.17348754 -0.101467155 -0.3563697 -0.46004152 -0.2286553 0.0887978 -0.24791853
00000000: 6618 1e3e cf8d bb3c 9104 ed3e 8ccc b5bd
00000010: 9f26 0ebf 9323 76be 8971 c7bd 9151 493e
00000020: e72e e5be 8ed3 683d 2395 24bf e1e7 ba3d
00000030: 381f 643d 4c92 98be 69ea a73d 4cf6 c63b
00000040: a01b b5bd 07fd 9bbd e74d e5bd bfc5 bfbe
00000050: f6fb 04be e17d d2be f247 0abf 20ae 953e
00000060: 80de 5e3e 7876 da3d 0ff2 073f 7bcd f1be
00000070: 6dd3 173f d0f8 3fbe fac1 a7be 4ccd 9fbd
00000080: e96d c43c c283 babd 7afe 873e 9d1e c7be
00000090: bc7c 383e 82c7 1d3e 4989 423e 4900 aa3e
000000a0: 6bf4 9abe 6ece 733e 250a c0bd 791f b2bd
000000b0: b126 d93d bd3b 633e 29ff 9e3d 8f70 8e3e
000000c0: 50aa 10bd b538 8ebe c659 20be 99f7 b7be
000000d0: 3b6d 023f eedf 893d 56b1 1e3e 4159 6cbe
000000e0: 016a efbd 73d9 6abe f742 273e 1e2c dbbe
000000f0: 1341 bcbe 268a bebe ad4f 9fbe bb69 883b
00000100: 519c a63a d27f 233d 44c6 0fbe 9e32 f5be
00000110: cd99 fe3e 07b5 0c3e ec78 b5be a17c dcbe
00000120: e6c4 363d 3a20 44be 31b4 9d3e e758 aebe
00000130: 6442 153e ee91 473e e519 80bd 77c5 86bc
00000140: d644 25bd 6b7b c1bd 22e7 4cbe b736 18be
00000150: 0ec9 f7be b921 aa3e be66 49be 41c1 65bd
00000160: 044e 60be f24a 293e bee8 2cbe c966 94bb
00000170: c6b6 0cbd 471d 21be 4925 463e 6e73 b73e
00000180: 6741 2e3e f2c7 9d3d 221a 70be a23d ca3e
00000190: 0d4c af3e 5d00 a53e 733a 8cbe 4d63 02be
000001a0: 34a7 dd3e b462 8ebc 0c6c 573d 95c9 b53e
000001b0: 30a6 11bf 3e1b 2abc 824a 21bf c68e ec3c
000001c0: c4b6 f13d 49ee a43c d604 e23e aedb d53d
000001d0: 144b 53be 2639 1b3e 143f aabe f6d8 b03e
000001e0: 08b3 8cbd a00a 83be b647 30be 65b1 dabe
000001f0: 2c61 9c3d 3bff 1b3f 2926 a63d 1458 2abf
00000200: d172 95be 3139 b7bb 8ecd b73e e069 8ebe
00000210: 0a50 da3c ba0d 00bd a6f3 c5be 42e8 6ebe
00000220: 4bba 633e 072e b43e 1017 bd3d 11df 773e
00000230: 86cd c83d 3e63 b3be 1e7f febe 6cd7 a83d
00000240: aaba ce3e 3fb7 453d c154 15bd f19e cb3d
00000250: bdd1 38be f279 bbbe 3828 473e 0702 e93c
00000260: d320 803e d197 fbbd 6325 17be 29aa dd3d
00000270: ce52 e73e a98c eb3e b692 713e d1f9 e63c
00000280: 8700 0abb 1a2f 28be b180 c5be c6c1 95be
00000290: 0b28 b63e 51aa cb3d 697b 243d a5cd 8abe
000002a0: f22d 9ebd 27d6 a13e 8998 b23e edf2 783d
000002b0: 5389 eb3d 11bd 07bc 79a8 90be 5c47 543e
000002c0: 821e 86bd 7564 5d3d 8778 ef3c a52c 6b3e
000002d0: 4b06 943f 69fa 5cbd 8d79 0c3e 65e3 b03e
000002e0: 499e 24bc 7a04 e53c c0f5 c338 944e 4f3d
000002f0: 2acb 8dbf 94fb 7b3d f37d ba3e 2c87 943d
00000300: 567d 6e3c 85a5 063e 156c a5be 84b4 443f
00000310: dc4e ae3d e25f c2be b010 13be 6b91 a6be
00000320: c26a ccbe cfa9 4dbe 4547 7ebe f643 c7bc
00000330: 36ee 333f 79a1 09bd cbc3 e6bc dcc7 793e
00000340: 16e9 963c 8ff3 5f3d 2339 23bc f585 95be
00000350: 48e9 233c a6d7 033e ec97 bf3e f005 693e
00000360: 809d cc3d 14c3 3ebe 01df 5d3e 4e33 963d
00000370: 51b3 35be b842 16bf 76ed 213d bdca bfbe
00000380: 6fb4 04be b8a7 3a3e a758 3fbf 274d c6be
00000390: 6d92 283e 70fb 28bd 519f 02be 0afb b13e
000003a0: fdfd ab3d d0e7 ba3e bba1 abbd a6a4 d5be
000003b0: 34d7 48bd 6187 6ebd 39d4 7ebe 2bf3 88be
000003c0: 5435 5e3e 8fb2 7b3e 8f49 bdbe a326 9fbe
000003d0: ee26 b53e 3e77 cabe 9fb1 8dbe ef42 a2bd
000003e0: f0c4 823c b8a6 313e 03ce cfbd 1776 b6be
000003f0: 908a ebbe 9d24 6abe 9fdb b53d 5bde 7dbe

bias f4 [512]
0.10988974 -0.3114322 -0.051061213 0.110401146 0.37146166 0.27146408 -0.10136589 -0.18419757
0.08704038 0.07109716 0.30809563 0.2980796 0.2758323 0.34505817 -0.14475256 -0.17416283
0.30333996 -0.27230436 -0.06947747 0.3157439 0.27791196 0.347782 -0.007975059 -0.00347958
0.1993481 0.2263504 0.09791385 0.0044608125 -0.25021446 -0.10900455 0.36684275 0.07679541
0.17728916 0.3566377 0.34279978 0.19279096 0.046599917 -0.07232853 -0.00031568034 -0.016386112
-0.23173465 -0.27020183 -0.20991702 0.14714122 0.38277292 -0.008868077 -0.13469335 0.136158
0.25492683 0.17947677 -0.032291908 -0.02174974 -0.117419854 -0.21063277 0.027409514 0.16877626
0.3006284 -0.383167 -0.23024221 -0.216078 0.3111508 0.24341723 0.28108647 0.2656326
0.2814516 0.17418563 0.05950624 0.018592985 0.009045347 -0.12977189 0.35808605 0.30266345
-0.1667257 0.064108945 -0.082098514 -0.20267951 -0.2990547 -0.233093 0.16084392 -0.1608704
0.26123342 -0.12432414 0.3837817 0.2608454 -0.3030228 -0.16154654 0.21673025 0.22225796
0.39144862 0.2174756 -0.23564072 -0.053044427 -0.12894 -0.109657414 0.42378157 0.0036282556
-0.14172056 0.29007894 -0.066167265 0.07136615 0.28848517 -0.2222322 -0.011976291 -0.03187157
0.100013904 -0.15479186 -0.032857824 -0.17019351 0.0035692141 -0.24041408 0.16974466 0.015133564
-0.2657228 0.19771786 0.25332776 0.16901949 0.018868897 0.0033363928 -0.12882794 0.14913233
0.3345126 0.22919358 -0.2735677 -0.072249025 0.27337542 -0.030224709 0.34662664 -0.25393355
0.0031742016 0.21652763 -0.1897136 0.0019305699 -0.26291358 -0.18475263 -0.39984915 0.33636478
0.31501624 -0.14957312 -0.19945577 -0.15357648 0.23600613 0.35242268 -0.041669704 -0.08605977
-0.1850344 0.15433483 0.3981717 0.06399711 -0.2843921 -0.20134811 -0.023440205 0.11379322
0.14494427 -0.23729008 0.04020702 -0.05470574 0.20244817 -0.13409132 0.17397617 -0.28267524
-0.22536804 0.23193714 0.010441291 0.29464945 0.1294101 -0.027208261 0.23592249 0.0043801265
0.22470242 -0.08411133 0.21797869 0.28247353 0.0088445 0.31635556 0.3084604 -0.008767619
-0.14400758 -0.047925916 0.37661263 -0.02572767 -0.19098723 0.0002038591 0.21360722 0.35939065
0.36123246 0.060310353 -0.0018818222 -0.1558946 0.20961577 0.073365726 0.38989404 0.063258976
0.26013783 0.0037976156 0.29626712 -0.36812696 0.3607171 0.08627408 0.21768273 -0.16306977
-0.0720626 0.2501365 -0.23213232 0.017664775 0.3485188 0.19329846 -0.054712288 -0.056100935
-0.08184527 0.3970051 -0.04158116 0.21577573 -0.23056464 -0.072208405 0.36856273 -0.16753957
-0.115386635 0.17013323 -0.024669364 0.065379955 0.018850151 -0.17744403 -0.18117319 0.09844629
-0.24054296 0.121406585 0.017328227 0.19950107 0.13204767 -0.024681607 -0.19719881 0.06357734
-0.27577263 -0.21187226 -0.12555881 0.13994315 -0.00405324 0.34880802 0.09372371 0.13140647
0.28307587 -0.21901691 0.12805729 -0.12934297 -0.12387134 -0.007180684 0.2872519 -0.14063852
0.3206642 -0.025385696 0.0010285558 0.23173226 -0.16968378 0.12393516 -0.19274476 -0.09005437
00000000: df0d e13d 0b74 9fbe 9025 51bd ff19 e23d
00000010: 3930 be3e 57fd 8a3e eb98 cfbd 4a9e 3cbe
00000020: 3a42 b23d 639b 913d b6be 9d3e e49d 983e
00000030: e439 8d3e 77ab b03e 043a 14be be57 32be
00000040: 604f 9b3e 7a6b 8bbe 344a 8ebd 2fa9 a13e
00000050: 7a4a 8e3e 7b10 b23e d2a9 02bc aa09 64bb
00000060: e921 4c3e 66c8 673e 0e87 c83d 022c 923b
00000070: 1c1c 80be c73d dfbd d0d2 bb3e e946 9d3d
00000080: 4a8b 353e 3799 b63e 7483 af3e fe6a 453e
00000090: 8edf 3e3d fb20 94bd e681 a5b9 2b3c 86bc
000000a0: d94b 6dbe e557 8abe 7df4 56be 30ac 163e
000000b0: d0fa c33e 694b 11bc 0eed 09be 016d 0b3e
000000c0: c585 823e c2c8 373e 8544 04bd 832c b2bc
000000d0: d279 f0bd 1eb0 57be eb89 e03c afd3 2c3e
000000e0: f7eb 993e 772e c4be 9dc4 6bbe 8d43 5dbe
000000f0: 284f 9f3e 5e42 793e 91ea 8f3e ff00 883e
00000100: 6d1a 903e b85d 323e d1bc 733d 5150 983c
00000110: ef32 143c ece2 04be 0e57 b73e b4f6 9a3e
00000120: 24ba 2abe 8d4b 833d 4423 a8bd 388b 4fbe
00000130: b31d 99be eeaf 6ebe 45b4 243e 36bb 24be
00000140: 63c0 853e a89d febd 097f c43e 878d 853e
00000150: ce25 9bbe 756c 25be 89ee 5d3e 9797 633e
00000160: f46b c83e ecb1 5e3e cd4b 71be 1d45 59bd
00000170: d908 04be 1194 e0bd e6f9 d83e 07c8 6d3b
00000180: 321f 11be 3a85 943e b482 87bd 6b28 923d
00000190: 54b4 933e d690 63be 3538 44bc c38b 02bd
000001a0: 17d4 cc3d c281 1ebe ed95 06bd 3547 2ebe
000001b0: 7ae9 693b 1c2f 76be 8bd1 2d3e c5f2 773c
000001c0: d20c 88be 8d76 4a3e 2db4 813e 7213 2d3e
000001d0: f292 9a3c 62a7 5a3b 79eb 03be 25b6 183e
000001e0: 3c45 ab3e b9b1 6a3e 1111 8cbe 4cf7 93bd
000001f0: ddf7 8b3e cf99 f7bc 0c79 b13e 9403 82be
00000200: 4406 503b 6bb9 5d3e 4844 42be 2d0b fd3a
00000210: 9c9c 86be cb2f 3dbe 07b9 ccbe 0138 ac3e
00000220: cf49 a13e b229 19be 223e 4cbe 2743 1dbe
00000230: 97ab 713e bf70 b43e daad 2abd 1b40 b0bd
00000240: a879 3dbe f309 1e3e 29dd cb3e eb10 833d
00000250: d79b 91be 332e 4ebe ac05 c0bc 6b0c e93d
00000260: 456c 143e 2cfc 72be 1eb0 243d 2013 60bd
00000270: 934e 4f3e 3c4f 09be cf26 323e cfba 90be
00000280: e1c6 66be ee80 6d3e f311 2b3c 4bdc 963e
00000290: 1584 043e dce3 debc aa95 713e 2a87 8f3b
000002a0: 6418 663e 9042 acbd ce35 5f3e 5fa0 903e
000002b0: 86e8 103c 5bf9 a13e 86ee 9d3e 0fa6 0fbc
000002c0: b976 13be f74d 44bd 5fd3 c03e d6c2 d2bc
000002d0: 2892 43be 03c3 5539 dabb 5a3e 0d02 b83e
000002e0: 76f3 b83e fd07 773d 7aa7 f6ba d6a2 1fbe
000002f0: 84a5 563e c540 963d 31a0 c73e ec8d 813d
00000300: c930 853e 6be1 783b 53b0 973e 237b bcbe
00000310: e9af b83e 77b0 b03d 39e8 5e3e c3fb 26be
00000320: 8e95 93bd e411 803e 18b4 6dbe b8b5 903c
00000330: 0e71 b23e 08f0 453e fe19 60bd 18ca 65bd
00000340: 7e9e a7bd 4144 cb3e 0251 2abd 50f4 5c3e
00000350: 2319 6cbe 00e2 93bd 41b4 bc3e 7e8f 2bbe
00000360: d44f ecbd 6837 2e3e 6817 cabc ede5 853d
00000370: a26b 9a3c e3b3 35be 7785 39be 359e c93d
00000380: e550 76be 04a4 f83d edf3 8d3c 024a 4c3e
00000390: 8137 073e 1531 cabc 7cee 49be d634 823d
000003a0: 1232 8dbe 0bf5 58be 7d92 00be 424d 0f3e
000003b0: 0bd1 84bb f796 b23e 37f2 bf3d 6b8f 063e
000003c0: 52ef 903e f845 60be 7321 033e 7c72 04be
000003d0: 42b0 fdbd f14b ebbb ae12 933e 8b03 10be
000003e0: 192e a43e aaf5 cfbc 9bd0 863a 394b 6d3e
000003f0: 96c1 2dbe b8d1 fd3d e25e 45be 6d6e b8bd

weight f4 [256, 512]
-0.12505886 -0.053009253 -0.080386885 0.04959049 0.037187576 0.03972272 -0.07299681 -0.36444676
0.070351 -0.061355807 0.06621796 0.040753398 0.017016796 -0.0045836517 -0.34173548 -0.7244328
0.00031896977 -0.16667578 -0.0747539 -0.06295006 0.0738627 0.009129834 0.57814616 0.36150897
0.0012787614 0.08929839 0.068391755 -0.104135394 0.2033918 0.08219699 0.05750712 0.1041307
0.0051243836 0.045195375 0.054740943 0.052112576 0.20527342 -0.038143683 0.49588177 0.014908299
-0.13674031 -0.16494253 -0.08852127 0.029614449 0.020890018 -0.028920846 0.059524257 0.3636286
0.04498513 -0.045887474 0.09413223 0.38312805 -0.1920146 0.37512538 0.19082578 -0.05577105
0.03670183 -0.13376889 -0.09863803 -0.03454769 0.078661166 0.051434934 0.051184215 0.022508826
0.06844002 0.10258609 0.100476004 0.030330468 0.15308422 0.3960161 0.05284949 0.0525111
-0.37326083 0.17461574 -0.15960222 -0.33953455 -0.0034780588 -0.19885084 -0.052914057 -0.15328643
0.05774689 -0.121253684 0.078190885 0.03925533 -0.094117284 -0.24964057 0.054485258 -0.021924729
-0.0008046262 -0.008141272 -0.1350645 0.03468747 0.056259796 -0.35595015 -0.18154265 0.061007496
0.004418554 0.06664997 0.025144916 0.049452785 0.06461729 -0.030112077 0.07943658 0.08083291
0.21682557 -0.25898355 -0.115699835 -0.03019003 0.2280695 -0.011193107 0.012081224 0.35929385
-0.058937024 -0.0017438704 0.12714808 -0.021636736 0.05256483 0.08175485 -0.32121655 -0.14980012
0.04295211 -0.033179767 -0.07472873 0.07620846 0.015590138 0.13496926 0.05611679 -0.095333725
0.34878233 -0.08889158 0.20864484 0.09900626 -0.403791 -0.006114831 0.21166648 0.14356561
0.054584134 0.008500843 -0.047083348 0.018654216 0.061297175 0.08669343 0.1480146 0.06193752
-0.053002384 -0.039217126 0.085180186 0.24077144 0.02092105 -0.14466394 0.046174433 -0.009501263
-0.002883669 0.29043186 0.07285365 -0.1579874 -0.040756065 -0.14528291 0.1630206 -0.16752194
-0.29382384 -0.018945456 0.20973526 -0.10247415 -0.0992646 0.004893071 0.13301866 0.68644124
-0.25539297 0.5073062 0.0394234 0.028122103 0.15422645 0.046590365 -0.153613 0.083001904
-0.26166955 -0.04112437 0.011845364 0.07903609 -0.20562854 0.30776668 0.01598322 0.020150274
-0.0053783464 0.066007905 0.26040924 -0.46899343 0.009846166 -0.008322817 0.0802746 0.12772469
-0.018336717 -0.12210695 0.030325731 -0.048548926 0.055895686 0.27934268 0.24044377 -0.1048206
0.037551265 0.05609504 0.00628486 -0.2005663 -0.20306614 0.041219767 0.11053131 0.26982418
-0.12886359 0.041091643 0.19883938 0.07795858 0.2476462 -0.32604474 -0.009893944 -0.13227434
0.06884216 0.0011520722 -0.05258013 -0.039434236 0.011527838 -0.16841234 -0.18661916 0.086326346
-0.32072535 0.006472277 -0.111373894 0.025934365 -0.08883689 0.106115505 -0.09041365 -0.06815916
-0.07815442 -0.0120919775 0.23581132 0.10184825 -0.057411946 0.2103913 0.053432036 -0.14915043
0.006173661 -0.45609754 -0.143134 -0.6998191 0.48319376 -0.12589328 0.048633765 0.15660754
0.24271348 -0.04022457 0.24482939 -0.089880854 0.10607214 -0.060996667 -0.24971257 -0.05027336
00000000: 6e0f 00be 3b20 59bd e1a1 a4bd 661f 4b3d
00000010: 0052 183d 4ab4 223d 5a7f 95bd c498 babe
00000020: 2f14 903d 3a50 7bbd 489d 873d 09ed 263d
00000030: cf66 8b3c 7532 96bb f4f7 aebe 6e74 39bf
00000040: 663b a739 0ead 2abe 9318 99bd f6eb 80bd
00000050: 5445 973d 4d95 153c 6301 143f b417 b93e
00000060: 1d9c a73a 13e2 b63d fa10 8c3d f044 d5bd
00000070: f145 503e e556 a83d 968c 6b3d 7a42 d53d
00000080: 72ea a73b c91e 393d 0a38 603d ff73 553d
00000090: 3233 523e 8d3c 1cbd 37e4 fd3e f041 743c
000000a0: a705 0cbe b2e6 28be a44a b5bd 009a f23c
000000b0: 8b21 ab3c 69eb ecbc b5cf 733d 872d ba3e
000000c0: 5442 383d 81f4 3bbd 66c8 c03d 5c29 c43e
000000d0: 7a9f 44be 6f10 c03e d567 433e 2f70 64bd
000000e0: a854 163d b6fa 08be bc02 cabd e181 0dbd
000000f0: 1b19 a13d 70ad 523d 8aa6 513d 6e64 b83c
00000100: 482a 8c3d a818 d23d 5dc6 cd3d 9a77 f83c
00000110: 1cc2 1c3e 9fc2 ca3e b578 583d e115 573d
00000120: 0b1c bfbe 78ce 323e c46e 23be 79d7 adbe
00000130: 25f0 63bb 8e9f 4bbe 69bc 58bd 1ef7 1cbe
00000140: 0188 6c3d da53 f8bd 8b22 a03d 32ca 203d
00000150: 90c0 c0bd c7a1 7fbe ef2b 5f3d 7d9b b3bc
00000160: 8ded 52ba f862 05bc 594e 0abe 7314 0e3d
00000170: ac70 663d 193f b6be 51e6 39be ffe2 793d
00000180: 84c9 903b c87f 883d b6fc cd3c 018f 4a3d
00000190: 1256 843d 9aad f6bc a5af a23d ba8b a53d
000001a0: 8607 5e3e 7e99 84be 09f4 ecbd 1551 f7bc
000001b0: 0d8b 693e 4b63 37bc 53f0 453c 5df5 b73e
000001c0: f367 71bd 9592 e4ba 1b33 023e 863f b1bc
000001d0: 384e 573d 166f a73d 7f76 a4be 3465 19be
000001e0: 8dee 2f3d 82e7 07bd 600b 99bd 2e13 9c3d
000001f0: c76d 7f3c 6235 0a3e b8da 653d 543e c3bd
00000200: 9993 b23e ca0c b6bd fea6 553e cbc3 ca3d
00000210: b2bd cebe ec5e c8bb 19bf 583e dd02 133e
00000220: 9d93 5f3d 1f47 0b3c 78da 40bd bad0 983c
00000230: bf12 7b3d 538c b13d 2491 173e 32b2 7d3d
00000240: 0719 59bd 23a2 20bd f372 ae3d ca8c 763e
00000250: 9f62 ab3c c922 14be 6721 3d3d 2fab 1bbc
00000260: f0fb 3cbb 7cb3 943e 4b34 953d 73c7 21be
00000270: d5ef 26bd 0bc5 14be dfee 263e df8a 2bbe
00000280: 1470 96be 8033 9bbc d7c4 563e f8dd d1bd
00000290: 3d4b cbbd 0e56 a03b 0b36 083e 9dba 2f3f
000002a0: dec2 82be d2de 013f 6e7a 213d 5360 e63c
000002b0: 8aed 1d3e 8ad5 3e3d ba4c 1dbe e7fc a93d
000002c0: 8df9 85be 0772 28bd 0f13 423c acdd a13d
000002d0: 4a90 52be 9893 9d3e 3eef 823c 3012 a53c
000002e0: d73c b0bb 272f 873d 5c54 853e e81f f0be
000002f0: d051 213c 6d5c 08bc 0267 a43d 43ca 023e
00000300: e236 96bc 3513 fabd ab6d f83c 3ddb 46bd
00000310: e0f2 643d 0106 8f3e e436 763e 2fac d6bd
00000320: 5bcf 193d eac3 653d 3af1 cd3b 4161 4dbe
00000330: 92f0 4fbe 0fd6 283d 3d5e e23d 6526 8a3e
00000340: d1f4 03be b64f 283d 8d9c 4b3e bfa8 9f3d
00000350: f796 7d3e 56ef a6be 351a 22bc ed72 07be
00000360: 1efd 8c3d 2101 973a 435e 57bd cb85 21bd
00000370: 42df 3c3c 4974 2cbe 1819 3fbe decb b03d
00000380: 1d36 a4be 6515 d43b ff17 e4bd 4e74 d43c
00000390: 1ef0 b5bd 1653 d93d cb2a b9bd 0897 8bbd
000003a0: 6d0f a0bd 6e1d 46bc 8678 713e d195 d03d
000003b0: ca28 6bbd d170 573e 8ddb 5a3d e4ba 18be
000003c0: 6c4c ca3b 9e85 e9be b891 12be 5827 33bf
000003d0: 2c65 f73e 2bea 00be 3334 473d ba5d 203e
000003e0: e289 783e 85c2 24bd 8eb4 7a3e 7413 b8bd
000003f0: 5a3c d93d a4d7 79bd a7b4 7fbe 70eb 4dbd

bias f4 [256]
0.022294395 -0.042591922 0.04749674 0.030246327 -0.018675113 -0.0010426781 0.09611234 -0.014483667
0.045649067 0.056943674 0.037706155 0.06037891 0.039347947 0.0804379 -0.04065158 0.039250687
0.06511172 0.03414956 0.06721971 0.025068417 0.115445234 -0.00042972513 0.010433081 0.049642168
0.05295653 0.069515005 0.010248329 0.024636291 0.021458868 -0.011070149 0.10375862 0.057697847
0.031228658 0.0587601 0.005648844 0.06577291 0.052066024 0.02411308 0.020865917 0.02160418
0.10447605 0.047270514 -0.01700711 0.01654956 -0.02397671 0.051442906 -0.020393984 -0.042640053
0.10740624 0.023738736 0.10747066 -0.019518081 -0.04350869 0.01400714 -0.038476966 0.014177623
-0.0011942182 0.06965911 0.05091314 -0.0016219832 -0.0757018 0.064656004 -0.0326421 -0.048413858
0.015543351 0.02825434 -0.0236661 -0.005326272 -0.030457199 -0.0002637238 0.04512338 0.08594704
0.06869253 -0.041429833 0.0078019206 0.060386293 0.015976323 0.030755855 0.051217776 0.04914837
0.005479413 0.079764016 0.050237987 0.017914753 0.019873625 0.001761538 0.10669577 0.028881274
0.056657065 0.008936613 -0.031636 0.06634891 0.025155611 0.11455085 0.04952656 -0.080470316
0.066661894 -0.01729896 -0.01582464 0.05539946 0.010878307 0.016107524 0.10636936 -0.033230163
0.016134076 -0.013363329 0.011380535 0.04893424 0.017753482 -0.08207211 -0.01554042 0.008471257
-0.005717671 0.051609606 0.016929831 0.04766935 0.044938754 0.044200774 0.01686212 0.021904616
0.012899809 0.07235838 0.04120331 0.0414372 0.010959656 0.10353864 -0.01486774 -0.026004227
-0.024936585 -0.03690366 -0.008405117 -0.021598276 0.011931129 0.004421671 0.0263109 -0.031434618
0.059632163 0.012756904 -0.037771013 0.05598219 0.00144593 -0.030527337 0.06397137 0.10117635
-0.07300602 0.019231841 0.017866947 0.042116523 0.08626146 0.017603459 0.04463167 0.015629059
0.025118988 0.018049179 0.010879732 0.04708784 -0.014081604 0.004700977 0.025467377 0.03305015
0.022121934 0.02889324 0.043901727 0.026241118 -0.0041417074 0.11749852 0.015115065 0.13505052
-0.045719847 0.0046116323 0.019177174 0.09284058 0.026481045 0.07922858 0.0055398126 0.04641127
0.015209502 0.032649525 -0.040009715 0.11800938 -0.03406375 -0.004274649 0.05661046 0.0020314455
-0.014248596 0.018413978 0.057238773 0.047886472 0.000742378 -0.008043599 -0.017579855 0.025959184
0.039005846 0.031290617 0.005866181 0.061557557 -0.00012019175 -0.007939208 -0.029727388 -0.0043049394
0.010643079 -0.03478468 0.022989726 -0.03696554 -0.007675724 0.028077789 -0.00918217 0.00043873666
0.0036801628 0.0020816696 -0.032750536 0.031784285 0.108601004 0.020493556 0.034424353 0.0056993244
0.068175 0.05524369 0.010332442 0.030415894 0.046022724 0.10600788 0.027693333 0.017160917
-0.0012002896 0.04437174 -0.032426946 0.078417465 -0.052736398 0.041036006 -0.012301871 0.016148752
-0.029133586 -0.03870953 0.10620059 0.0033020636 -0.03553665 0.04475846 0.038295377 0.003770547
-0.0011756106 0.0429887 0.04010098 -0.030993523 0.019925406 0.08119091 -0.003977155 0.016884752
0.017039198 0.035768904 -0.020886848 0.041895382 0.050477847 0.037230916 0.0122749815 0.03611814
00000000: bca2 b63c de74 2ebd f18b 423d 25c7 f73c
00000010: 8dfc 98bc 79aa 88ba 8cd6 c43d e74c 6dbc
00000020: 84fa 3a3d c53d 693d c571 1a3d e04f 773d
00000030: 502b 213d a0bc a43d 4582 26bd 54c5 203d
00000040: 4b59 853d 69e0 0b3d 7daa 893d 485c cd3c
00000050: 8d6e ec3d bb4c e1b9 83ef 2a3c 9655 4b3d
00000060: f2e8 583d e25d 8e3d 9be8 273c 0cd2 c93c
00000070: 82ca af3c 925f 35bc 667f d43d 9454 6c3d
00000080: 3ed3 ff3c 6eae 703d f019 b93b f3b3 863d
00000090: 2f43 553d cb88 c53c 00ef aa3c 40fb b03c
000000a0: 8af7 d53d ba9e 413d 7f52 8bbc f192 873c
000000b0: ce6a c4bc ccb5 523d 4911 a7bc 56a7 2ebd
000000c0: cef7 db3d bd77 c23c 9419 dc3d 62e4 9fbc
000000d0: 2b36 32bd 347e 653c 069a 1dbd 4349 683c
000000e0: 5087 9cba 6fa9 8e3d 4c8a 503d ba98 d4ba
000000f0: 8c09 9bbd 5e6a 843d b9b3 05bd 9c4d 46bd
00000100: 8aa9 7e3c a575 e73c 69df c1bc 0288 aebb
00000110: 6081 f9bc 6944 8ab9 4bd3 383d 0005 b03d
00000120: abae 8c3d 54b2 29bd 41a7 ff3b 9e57 773d
00000130: c7e0 823c b4f3 fb3c bbc9 513d cd4f 493d
00000140: a68c b33b 515b a33d 59c6 4d3d f6c1 923c
00000150: 03ce a23c 68e3 e63a 5083 da3d 6c98 ec3c
00000160: 3d11 683d df6a 123c c094 01bd f0e1 873d
00000170: 2413 ce3c a399 ea3d 5ddc 4a3d 9fcd a4bd
00000180: 0886 883d 8cb6 8dbc ada2 81bc 8bea 623d
00000190: ed3a 323c edf3 833c 2ed8 d93d 5a1c 08bd
000001a0: 9c2b 843c ddf1 5abc 6c75 3a3c 456f 483d
000001b0: c06f 913c 6c15 a8bd 3f9d 7ebc 07cb 0a3c
000001c0: 4d5b bbbb 9864 533d 6eb0 8a3c f040 433d
000001d0: b311 383d df0b 353d 6e22 8a3c 4f71 b33c
000001e0: b859 533c a130 943d cdc4 283d 0eba 293d
000001f0: 2190 333c 110c d43d d297 73bc d106 d5bc
00000200: cf47 ccbc 4b28 17bd 9eb5 09bc deee b0bc
00000210: c87a 433c aae3 903b f589 d73c 96c1 00bd
00000220: db40 743d 5502 513c c7b5 1abd 954d 653d
00000230: 5c85 bd3a 7714 fabc 6c03 833d 8c35 cf3d
00000240: 2e84 95bd 188c 9d3c b45d 923c 6082 2c3d
00000250: d9a9 b03d 2135 903c b3cf 363d 8308 803c
00000260: 56c6 cd3c dfdb 933c e740 323c 2edf 403d
00000270: 87b6 66bc a70a 9a3b f6a0 d03c 985f 073d
00000280: 0f39 b53c 84b1 ec3c 4cd2 333d 9df7 d63c
00000290: 29b7 87bb 10a3 f03d 2da5 773c af4a 0a3e
000002a0: bc44 3bbd 2d1d 973b 7319 9d3c 3423 be3d
000002b0: c7ee d83c 9842 a23d 5187 b53b be19 3e3d
000002c0: 4631 793c 82bb 053d 3ae1 23bd e7ae f13d
000002d0: 6e86 0bbd 5b12 8cbb 5fe0 673d 0022 053b
000002e0: f172 69bc e9d8 963c 3473 6a3d 9b24 443d
000002f0: 259c 423a 4dc9 03bc a103 90bc 5ba8 d43c
00000300: 98c4 1f3d 972a 003d 1839 c03b c723 7c3d
00000310: 740f fcb8 7413 02bc da86 f3bc 7310 8dbb
00000320: 4f60 2e3c 617a 0ebd f354 bc3c 2e69 17bd
00000330: a484 fbbb 6403 e63c d070 16bc 3d06 e639
00000340: e32e 713b 9f6c 083b 6d25 06bd 3d30 023d
00000350: 346a de3d 1ae2 a73c 8d00 0d3d 66c1 ba3b
00000360: 569f 8b3d 3547 623d 6749 293c c12a f93c
00000370: 5382 3c3d a91a d93d 21dd e23c 0d95 8c3c
00000380: 0953 9dba 24bf 353d 1ed2 04bd 5699 a03d
00000390: 1f02 58bd 5f15 283d c98d 49bc 634a 843c
000003a0: 8fa9 eebc e28d 1ebd b27f d93d 6f67 583b
000003b0: e18e 11bd a654 373d 9ddb 1c3d 481b 773b
000003c0: f216 9aba eb14 303d ed40 243d 21e6 fdbc
000003d0: 9b3a a33c 6b47 a63d cb52 82bb e451 8a3c
000003e0: ca95 8b3c 6a82 123d e51a abbc 7e9a 2b3d
000003f0: dcc1 4e3d 727f 183d 011d 493c 9df0 133d

weight f4 [4, 256]
0.26042575 -0.0016400453 -0.28938055 -0.1820347 0.40040705 0.2607063 0.14913872 0.04025336
0.2143584 0.39946732 0.16879363 -0.21318589 -0.15485805 0.05734752 0.052830238 -0.058873404
-0.06628722 0.21933693 -0.3371074 -0.3011763 0.22756103 -0.25114727 -0.32100675 -0.33723366
0.26519582 0.98501766 -0.30153608 0.011458646 -0.19435255 -0.02566155 0.30179653 -0.3078172
-0.25321743 -0.09553197 -0.38607252 0.370417 -0.3621834 0.02895833 0.0261426 0.2386483
-0.32434905 -0.18487377 -0.05271795 -0.24162143 0.027119141 0.115050994 0.023615161 0.036831155
0.14290959 0.10831509 0.19409712 0.096303344 0.020253781 -0.38723597 -0.3337816 0.25641984
-0.031315994 -0.28245312 -0.36376882 -0.3022389 -0.2154634 -0.19493604 -0.05344899 0.36645642
0.015668401 -0.25982717 -0.32754296 -0.30543336 0.0030792565 0.04681798 0.22331512 0.34120202
-0.017172026 -0.011091912 -0.23791526 0.36907396 0.018805886 0.048116285 -0.21663046 -0.24852464
-0.04953229 0.195765 -0.3013208 -0.3626122 -0.012799251 0.27075574 0.25823182 0.079562895
0.17023273 -0.20848969 0.029283771 -0.21747364 0.015383803 0.20097965 -0.36740953 -0.45212862
0.087476574 0.006390506 0.05140813 -0.31705093 -0.3361686 -0.27337834 0.17329144 -0.3493295
-0.11261724 -0.33674976 0.6516177 0.51969695 0.16353731 -0.1806472 0.013381114 0.060007077
0.20056969 -0.35538116 -0.3420471 0.310593 0.2467515 -0.32059678 0.02249687 0.34735918
0.16133793 0.16756448 -0.31014997 0.23457836 0.04422276 0.162779 -0.34118545 -0.012603252
-0.37769222 0.41507873 0.29117084 -0.037227873 -0.14335713 -0.25718918 -0.24721634 0.026884917
0.1594319 0.078653194 -2.6532841e-06 0.19222504 -0.2601639 0.010550754 0.34171584 0.21646763
-0.41970402 -0.33004135 -0.2645474 0.26804376 -0.27684197 -0.2939203 0.20075628 -0.08091963
-0.010046938 -0.22487259 -0.041243993 0.10393055 0.055264555 -0.20374058 -0.28247607 -0.3694369
-0.2992885 0.03265524 -0.16477725 0.3523554 0.13447426 0.25598747 0.31835654 0.25853297
-0.0057452023 -0.02181119 0.44681498 0.20856246 -0.2780792 -0.19705853 -0.21828787 -0.26163623
0.004938228 -0.2951737 -0.046792623 0.2675921 0.051362608 -0.05034177 -0.3171316 0.26802176
0.3982479 0.0064070094 0.4269731 0.39067635 0.013797872 0.3129143 0.04916905 -0.22102773
-0.31634432 -0.31244943 -0.33802542 -0.15993024 -0.3471268 0.031591278 0.036576062 0.022375464
-0.26886338 0.011673881 0.020387286 -0.033968955 -0.0018831762 -0.004600873 -0.24832696 -0.26895005
-0.041988626 0.68854505 -0.030184308 -0.47809955 0.2596215 0.36670116 -0.20474266 -0.36161935
0.49338248 0.19735911 0.24671268 -0.30964115 0.192098 0.22209303 -0.23535857 0.002338923
-0.0012876893 -0.26663572 -0.29968277 0.43756482 -0.19726264 0.17665038 -0.30965453 -0.3475315
0.0009773177 0.0090811625 0.2473417 0.04607973 0.03075559 0.3794262 -0.43396872 -0.29064065
-0.22494678 0.2530553 -0.25353765 0.44108653 0.774932 0.21009457 0.3618185 0.28075606
-0.22860646 0.19272068 -0.11955366 -0.33939633 0.3498677 0.065399416 -0.06909622 -0.32403737
00000000: 8656 853e caf6 d6ba b029 94be 4e67 3abe
00000010: 2702 cd3e 4c7b 853e d2b7 183e b5e0 243d
00000020: c580 5b3e fb86 cc3e 3dd8 2c3e 674d 5abe
00000030: 1c93 1ebe 3ce5 6a3d 8564 583d 3d25 71bd
00000040: 98c1 87bd dc99 603e 5799 acbe c833 9abe
00000050: c205 693e 6096 80be ff5a a4be e4a9 acbe
00000060: bfc7 873e 1e2a 7c3f f062 9abe 0bbd 3b3c
00000070: 5b04 47be 2c38 d2bc 1385 9a3e 379a 9dbe
00000080: b7a5 81be 44a6 c3bd 4cab c5be 4ca7 bd3e
00000090: 1a70 b9be 053a ed3c 0229 d63c 3860 743e
000000a0: 1411 a6be 8d4f 3dbe c7ee 57bd 9c6b 77be
000000b0: f628 de3c db9f eb3d 9574 c13c 44dc 163d
000000c0: e456 123e 4dd4 dd3d 65c1 463e b03a c53d
000000d0: 42eb a53c cb43 c6be 6ce5 aabe 7649 833e
000000e0: 3345 00bd b29d 90be e83f babe 0fbf 9abe
000000f0: 70a2 5cbe 509d 47be 54ed 5abd 2da0 bb3e
00000100: 055b 803c 1108 85be b6b3 a7be c361 9cbe
00000110: 5acd 493b 36c4 3f3d b8ac 643e 08b2 ae3e
00000120: 59ac 8cbc daba 35bc 0fa0 73be 43f7 bc3e
00000130: cd0e 9a3c 9515 453d 60d4 5dbe 3e7d 7ebe
00000140: 5fe2 4abd 9f76 483e b846 9abe 4ea8 b9be
00000150: f3b3 51bc 7fa0 8a3e f636 843e dff1 a23d
00000160: 7d51 2e3e 527e 55be 85e4 ef3c 69b1 5ebe
00000170: 590c 7c3c 9ccd 4d3e 1a1d bcbe 677d e7be
00000180: eb26 b33d 7367 d13b 5591 523d 8054 a2be
00000190: 4a1e acbe 3ff8 8bbe 5073 313e 51db b2be
000001a0: dea3 e6bd 776a acbe 6bd0 263f dc0a 053f
000001b0: 5376 273e 94fb 38be 763c 5b3c fbc9 753d
000001c0: 2462 4d3e 85f4 b5be cc20 afbe 0c06 9f3e
000001d0: 6dac 7c3e 4325 a4be 5b4b b83c 10d9 b13e
000001e0: c535 253e 0696 2b3e facb 9ebe 4f35 703e
000001f0: ed22 353d 8aaf 263e dcaf aebe df7d 4ebc
00000200: e060 c1be 3385 d43e 5814 953e 417c 18bd
00000210: 36cc 12be 4dae 83be 4826 7dbe c23d dc3c
00000220: 1e42 233e ed14 a13d 130f 32b6 a4d6 443e
00000230: 3434 85be 12dd 2c3c 61f5 ae3e b1a9 5d3e
00000240: 72e3 d6be 2efb a8be c272 87be 083d 893e
00000250: 3bbe 8dbe b97c 96be 0e93 4d3e 31b9 a5bd
00000260: ea9b 24bc 0045 66be 76ef 28bd 8ad9 d43d
00000270: 165d 623d 5fa1 50be b4a0 90be d526 bdbe
00000280: 583c 99be 80c1 053d 5ebb 28be ed67 b43e
00000290: 9fb3 093e ca10 833e a1ff a23e 6f5e 843e
000002a0: 4042 bcbb 61ad b2bc efc4 e43e 6691 553e
000002b0: 6660 8ebe b6c9 49be db86 5fbe 2ff5 85be
000002c0: dcd0 a13b 0221 97be 9fa9 3fbd d501 893e
000002d0: 9961 523d 2c33 4ebd 135f a2be 263a 893e
000002e0: 26e7 cb3e e4f1 d13b 389c da3e bb06 c83e
000002f0: 7810 623c 4e36 a03e 7c65 493d 1855 62be
00000300: e2f7 a1be 5ff9 9fbe ab11 adbe c1c4 23be
00000310: 9bba b1be db65 013d c8d0 153d c04c b73c
00000320: 76a8 89be ce43 3f3c 3d03 a73c 0823 0bbd
00000330: e8d4 f6ba ecc2 96bb 6c49 7ebe d2b3 89be
00000340: 44fc 2bbd 7d44 303f 1545 f7bc 77c9 f4be
00000350: 1ced 843e 41c0 bb3e 0fa8 51be 2c26 b9be
00000360: a19c fc3e 8218 4a3e 40a2 7c3e 4989 9ebe
00000370: 57b5 443e 5b6c 633e d601 71be 9e48 193b
00000380: afc7 a8ba 7a84 88be 0570 99be 7f08 e03e
00000390: 38ff 49be d6e3 343e 0a8b 9ebe a6ef b1be
000003a0: 5719 803a 28c9 143c 2547 7d3e 19be 3c3d
000003b0: 26f3 fb3c 2744 c23e 2631 debe dace 94be
000003c0: 7358 66be 7790 813e b0cf 81be 18d6 e13e
000003d0: f261 463f 0823 573e 4640 b93e 42bf 8f3e
000003e0: d017 6abe 9258 453e 8dd8 f4bd 5bc5 adbe
000003f0: dc21 b33e 21f0 853d 5282 8dbd 3ae8 a5be

bias f4 [4]
0.019352142 -0.032584317 0.014350607 0.061633505
00000000: 6288 9e3c 2277 05bd cf1e 6b3c 6a73 7c3d
