models/dqn_half.pt (torch, 552146 bytes, 6 tensors)

weight f4 [512, 8]
0.49346837 0.27436525 -0.6039397 -0.07485472 0.34259546 0.27144727 0.19536422 -0.13335961
-0.11867334 0.20565158 -0.69801867 0.9050709 0.6286898 -1.22277 0.04007964 0.19551581
-0.41096562 -3.376358 0.13346271 -0.3326323 0.5204601 -0.29300892 -0.31020373 -0.50617534
-0.08049069 -1.9166121 0.0037418257 -0.1341236 0.069250405 -0.0012309215 0.088863045 -0.31043747
-0.6366797 -1.1121233 -0.18035284 0.5854926 -0.3176593 -0.12666285 0.01753921 0.24555549
0.059315525 -0.3295063 0.3596722 1.374193 0.3512571 0.50130457 0.44014576 -0.22903636
-0.4919642 0.23506492 0.60383075 0.0155253485 -0.93133163 -0.8933266 0.19342726 0.40010366
-0.949125 -1.7439464 -0.3575284 -0.3284741 0.02096344 0.05022078 -0.12293625 -0.20090178
-0.09619127 0.12585019 0.59788686 -0.84707564 -0.26727933 0.52130586 -0.21682633 -0.21652468
-0.000969082 -1.6293803 -0.4379507 -0.30970025 -0.7750882 -0.29139605 -0.85481155 -0.13985045
0.3097279 -3.4261289 0.3099011 -0.25492275 0.48122072 -0.46335465 -0.14913757 -0.270603
-0.17422156 -0.9498435 0.033195827 -0.3290437 0.75092155 0.29923242 -0.022822054 -0.81994236
-0.078542575 -0.89853096 0.35305166 0.06355857 0.29462004 -0.5319808 0.06731009 -0.4819839
-0.24614866 -0.594281 -0.44068274 -0.60261923 -0.69565034 0.22743048 -0.6612209 0.10270315
-0.006827338 -0.0037640512 -2.0244398 2.8449686 -0.15921746 0.007567682 0.42974898 0.013880977
0.064255364 -0.7325293 -0.09443566 -0.039075248 -0.39704388 -0.20328014 -0.41286692 0.08104148
0.5937204 -4.3168135 0.47561166 -0.046229478 0.5176543 -0.24053225 0.06439441 -0.23273727
-0.2112061 0.16760214 -0.12964019 -0.36288118 3.6369078 -0.0034493527 0.024486978 -0.21370569
-0.5412622 -0.7660387 0.5723505 -0.7216322 -0.63220614 -0.102757305 -0.740924 -0.1567166
-0.006873815 -1.7030762 0.582379 -0.06438072 -0.045692623 0.285286 -0.25232938 0.46238184
-0.09009954 -0.09614343 0.8781916 0.75990057 0.4893941 -0.6108279 -0.54190594 0.44610924
0.3408137 -1.2048334 -0.0031378197 0.22014014 -0.5584946 0.1258241 -0.029968405 0.26758122
-0.035810594 -0.440517 -1.3065623 1.3548921 0.76988405 0.33174 -0.33136585 -0.27076748
0.21258321 -2.7373 0.361884 -0.29354015 0.187938 0.015053099 -0.72063637 -1.0028985
0.1722477 -2.3162158 0.10139541 0.2506537 -0.084241465 -0.2546824 -0.54316264 0.11036789
0.5210528 -0.027078098 -0.92504704 1.4630529 0.3963907 -0.44152164 0.5484406 -0.84775794
-0.96954304 -1.5714172 -0.886505 -0.090470664 0.52493036 0.51030755 0.10639483 -0.3975594
0.18993664 -0.038705584 -0.74958813 0.28991294 -0.6353218 0.6708172 -0.08319381 -0.5791477
-0.7996439 0.36627808 -0.897623 -0.31963402 -0.116940446 0.4283445 -0.84772116 0.021846063
-0.50819284 -1.8665775 0.35693502 0.3257757 0.2455553 0.16670045 -0.5468387 -0.28412303
0.20818977 -1.5215613 -0.17840451 0.10482185 -0.532936 0.18898463 0.21332502 0.38033843
0.28565732 -0.021120427 -0.28153658 0.106073946 0.28141707 -0.4056001 -0.040077318 -0.011543179
00000000: e3a7 fc3e 9a79 8c3e cb9b 1abf 6e4d 99bd
00000010: ac68 af3e 23fb 8a3e 8f0d 483e 6c8f 08be
00000020: 020b f3bd 5496 523e 5ab1 32bf bab2 673f
00000030: d1f1 203f ba83 9cbf 8c2a 243d 4c35 483e
00000040: 166a d2be 4016 58c0 73aa 083e c84e aabe
00000050: e03c 053f 4405 96be 06d3 9ebe b594 01bf
00000060: 4ed8 a4bd 8c53 f5bf 6b39 753b b257 09be
00000070: 28d3 8d3d df56 a1ba d4fd b53d a9f1 9ebe
00000080: 71fd 22bf 0e5a 8ebf 6aae 38be d8e2 153f
00000090: 3da4 a2be e8b3 01be 64ae 8f3c e672 7b3e
000000a0: d6f4 723d 0db5 a8be f426 b83e 8ee5 af3f
000000b0: f8d7 b33e 7f55 003f c95a e13e 8288 6abe
000000c0: bbe2 fbbe dcb4 703e a794 1a3f 085e 7e3c
000000d0: c06b 6ebf 0db1 64bf cc11 463e 63da cc3e
000000e0: dbf9 72bf a339 dfbf f60d b7be c22d a8be
000000f0: 85bb ab3c 4eb4 4d3d 00c6 fbbd 32b9 4dbe
00000100: eeff c4bd dfde 003e 1d0f 193f f3d9 58bf
00000110: d6d8 88be 4d74 053f b907 5ebe a5b8 5dbe
00000120: fe09 7eba 898f d0bf 133b e0be 0891 9ebe
00000130: 2e6c 46bf dd31 95be eed4 5abf f534 0fbe
00000140: a894 9e3e b245 5bc0 5bab 9e3e 3c85 82be
00000150: 9062 f63e d23c edbe 85b7 18be 7a8c 8abe
00000160: 2367 32be f228 73bf 59f8 073d 6a78 a8be
00000170: 653c 403f fe34 993e 51f5 babc bee7 51bf
00000180: eeda a0bd 2006 66bf 30c3 b43e ff2a 823d
00000190: 70d8 963e e52f 08bf dfd9 893d 98c6 f6be
000001a0: 650e 7cbe cd22 18bf 2ba1 e1be 4145 1abf
000001b0: 2416 32bf 89e3 683e c645 29bf 0756 d23d
000001c0: ddb7 dfbb 4dae 76bb 6c90 01c0 f713 3640
000001d0: e709 23be 51fa f73b 0f08 dc3e 0a6d 633c
000001e0: 5198 833d 0a87 3bbf 7c67 c1bd 5e0d 20bd
000001f0: 5649 cbbe ab28 50be 4b63 d3be 13f9 a53d
00000200: 0ffe 173f 5623 8ac0 5f83 f33e 1f5b 3dbd
00000210: fe84 043f 164e 76be 37e1 833d ae52 6ebe
00000220: 6946 58be e59f 2b3e 66c0 04be 90cb b9be
00000230: 19c3 6840 890e 62bb ea98 c83c aad5 5abe
00000240: 2990 0abf 1d1b 44bf 9085 123f e3bc 38bf
00000250: 43d8 21bf 6c72 d2bd 32ad 3dbf 517a 20be
00000260: bd3d e1bb 67fe d9bf ca16 153f 0ada 83bd
00000270: 3028 3bbd 0211 923e 5131 81be 50bd ec3e
00000280: 1c86 b8bd d9e6 c4bd 2ad1 603f d888 423f
00000290: dd91 fa3e 385f 1cbf 59ba 0abf 6e68 e43e
000002a0: 227f ae3e fb37 9abf e1a3 4dbb 6b6c 613e
000002b0: 81f9 0ebf 08d8 003e 4d80 f5bc 6800 893e
000002c0: 21ae 12bd 728b e1be 6f3d a7bf 1b6d ad3f
000002d0: 1f17 453f d3d9 a93e c9a8 a9be 09a2 8abe
000002e0: 6aaf 593e ec2f 2fc0 dc48 b93e e54a 96be
000002f0: d272 403e 46a1 763c a07b 38bf fa5e 80bf
00000300: b361 303e e13c 14c0 66a8 cf3d af55 803e
00000310: ca86 acbd bb65 82be b50c 0bbf 8f08 e23d
00000320: b763 053f e3d2 ddbc e2cf 6cbf 5145 bb3f
00000330: b9f3 ca3e 200f e2be 9a66 0c3f aa06 59bf
00000340: f933 78bf 3324 c9bf fef1 62bf af48 b9bd
00000350: d661 063f 84a3 023f 88e5 d93d e88c cbbe
00000360: c07e 423e bf89 1ebd 02e5 3fbf 786f 943e
00000370: 73a4 22bf adba 2b3f 8461 aabd 0643 14bf
00000380: 76b5 4cbf cd88 bb3e 9fca 65bf 12a7 a3be
00000390: 797e efbd f84f db3e 4104 59bf 84f6 b23c
000003a0: ed18 02bf 03ec eebf 30c0 b63e 13cc a63e
000003b0: d972 7b3e 86b3 2a3e 9ffd 0bbf 9378 91be
000003c0: b32f 553e 85c2 c2bf acaf 36be d7ac d63d
000003d0: 7e6e 08bf 3085 413e e071 5a3e b8bb c23e
000003e0: ad41 923e bf04 adbc 9025 90be 4c3d d93d
000003f0: e615 903e d1aa cfbe 1d28 24bd 9a1f 3dbc

bias f4 [512]
-0.093046024 -0.05807592 0.30363488 -0.53517103 -0.55164045 -0.32707644 -0.1800657 0.16631065
-0.36378732 -0.3550162 -0.31892005 -0.23153806 -0.37533745 -0.1580856 0.010240213 -0.82662
0.37088794 0.117725536 0.033132154 -0.1755932 0.15030302 -0.581397 0.01378092 -0.17641264
-0.12779236 0.09474833 -0.15556948 -0.31610864 -0.39550424 -0.7293264 -0.16532123 0.0473026
-0.738142 0.00096405565 0.08419746 -0.032363314 -0.16704549 -0.5727128 0.0075757704 -0.27055582
-0.32389846 -0.23276486 -0.6500374 -0.67583853 0.15730053 -0.4041648 -0.5405184 -0.13646759
-0.11448987 -0.2699658 -0.63489074 -0.4373692 -0.96138173 0.10565715 -0.3467942 0.17809564
-0.49058887 0.015982063 -0.21594487 0.2907955 -0.36997506 -0.5029317 -0.38246784 0.16633658
0.23025723 0.12448978 -0.68095946 -0.203251 0.20718418 0.18277949 -0.12100442 -0.26649
0.35763392 -0.44684651 -0.6451406 0.45186177 0.16600338 -0.18502405 -0.45738608 -0.2868181
-0.078788355 -0.24613406 0.3111391 0.16355833 -0.84725577 -0.64235705 -0.856942 -0.44039804
-0.58618355 -0.14450976 0.029694065 -0.54536253 -0.7109371 -0.028228492 -0.82701284 -0.6741849
-0.7905309 -0.20997107 0.4097401 -0.37404048 0.08829095 -0.3759833 -0.17419235 0.07051257
0.050214864 -0.18255542 -0.050624035 0.3877153 -0.21155968 -0.304992 -0.35240275 0.124578156
-0.09810721 -0.47888932 0.087451905 -0.5259586 -0.0013833678 0.39877272 -0.38962078 -0.25177363
-0.42387572 -0.5437322 -0.6004051 -0.294554 -0.36920288 -0.19136849 -0.17313415 0.0791928
-0.25575742 -0.556196 -0.6394661 -0.46036464 0.15635394 -0.57830065 -0.63761085 -0.3156631
-0.17345704 -0.17659034 -0.30822092 -0.25727898 -0.71559995 -0.15887676 -0.37179133 -0.50208277
-0.4941408 -0.6368075 0.014399503 -0.40528902 -0.09998389 0.3592656 0.18525347 -0.5494397
0.011439042 -0.5356159 -0.71914405 0.15903798 0.04008361 -0.45543262 -0.050912667 -0.26492798
0.0100379605 0.19061282 -0.14144127 -0.048140764 -0.22796673 -0.51252973 -0.6111278 -0.33161348
-0.17759642 -0.8430417 -0.52031296 0.18503891 -0.46769994 -0.53732455 0.009039407 -0.4295479
-0.84802306 -0.5349273 0.124762855 -0.37324542 0.17459701 -0.23639828 -0.64134234 -0.5479085
-0.503602 0.11191167 0.2543734 -0.19823216 0.08632472 -0.5053699 -0.50640064 -0.06276442
0.040171493 -0.7788167 -0.73850393 -0.5874353 -0.19040559 -0.06369577 -0.55712456 -0.7234637
-0.3406507 0.3509887 -0.6492643 -0.2893281 -0.658859 -0.34741858 -0.3657621 -0.46428612
-0.18284951 -0.14316188 -0.30290797 -0.6394025 -0.34012428 0.26185858 -0.22421359 -0.11947731
-0.34026012 -0.25197324 -0.0077297525 0.15790379 -0.26638207 -0.26317564 -0.6369862 -0.5096211
-0.5672147 -0.4276809 0.123193726 -0.7984328 -0.46866748 -0.06488879 -0.28831345 -0.010888848
-0.82625645 0.015386572 0.042937666 -0.12766652 0.09468564 -0.66194177 -0.19339158 -0.4411315
-0.63765615 -0.11048037 -0.162892 -0.45631993 0.25475428 -0.62556607 -0.12327014 -0.9226944
0.011842426 -0.39361948 -0.20023961 -0.20408973 -0.08032167 -0.23787555 -0.7126306 -0.489848
00000000: ea8e bebd 04e1 6dbd 0876 9b3e f800 09bf
00000010: 4f38 0dbf 9076 a7be 2563 38be 574d 2a3e
00000020: 5542 babe afc4 b5be 7d49 a3be 5018 6dbe
00000030: 3b2c c0be 31e1 21be 91c6 273c 5e9d 53bf
00000040: 06e5 bd3e 161a f13d 95b5 073d b4ce 33be
00000050: 09e9 193e 6fd6 14bf 5ec9 613c 84a5 34be
00000060: 00dc 02be 6a0b c23d 9b4d 1fbe fed8 a1be
00000070: 887f cabe 23b5 3abf f849 29be 5fc0 413d
00000080: e0f6 3cbf aeb8 7c3a b86f ac3d 658f 04bd
00000090: f90d 2bbe 4e9d 12bf 2b3e f83b 4b86 8abe
000000a0: 05d6 a5be e959 6ebe da68 26bf c103 2dbf
000000b0: 6413 213e b0ee cebe 6a5f 0abf 29be 0bbe
000000c0: aa79 eabd f538 8abe 3388 22bf dbee dfbe
000000d0: 1d1d 76bf c762 d83d 028f b1be b45e 363e
000000e0: 772e fbbe d1ec 823c a720 5dbe 26e3 943e
000000f0: 5f6d bdbe 22c0 00bf d3d2 c3be 2354 2a3e
00000100: 8dc8 6b3e 7ff4 fe3d 5c53 2ebf 0821 50be
00000110: 1728 543e 8c2a 3b3e 2ad1 f7bd 6171 88be
00000120: cb1b b73e 11c9 e4be ef27 25bf 6d5a e73e
00000130: cafc 293e f276 3dbe 822e eabe d2d9 92be
00000140: ca5b a1bd 910a 7cbe a04d 9f3e d67b 273e
00000150: c1e5 58bf 8371 24bf 8d60 5bbf da7b e1be
00000160: 2010 16bf 5efa 13be f840 f33c e19c 0bbf
00000170: f9ff 35bf 703f e7bc 1db7 53bf 6297 2cbf
00000180: 3c60 4abf a802 57be 74c9 d13e 3c82 bfbe
00000190: e3d1 b43d e280 c0be 7b5f 32be e568 903d
000001a0: 1aae 4d3d cfef 3abe 265b 4fbd 9f82 c63e
000001b0: 1aa3 58be e927 9cbe 226e b4be d522 ff3d
000001c0: 6fec c8bd fb30 f5be fc19 b33d 39a5 06bf
000001d0: 1f52 b5ba f02b cc3e 607c c7be 79e8 80be
000001e0: 3d06 d9be 0932 0bbf 26b4 19bf c8cf 96be
000001f0: 2908 bdbe 1af6 43be 144a 31be d62f a23d
00000200: a3f2 82be dc62 0ebf 0db4 23bf eab4 ebbe
00000210: 3f1b 203e 830b 14bf 773a 23bf 989e a1be
00000220: b99e 31be 19d4 34be 22cf 9dbe 12ba 83be
00000230: 8f31 37bf 97b0 22be 6f5b bebe 7f88 00bf
00000240: 0600 fdbe d105 23bf e5eb 6b3c 0b82 cfbe
00000250: 5bc4 ccbd a9f1 b73e 16b3 3d3e 15a8 0cbf
00000260: d26a 3b3c 201e 09bf d319 38bf dada 223e
00000270: b62e 243d 772e e9be cd89 50bd a4a4 87be
00000280: 4276 243c 0230 433e fbd5 10be 402f 45bd
00000290: 1c70 69be 2635 03bf df72 1cbf 3ec9 a9be
000002a0: d6db 35be 95d1 57bf 3b33 05bf d77a 3d3e
000002b0: 5e76 efbe 1a8e 09bf 051a 143c b4ed dbbe
000002c0: 0a18 59bf fff0 08bf ab83 ff3d 061a bfbe
000002d0: 8fc9 323e 6412 72be 032f 24bf bb43 0cbf
000002e0: 10ec 00bf f231 e53d 3b3d 823e 5ffd 4abe
000002f0: 04cb b03d ec5f 01bf 79a3 01bf a28a 80bd
00000300: dd8a 243d 8860 47bf 980e 3dbf 2962 16bf
00000310: aff9 42be ee72 82bd b79f 0ebf eb34 39bf
00000320: c569 aebe cab4 b33e 2f36 26bf d022 94be
00000330: fcaa 28bf d9e0 b1be 2c45 bbbe e9b6 edbe
00000340: e73c 3bbe 0799 12be c116 9bbe e2af 23bf
00000350: c524 aebe 5412 863e 3f98 65be 85b0 f4bd
00000360: 9336 aebe a302 81be dd49 fdbb 88b1 213e
00000370: 3b63 88be f5be 86be 8711 23bf 8776 02bf
00000380: fc34 11bf fef8 dabe fe4c fc3d 1866 4cbf
00000390: 2ff5 efbe 6ae4 84bd d29d 93be 2467 32bc
000003a0: 8b85 53bf f617 7c3c 68df 2f3d 03bb 02be
000003b0: 8bea c13d 0475 29bf 7108 46be fddb e1be
000003c0: 6f3d 23bf 8843 e2bd 29cd 26be c4a2 e9be
000003d0: 276f 823e 1925 20bf 0e75 fcbd b335 6cbf
000003e0: bc06 423c 7e88 c9be 9d0b 4dbe e6fc 50be
000003f0: b07f a4bd a695 73be f66e 36bf 5bcd fabe

weight f4 [256, 512]
-0.27888694 -1.2356809 -1.0483227 0.14935267 -0.24988614 0.44191867 0.44798425 0.20518336
0.51964843 -0.5024128 -1.3382434 0.29837057 -0.19413276 -0.038341623 -0.827547 -0.38909468
-0.37049794 -0.5635602 0.35875958 -0.2624278 -0.33040583 -0.30628744 1.0097916 -0.8563701
-0.29623297 -0.103289016 0.24935706 -0.03068861 -0.40638474 -0.2187354 -0.17740834 -0.3646232
-0.14669687 0.13413379 0.14140317 0.03141703 0.25934067 0.036086544 0.05375284 0.38743663
-1.0155414 -0.11510512 0.16006121 1.3477314 0.63749987 -1.353877 0.17945957 0.2757074
0.30733117 -0.20431398 0.040589556 0.4266512 0.44805306 -0.12523167 0.2699256 0.76752603
0.08990421 0.39011067 -0.27541915 -0.043689027 0.1576145 -0.33836925 -0.5527143 -0.25848773
-0.09664529 0.35022172 -0.5481716 0.30811575 -1.0627685 -0.6875524 0.46249664 0.36328432
0.1172547 -0.8070271 0.32507038 -0.009020001 0.14339934 -0.20046103 -0.21743476 0.22518764
0.39710444 0.8287429 -0.39737457 -0.63918906 -0.15575705 0.32882634 -0.04582457 -0.18245624
-0.16159701 -1.0977203 0.35417283 0.3800657 -0.47190115 0.18091445 -0.15196976 -0.20416479
-0.21716614 0.35584337 0.25863612 -0.06232142 -0.4419137 -1.128559 0.049891613 -0.34760737
-0.7271145 0.22405519 -0.42486298 -0.13123395 0.2250799 0.15818755 0.55029064 -0.68039894
0.16543055 -0.12888388 -0.6298726 -0.08467787 0.44264117 0.26388982 -0.273823 0.051382344
0.09018303 -0.3699975 0.0975641 -1.17161 0.19666141 0.6866721 -0.19482349 -0.55166906
0.053598315 0.19627708 0.3549351 -0.012572072 0.15497951 -0.45091146 0.30624673 0.33582485
-0.29910487 -0.060613744 1.0683669 0.8885908 0.10893121 -0.4532153 -0.08288705 -0.2605635
-0.23918974 -0.05688168 0.033541378 -0.048413813 -0.17398602 0.42403397 0.52089405 0.21292841
0.03260813 -0.51540947 0.94685674 0.22836384 -1.2520548 0.67568123 0.9003666 -0.61443365
-1.4183438 -0.3569223 0.1579949 -0.8969384 0.16163315 -0.028410984 -0.28358495 -0.017914396
-1.286737 -0.13877924 -0.17723994 0.14708775 0.63616836 0.13894756 0.119396485 -0.53033674
0.49185267 0.041751552 0.0047347527 0.09882159 0.10734362 0.1571255 0.0860117 -0.4064649
-0.70420486 -0.83777094 0.37545103 0.48401737 0.010434606 -0.30523732 -0.25758794 0.39385512
-0.76684326 0.43773296 -0.07384105 -0.0627375 0.37876347 0.30230045 -0.58837014 -0.08076346
-0.59078234 0.28380054 0.28373703 -0.09068228 0.43779367 0.0122581925 -0.5544598 0.43097594
0.4967061 0.53755385 -0.4346645 0.39890686 0.62762177 0.085997894 0.10603896 -0.1570205
0.62802356 0.08392809 -0.19686623 -1.3096701 -0.37186754 -0.22660542 0.43023798 -0.36204782
0.4118586 0.71541816 -0.29724666 -0.42520314 0.7996045 0.077954166 -0.028248684 -1.1516913
-0.9931151 -0.26885825 -0.4049944 -2.9177136 -0.05291738 0.13299368 -0.37143004 0.0743375
-0.4802328 -0.24167919 0.007931595 -0.50231904 0.7740638 -0.24509884 0.21190475 0.23435283
-0.018825589 -0.5426744 -0.279435 -0.4241999 -0.61870694 -0.025337184 0.1344004 0.0055787405
00000000: 45ca 8ebe cb2a 9ebf 702f 86bf e8ef 183e
00000010: 27e2 7fbe 2a43 e23e 315e e53e 961b 523e
00000020: ae07 053f 209e 00bf 8f4b abbf 07c4 983e
00000030: bdca 46be 1b0c 1dbd 1fda 53bf 6b37 c7be
00000040: e8b1 bdbe 7b45 10bf 56af b73e f05c 86be
00000050: f42a a9be b5d1 9cbe da40 813f 123b 5bbf
00000060: d9ab 97be 3189 d3bd 7557 7f3e ae66 fbbc
00000070: a911 d0be 2cfc 5fbe 88aa 35be e4af babe
00000080: b437 16be 5e5a 093e fecb 103e 25af 003d
00000090: 4dc8 843e 7ccf 133d f02b 5c3d 185e c63e
000000a0: 43fd 81bf 3cbc ebbd 16e7 233e 7682 ac3f
000000b0: 3133 233f d74b adbf 40c4 373e 8529 8d3e
000000c0: 835a 9d3e af37 51be 3c41 263d 0772 da3e
000000d0: 3667 e53e bb3c 00be b033 8a3e 967c 443f
000000e0: b31f b83d 96bc c73e bd03 8dbe 44f3 32bd
000000f0: b265 213e bc3e adbe af7e 0dbf 8158 84be
00000100: f7ed c5bd 4350 b33e f954 0cbf 59c1 9d3e
00000110: cc08 88bf 6f03 30bf 5ccc ec3e 6700 ba3e
00000120: 3b23 f03d 5499 4ebf a06f a63e a0c8 13bc
00000130: 47d7 123e a845 4dbe 38a7 5ebe 9797 663e
00000140: 4651 cb3e 7f28 543f ae74 cbbe e5a1 23bf
00000150: c77e 1fbe ed5b a83e 8bb2 3bbd cfd5 3abe
00000160: b079 25be 1982 8cbf 2456 b53e f997 c23e
00000170: 079d f1be a341 393e f69d 1bbe 9310 51be
00000180: cd60 5ebe 1a31 b63e f46b 843e bf44 7fbd
00000190: 8342 e2be 9f74 90bf 265b 4c3d 98f9 b1be
000001a0: 2d24 3abf b96e 653e a487 d9be 3162 06be
000001b0: 587b 663e ebfb 213e d9df 0c3f a02e 2ebf
000001c0: a066 293e 23fa 03be 553f 21bf 976b adbd
000001d0: dda1 e23e 911c 873e 8732 8cbe 4b76 523d
000001e0: e1b1 b83d 5070 bdbe b0cf c73d 51f7 95bf
000001f0: 9c61 493e bec9 2f3f cf7f 47be 2f3a 0dbf
00000200: e889 5b3d dcfc 483e 0eba b53e 18fb 4dbc
00000210: f3b2 1e3e dedd e6be 5fcc 9c3e 3cf1 ab3e
00000220: 4624 99be 1e46 78bd 3fc0 883f b07a 633f
00000230: 5417 df3d d60b e8be b0c0 a9bd 9468 85be
00000240: 28ee 74be c4fc 68bd af62 093d 904d 46bd
00000250: 6429 32be fb1a d93e 5059 053f e809 5a3e
00000260: 1a90 053d e0f1 03bf 3465 723f 36d8 693e
00000270: 5543 a0bf 72f9 2c3f 6d7e 663f 864b 1dbf
00000280: 4a8c b5bf 85be b6be 6ac9 213e c19d 65bf
00000290: 2983 253e 27be e8bc 0c32 91be 36c1 92bc
000002a0: ccb3 a4bf 251c 0ebe 637e 35be 2c9e 163e
000002b0: eedb 223f 4548 0e3e 2586 f43d 26c4 07bf
000002c0: 1dd4 fb3e ad03 2b3d fc25 9b3b f962 ca3d
000002d0: f9d6 db3d 82e5 203e e726 b03d 2b1c d0be
000002e0: c546 34bf 2878 56bf 1e3b c03e 20d1 f73e
000002f0: e9f5 2a3c 1148 9cbe 91e2 83be 61a7 c93e
00000300: d74f 44bf 891e e03e fa39 97bd 857c 80bd
00000310: 49ed c13e 20c7 9a3e 6d9f 16bf 5067 a5bd
00000320: 833d 17bf 4e4e 913e fb45 913e a2b7 b9bd
00000330: 7e26 e03e 96d6 483c 14f1 0dbf e1a8 dc3e
00000340: 4350 fe3e 219d 093f 588c debe 853d cc3e
00000350: d2ab 203f aa1f b03d f42a d93d fbc9 20be
00000360: 27c6 203f 7ee2 ab3d 4d97 49be 45a3 a7bf
00000370: 6c65 bebe 400b 68be 2748 dc3e 555e b9be
00000380: 21df d23e a525 373f b730 98be 3ab4 d9be
00000390: e1b2 4c3f 6fa6 9f3d c969 e7bc 9f6a 93bf
000003a0: cb3c 7ebf caa7 89be 6d5b cfbe d2bb 3ac0
000003b0: e5bf 58bd 7f2f 083e 142c bebe 423e 983d
000003c0: 13e1 f5be c07a 77be 85f3 013c fb97 00bf
000003d0: 0c29 463f 31fb 7abe 8ffd 583e 30fa 6f3e
000003e0: 1f38 9abc b6ec 0abf 1b12 8fbe bb30 d9be
000003f0: 9463 1ebf ed8f cfbc 42a0 093e decd b63b

bias f4 [256]
0.10240166 -0.020647163 -0.28021738 -0.027612176 -0.097924024 -0.16979773 0.31437647 -0.06490611
-0.064909756 -0.05877082 0.3340027 -0.25168017 -0.071352825 0.043641023 -0.22683918 0.19144091
0.29067814 -0.03876921 0.016752329 -0.039536133 0.15254958 -0.06250522 0.110714674 -0.03441663
-0.0605893 0.29829156 -0.056181077 -0.22208259 0.0054593696 -0.08307321 -0.002230847 -0.043311503
-0.08179769 -0.0726155 -0.060518455 0.25760993 -0.35801172 0.03278511 0.24336629 -0.4176715
0.110106744 -0.37421727 -0.10053734 0.02533094 -0.07618037 0.016648587 -0.06639858 0.30151936
-0.041398324 0.31722462 0.025614543 0.09498921 0.20531072 0.00075809873 0.03007897 0.20331895
-0.0019634562 -0.24081314 -0.07142234 0.020167993 -0.043087956 -0.013988596 -0.48191035 -0.087708466
-0.012175461 -0.0735983 -0.04519156 -0.0019766563 -0.055523787 0.019698597 -0.033926256 -0.06925528
-0.3552009 0.031344865 -0.047902297 -0.09080997 0.26365632 0.23841462 -0.4101613 -0.20113488
0.009679659 -0.11151572 -0.06550678 -0.031467132 0.10859347 -0.08963371 -0.23616917 -0.31982327
-0.04730149 -0.05138567 -0.010909889 -0.06770073 0.12360176 -0.04982305 -0.062174484 -0.123247385
-0.07441427 0.011534867 -0.05117244 0.13630578 -0.0034324604 -0.08640855 -0.01939516 -0.251601
0.00061561237 -0.35674262 -0.13131571 -0.033740778 -0.06446207 0.010985493 -0.0339777 -0.004030145
-0.14478698 -0.16956055 -0.0042124405 -0.021240324 0.3154749 -0.06251287 -0.06276434 0.3310872
-0.04517822 -0.15811075 -0.07391277 -0.072354645 -0.2799581 0.5854213 0.04541581 -0.222559
0.12224118 -0.5830194 0.30339134 0.17624755 -0.039322466 -0.046471793 -0.13763523 0.2808213
-0.050999314 -0.06690952 -0.06002249 -0.14362611 -0.09580867 0.0033228935 -0.13680615 -0.09286741
-0.03846388 -0.048080876 -0.007580126 0.006030558 0.015168013 -0.007832062 -0.061450254 0.30505785
0.016581291 0.34117147 -0.17912705 -0.24329504 0.26599622 -0.07402123 0.054050535 -0.021813307
-0.034924626 -0.065335564 -0.17966999 -0.034728844 -0.015126385 -0.06284626 -0.0715758 0.27652043
-0.2272536 -0.18751508 -0.00942953 0.22223143 0.06657533 -0.02970066 -0.014348899 -0.0777381
-0.023236882 -0.055656113 -0.03388876 -0.10909166 -0.119329125 -0.021348057 -0.04464644 -0.040185507
-0.30641192 -0.46977606 -0.05912357 0.019134967 0.35707232 -0.27930877 0.22215334 0.00025065924
0.0069351024 0.013711752 0.031391613 -0.049983475 -0.031842034 -0.17118846 -0.0013072599 -0.007382422
-0.037630923 -0.33944103 -0.07125633 0.018616289 -0.095556386 -0.03793536 -0.06998037 -0.31967273
-0.013077894 -0.067961395 -0.23546176 -0.26561677 -0.0023245697 -0.3258387 0.021158641 -0.27351964
-0.13767946 -0.023249064 -0.008226628 0.25373802 -0.0903862 0.35553345 -0.22638685 -0.059503835
-0.07943988 -0.07134676 -0.0634199 -0.020169951 -0.027612897 -0.0116890855 -0.15042534 0.34038773
0.025158623 -0.13605034 0.12586197 -0.048827324 0.1402181 0.14868696 -0.027019748 -0.58603513
-0.047869436 -0.010564125 0.1971782 0.41750363 0.0062335306 -0.0051447344 -0.31803384 -0.23001651
0.06998314 -0.04795442 -0.058429636 -0.26286235 -0.04898843 -0.17654195 -0.39623693 -0.06706168
00000000: f6b7 d13d 3d24 a9bc a778 8fbe ee32 e2bc
00000010: 648c c8bd 75df 2dbe f4f5 a03e 7fed 84bd
00000020: 68ef 84bd acb9 70bd 6702 ab3e 39dc 80be
00000030: 6e21 92bd eec0 323d 8848 68be 1609 443e
00000040: c4d3 943e 77cc 1ebd 2e3c 893c a4f0 21bd
00000050: f535 1c3e bd02 80bd 60be e23d 74f8 0cbd
00000060: 7c2c 78bd acb9 983e 211e 66bd 9e69 63be
00000070: 83e4 b23b 4a22 aabd 6733 12bb 6767 31bd
00000080: 8c85 a7bd 6fb7 94bd 33e2 77bd 73e5 833e
00000090: 504d b7be ae49 063d 0335 793e 0ad9 d5be
000000a0: a57f e13d 6899 bfbe 85e6 cdbd d582 cf3c
000000b0: 7404 9cbd 9e62 883c fbfb 87bd bf60 9a3e
000000c0: 4a91 29bd 446b a23e 97d5 d13c b489 c23d
000000d0: f93c 523e 25bb 463a 2c68 f63c d832 503e
000000e0: 54ad 00bb b897 76be e045 92bd 5937 a53c
000000f0: ff7c 30bd 6d30 65bc f4bc f6be 7fa0 b3bd
00000100: 967b 47bc b5ba 96bd c91a 39bd ca8a 01bb
00000110: e96c 63bd f45e a13c 42f6 0abd b6d5 8dbd
00000120: e4dc b5be 7963 003d 3335 44bd 94fa b9bd
00000130: f6fd 863e f622 743e a900 d2be 4df6 4dbe
00000140: 6f97 1e3c 5b62 e4bd 6b28 86bd aee3 00bd
00000150: 4166 de3d e191 b7bd 55d6 71be e0bf a3be
00000160: 35bf 41bd c879 52bd 64bf 32bc aea6 8abd
00000170: eb22 fd3d 4113 4cbd acaa 7ebd 2069 fcbd
00000180: 8266 98bd bdfc 3c3c 319a 51bd be93 0b3e
00000190: 21f3 60bb f7f6 b0bd 99e2 9ebc d9d1 80be
000001a0: 0c61 213a f8a6 b6be a077 06be c533 0abd
000001b0: b104 84bd 7ffc 333c 332c 0bbd 4e0f 84bb
000001c0: 0a43 14be 48a1 2dbe 8308 8abb 3000 aebc
000001d0: ed85 a13e bf06 80bd 978a 80bd 4384 a93e
000001e0: cc0c 39bd c9e7 21be 945f 97bd ac2e 94bd
000001f0: ab56 8fbe 2cde 153f ee05 3a3d 82e6 63be
00000200: 9559 fa3d c240 15bf 1c56 9b3e 3d7a 343e
00000210: 9810 21bd 3559 3ebd 40f0 0cbe cfc7 8f3e
00000220: a8e4 50bd dc07 89bd 24da 75bd b912 13be
00000230: 5637 c4bd e7c4 593b e916 0cbe 4531 bebd
00000240: 4d8c 1dbd 74f0 44bd b562 f8bb fd9b c53b
00000250: 4283 783c 0d52 00bc 43b3 7bbd 8b30 9c3e
00000260: 7dd5 873c 07ae ae3e 156d 37be 5622 79be
00000270: a830 883e 7198 97bd 1864 5d3d d2b1 b2bc
00000280: 200d 0fbd a7ce 85bd 69fb 37be d53f 0ebd
00000290: a8d4 77bc 8ab5 80bd 5596 92bd 1694 8d3e
000002a0: 2bb5 68be f403 40be 517e 1abc a390 633e
000002b0: a658 883d cc4e f3bc a517 6bbc 2735 9fbd
000002c0: 465b bebc aaf7 63bd f1ce 0abd 736b dfbd
000002d0: d462 f4bd 1fe2 aebc 2fdf 36bd 8f99 24bd
000002e0: 06e2 9cbe 7d86 f0be 8e2b 72bd efc0 9c3c
000002f0: 2fd2 b63e 8f01 8fbe 2a7c 633e ea6a 8339
00000300: db3f e33b 42a7 603c 7e94 003d 79bb 4cbd
00000310: cb6c 02bd 074c 2fbe 5d58 abba 3fe8 f1bb
00000320: e222 1abd 37cb adbe d7ee 91bd 3081 983c
00000330: 11b3 c3bd 1c62 1bbd de51 8fbd 25ac a3be
00000340: aa44 56bc 582f 8bbd e31c 71be ecfe 87be
00000350: cf57 18bb 55d4 a6be e354 ad3c c40a 8cbe
00000360: d8fb 0cbe d274 bebc fbc8 06bc f3e9 813e
00000370: 661c b9bd 7b08 b63e f4d1 67be 4bba 73bd
00000380: 60b1 a2bd 401e 92bd 4be2 81bd 743b a5bc
00000390: 7134 e2bc 9483 3fbc 1a09 1abe 4d47 ae3e
000003a0: 7519 ce3c c850 0bbe f6e1 003e 29ff 47bd
000003b0: 5595 0f3e 6541 183e 8558 ddbc 6606 16bf
000003c0: be12 44bd 2715 2dbc 15e9 493e 09c3 d53e
000003d0: a542 cc3b 2995 a8bb 55d5 a2be 7389 6bbe
000003e0: 5253 8f3d db6b 44bd ea53 6fbd e595 86be
000003f0: 18a8 48bd 6ac7 34be 91df cabe a257 89bd

weight f4 [4, 256]
-0.6301937 -0.002137353 -0.840186 -0.012307994 -0.08709023 -0.20771715 -0.21219304 -0.0055618407
0.031168712 -0.23582403 -0.6608185 0.39488754 -0.055067323 -0.003602409 -0.068501614 -0.22836855
-0.24093907 0.028150003 0.04259549 0.06253308 0.49147198 0.025187843 -0.43108284 0.0023047123
0.050858647 -0.4084407 0.0027174656 0.08157925 -0.011383668 -0.030529594 0.052631572 -0.04624886
-0.025691586 0.14246362 0.45731452 0.055576406 0.33743337 0.96879196 -0.47676262 -0.49436745
-0.36494625 0.38503477 0.33745316 -0.10017322 0.045821533 0.0455316 -0.043731377 -0.3788714
0.0041009826 0.69960475 0.02194515 -0.17975776 1.225204 -0.0473659 0.030961223 0.6506847
-0.04945885 -0.3447789 -0.19856422 0.83175117 0.0065034158 -0.01539528 -0.035661668 0.39430347
0.060508557 0.011046514 -0.44739708 -0.49110067 0.22283679 -0.039035305 -0.012238117 0.03922139
0.12287341 0.026224334 0.024148136 0.35977867 -0.5348372 -0.18872233 -0.31592 0.31960258
0.053551458 0.44438952 0.5999221 0.032570016 0.6765538 -0.00850839 -0.012188455 0.44167247
-0.048671953 -0.059324928 0.0068774945 0.22399382 -0.34062824 0.25757417 0.010688892 0.2708736
0.26614588 0.4390413 -0.0035093075 0.039976325 -0.060611427 0.10565467 0.0608244 -0.33382067
-0.27343565 -0.16396168 0.55357987 0.024810486 0.0329331 0.02335764 -0.057681985 0.91517633
0.41762003 0.19407071 -0.051086646 0.040122807 -0.13660513 -0.038590334 -0.01408007 -0.6319453
-0.038405165 0.24120332 -0.122151814 0.06851091 0.48456624 -0.2972533 0.36672017 0.37243104
-0.038422827 0.3036231 -0.26257116 -0.15955997 0.0042336686 0.03449788 -0.09531431 -0.12450869
-0.07607602 0.040678702 -0.0076337247 0.8344017 -0.010803139 0.35240188 -0.17868558 0.29671398
0.013842354 -0.034504473 0.016647814 0.015419278 -0.019273631 -0.003228604 -0.014792216 0.10381975
0.0026070084 -0.52701896 0.26424682 0.04400171 -0.089433536 0.057129808 0.32110062 0.024617251
-0.0013847623 -0.05136338 -0.06022293 0.004250034 -0.013622757 -0.9383566 0.0973327 -0.7343803
-0.031410854 -0.36687824 0.038137153 0.46111417 -0.4493498 -0.011552428 0.050520707 0.084882565
-0.018668223 0.03371587 -0.015533903 0.34409648 -0.56641257 0.036830097 0.0014273884 0.31781098
-0.4514645 -0.46452567 0.7457046 0.027809845 0.5387626 0.17991686 -0.43993148 0.02716051
0.041215725 -0.0143036805 -0.017782388 -0.02099023 0.020939257 -0.36516076 0.035900705 -0.12008736
0.05151879 0.14968045 -0.024269683 0.060785674 0.24094425 -0.04210469 0.8384847 0.17425391
0.5715379 0.016423075 0.0019750018 -0.41131738 -0.052097037 -0.8598917 -0.25962067 0.08020196
0.9139856 0.0025353304 -0.06690399 0.041757487 -0.08488547 0.94394696 0.08390487 -0.017619504
0.23547411 0.0016364417 -0.043224677 0.13811049 0.049586516 -0.008552975 0.0038780891 0.37407842
-0.08765855 -0.053421948 0.17844374 0.0062050275 -0.30672848 -0.23604468 -0.0069321333 0.41295266
-0.0017136922 -0.056123517 0.39390218 0.63209033 0.18964541 0.032658033 -0.8832644 -0.0229715
-0.28294125 -0.053607233 -0.03249253 -0.00073592376 0.3260296 0.44765672 -0.2843371 -0.032142874
00000000: 6054 21bf d512 0cbb 6e16 57bf 78a7 49bc
00000010: 5d5c b2bd ceb3 54be 2249 59be 1a40 b6bb
00000020: 8755 ff3c db7b 71be 672b 29bf b32e ca3e
00000030: 468e 61bd 6516 6cbb 934a 8cbd 72d9 69be
00000040: bbb8 76be d69a e63c 9c78 2e3d 5811 803d
00000050: 37a2 fb3e bc56 ce3c e4b6 dcbe a80a 173b
00000060: 2851 503d 241f d1be 8217 323b 0613 a73d
00000070: 9082 3abc 3319 fabc 3494 573d 726f 3dbd
00000080: 2977 d2bc fce1 113e 2125 ea3e 16a4 633d
00000090: 11c4 ac3e c002 783f 3b1a f4be bb1d fdbe
000000a0: 3cda babe 4723 c53e a9c6 ac3e 9e27 cdbd
000000b0: 5caf 3b3d 587f 3a3d ac1f 33bd 6ffb c1be
000000c0: 8961 863b 4c19 333f 51c6 b33c 6b12 38be
000000d0: 7cd3 9c3f bf02 42bd 64a2 fd3c 4693 263f
000000e0: 5d95 4abd dc86 b0be 6b54 4bbe a5ed 543f
000000f0: 9b1a d53b 7c3c 7cbc f811 12bd 25e2 c93e
00000100: d2d7 773d 70fc 343c 3b11 e5be 8c71 fbbe
00000110: 542f 643e 7ce3 1fbd 6282 48bc 9ca6 203d
00000120: 0ea5 fb3d 6ad4 d63c 50d2 c53c e934 b83e
00000130: 17eb 08bf 6d40 41be 44c0 a1be f3a2 a33e
00000140: c658 5b3d 0687 e33e 7f94 193f 2368 053d
00000150: a132 2d3f c666 0bbc 16b2 47bc e522 e23e
00000160: 3e5c 47bd b2fe 72bd 9b5c e13b a35e 653e
00000170: d366 aebe c3e0 833e 7620 2f3c f2af 8a3e
00000180: 4644 883e 05ca e03e 69fc 65bb 37be 233d
00000190: b043 78bd 7a61 d83d 0223 793d 8bea aabe
000001a0: c2ff 8bbe 92e5 27be 69b7 0d3f 5c3f cb3c
000001b0: dce4 063d 8558 bf3c f243 6cbd ff48 6a3f
000001c0: 4bd2 d53e 79ba 463e 3b40 51bd d057 243d
000001d0: 37e2 0bbe e610 1ebd 18b0 66bc 2bc7 21bf
000001e0: bc4e 1dbd 01fe 763e bb2a fabd 734f 8c3d
000001f0: 1119 f83e 9631 98be bfc2 bb3e 48af be3e
00000200: 4161 1dbd 7d74 9b3e ba6f 86be b063 23be
00000210: 96ba 8a3b a64d 0d3d 2634 c3bd 69fe febd
00000220: bfcd 9bbd b69e 263d 5324 fabb 5a9b 553f
00000230: a6ff 30bc 056e b43e 5af9 36be e5ea 973e
00000240: 0acb 623c 9054 0dbd ff60 883c 24a1 7c3c
00000250: bce3 9dbc fd96 53bb 0d5b 72bc 739f d43d
00000260: 58da 2a3b b7ea 06bf 5c4b 873e 233b 343d
00000270: ee28 b7bd f200 6a3d 4d67 a43e 1eaa c93c
00000280: ea80 b5ba 6862 52bd 52ac 76bd df43 8b3b
00000290: fc31 5fbc 2338 70bf 5e56 c73d 5900 3cbf
000002a0: aba8 00bd 77d7 bbbe b435 1c3d 2817 ec3e
000002b0: 2d11 e6be 6546 3dbc cdee 4e3d e9d6 ad3d
000002c0: 1aee 98bc a719 0a3d e981 7ebc 6a2d b03e
000002d0: 6a00 11bf 28db 163d 3517 bb3a 1fb8 a23e
000002e0: 5b26 e7be 4fd6 edbe 7fe6 3e3f 79d1 e33c
000002f0: 59ec 093f 203c 383e b33e e1be b87f de3c
00000300: d2d1 283d fc59 6abc 5fac 91bc b4f3 abbc
00000310: ce88 ab3c 5af6 babe 9e0c 133d 5df0 f5bd
00000320: 5e05 533d d545 193e 37d1 c6bc 66fa 783d
00000330: 17ba 763e f875 2cbd efa6 563f 9e6f 323e
00000340: 4f50 123f af89 863c 086f 013b 3198 d2be
00000350: b463 55bd dd21 5cbf 00ed 84be ed40 a43d
00000360: f6fa 693f c927 263b f604 89bd e609 2b3d
00000370: 6fd8 adbd 82a6 713f 51d6 ab3d c756 90bc
00000380: 2020 713e df7d d63a 5c0c 31bd d66c 0d3e
00000390: 3b1b 4b3d c721 0cbc 8a27 7e3b 3587 bf3e
000003a0: 5386 b3bd f9d0 5abd f5b9 363e 8b53 cb3b
000003b0: 840b 9dbe b2b5 71be f326 e3bb 886e d33e
000003c0: f89d e0ba c6e1 65bd 8cad c93e acd0 213f
000003d0: 6832 423e 6ec4 053d 9e1d 62bf ba2e bcbc
000003e0: addd 90be 4293 5bbd e316 05bd 02eb 40ba
000003f0: 5aed a63e 4333 e53e a294 91be 3fa8 03bd

bias f4 [4]
-0.9120351 -0.5992544 -0.05463624 -0.16107117
00000000: 227b 69bf bd68 19bf 40ca 5fbd d7ef 24be
